lightning_logs/lightning_logs/version_2/checkpoints/epoch=1-step=100.ckpt (torch, 561396 bytes, 820 tensors)

input_embeddings.embeddings.TEAM_ID.weight f4 [30, 11]
000000 91 67 1d 3e 34 f4 ca be ca 45 8b 3f 79 0b 76 3f
       0.15371539 -0.39639437 1.0880673 0.96111256
000010 98 09 a7 be fb ed a7 bf bd 62 af 3f 7c b6 63 bf
       -0.32624507 -1.3119501 1.3702008 -0.88950324
000020 ac 51 4a bf 8c ab dd 3f ab 1f a5 3d a5 b3 2b bf
       -0.7903087 1.7317977 0.08062681 -0.6707099
000030 15 55 1f bf 9e 6f e8 3e 47 8b 9f 3f 31 5e 95 be
       -0.622392 0.45397657 1.2464379 -0.29173425
000040 5d b0 f5 bd 60 5d f9 3f 49 5b 07 bf b6 98 21 3f
       -0.11996529 1.9481621 -0.52873665 0.63123643
000050 3c 33 79 bf b3 d5 c3 bf 59 32 26 3f 70 a8 45 bf
       -0.973438 -1.5299591 0.64920574 -0.7721014
000060 6d e9 0e 40 da ed 08 40 1b c9 99 3f 24 ae 3d be
       2.2329972 2.1395173 1.2014498 -0.1852346
000070 b0 99 58 3e 15 88 10 bf 35 a3 73 40 52 01 60 3f
       0.21152377 -0.56457645 3.8068364 0.87502015
000080 bc fd 9b bf de 5c ea 3f 5c 53 39 3f 64 92 26 bf
       -1.2186809 1.8309591 0.7239282 -0.65067124
000090 31 cb 9a 3f de 48 db bd dd 40 ff 3d db c1 d6 bf
       1.2093259 -0.10707258 0.124635436 -1.677791
0000a0 94 52 a8 be 24 b5 ec 3e 39 5e b7 3f 03 a8 48 bf
       -0.32875502 0.4623195 1.432563 -0.78381366
0000b0 f1 9e 9f be 13 d7 bd 3f 12 0b e6 3e 7d 0b 09 40
       -0.3117595 1.483126 0.4493032 2.1413262
0000c0 8b 74 6a bf 75 96 e4 3e c8 43 c1 3e b7 22 36 bf
       -0.9158408 0.4464604 0.37747025 -0.7114672
0000d0 e7 33 7f 3f 6d 20 0c bf 89 5f c1 3f 8c 92 a9 3e
       0.9968857 -0.5473698 1.510728 0.3311962
0000e0 25 bb 31 bf 85 f1 7d 3f 28 3c 9f 3f 46 4f 80 be
       -0.69426185 0.99196655 1.2440233 -0.2506048
0000f0 d5 f6 46 3f 39 8d 90 bf 30 be 9e bf b1 7d 08 40
       0.77720386 -1.1293098 -1.2401791 2.1326716
000100 81 88 bd bf 67 30 d0 3e 61 17 e4 bc 5d 17 aa 3e
       -1.4807283 0.40661928 -0.02784318 0.3322095
000110 64 74 b2 3f d9 c0 05 c0 6f 55 da bf 3b 9b 13 bf
       1.394177 -2.0898955 -1.7057322 -0.5765874
000120 66 cb a5 3f 74 fb 83 be fa b9 44 bf b5 15 00 3d
       1.2952697 -0.2577778 -0.7684628 0.0312707
000130 2b 9a f9 be 0d a3 a0 3f 8f 6f ab bf c6 fa 76 3f
       -0.48750433 1.2549759 -1.339342 0.964764
000140 ba 0f 22 3c 90 4c 51 3f b3 a9 88 bf 9d 01 3f 3d
       0.009891445 0.8175745 -1.0676788 0.046632398
000150 9d 41 f5 3e dc 0f f6 3f a6 fe 06 3f 45 37 f8 be
       0.4790162 1.922359 0.5273231 -0.48479667
000160 7e c2 16 be e8 ff 1c 3f 55 bc aa bf b4 c5 09 bf
       -0.1472263 0.6132798 -1.3338724 -0.53817296
000170 e7 3d 95 bf 5f 18 9f 3d d6 0e 6d bf 77 d2 7d be
       -1.1659516 0.0776832 -0.9260076 -0.24787317
000180 82 c2 bd 3e d6 a0 a4 3e 5b 80 88 bf 61 9a bd 3f
       0.3706246 0.32153958 -1.0664171 1.4812738
000190 8d 74 66 bf fd 37 66 3f cf a2 94 3e 4e f1 a1 3e
       -0.9002159 0.8992918 0.29030463 0.31629413
0001a0 66 23 75 bf 50 3b b1 bf aa b9 de bf 7c e2 f9 3f
       -0.9575714 -1.3846226 -1.740041 1.9522243
0001b0 4f 41 99 3e 60 38 22 3f 1c 5b 85 bf a9 63 bc be
       0.2993264 0.6336727 -1.0418429 -0.36794785
0001c0 52 40 b4 3f 7e 9d e2 bf 52 eb 13 3e 51 2d 72 3e
       1.4082129 -1.7704313 0.14445236 0.236501
0001d0 86 d1 0c 3e 06 e0 33 3e c4 70 e2 3f d9 59 12 3e
       0.13751802 0.17565927 1.7690663 0.14292087
0001e0 ff 2b 01 3e 2e 31 b2 be f2 16 70 3f 22 fa 37 c0
       0.1261444 -0.34803146 0.9378501 -2.874642
0001f0 82 c7 9d 3e 6c 30 84 be 0a 97 e9 3f 79 d5 16 bf
       0.30816275 -0.25818193 1.8249218 -0.58919483
000200 35 a5 52 3f 6f 9c 9a 3f 50 59 75 bf 9c 28 38 3f
       0.82283336 1.207899 -0.95839405 0.71936965
000210 d5 46 85 bf 42 c2 0b 3f 7b 88 f9 be 19 db 7a bf
       -1.0412241 0.5459329 -0.4873694 -0.97990566
000220 89 bb 9c 3f a5 a1 9c 3f ab 62 49 bf 06 dd 38 be
       1.2244731 1.223683 -0.7866618 -0.18053064
000230 49 49 0d 3c cb 5f 77 bf 88 fa b7 bf 5c 3b 15 3e
       0.00862343 -0.96630543 -1.4373331 0.14573425
000240 f3 de 03 bf 39 37 3d 3f 98 7a 3e be d8 fb 14 bf
       -0.5151207 0.7391239 -0.18601453 -0.58196783
000250 ce c8 05 3f c3 72 bc 3e 8e 36 0f c0 96 03 07 be
       0.5225953 0.36806306 -2.2377048 -0.13184962
000260 b0 cc 04 3f f5 f8 76 3f 3c 7a cc be 42 8e 51 bf
       0.5187483 0.9647363 -0.39937007 -0.81857693
000270 35 ed b9 3f 54 45 eb bf 33 54 99 bf f1 ff 8b 3e
       1.4525515 -1.8380532 -1.197882 0.27343705
000280 17 f0 50 3e 75 92 b8 bd 4c 71 eb 3e 86 fb 6b bf
       0.20404087 -0.090123095 0.45984876 -0.9218067
000290 6b 1b ae 3f a1 45 fe bf a6 71 c4 3f d6 ea 38 3f
       1.3602117 -1.9864999 1.5347183 0.7223333
0002a0 8f 69 65 3f 3f c2 d6 3f 1f 8d 58 be 3c 00 9d bf
       0.89614195 1.6778029 -0.21147583 -1.2265697
0002b0 9d 23 ac bf 1e 37 ce 3f 55 77 e4 3e 56 69 c3 3e
       -1.3448368 1.611057 0.44622293 0.38166302
0002c0 a3 3a 3c bf 71 f5 cc 3e ff 7d eb 3f e3 79 6b 3f
       -0.7352697 0.40031007 1.8397826 0.9198286
0002d0 dd 92 bb bf 8b 71 bd bc a6 2c b0 be 67 a8 d0 3d
       -1.4654194 -0.02312543 -0.34409064 0.1018837
0002e0 67 0e 60 bf 88 ef 47 ba 70 ac 34 c0 ab 4f 56 bf
       -0.87521976 -0.00076269405 -2.8230247 -0.83715314
0002f0 09 be 17 3d 60 77 1f bf cf 3b 5c 3f 6c b4 b9 3d
       0.037046466 -0.62291527 0.8602876 0.09067616
000300 d7 c0 49 bf 8b 63 42 3f 76 27 cf bf a4 35 f0 bd
       -0.78809875 0.7593314 -1.6183918 -0.11728981
000310 dc 4a bb 3e ec e2 bf bc d1 fe e5 bd 1e 4f 13 3e
       0.3658055 -0.023423634 -0.11230243 0.1438565
000320 79 fa 24 40 f4 78 a0 bf 64 bc b7 bd eb a8 59 3f
       2.5777876 -1.2536912 -0.089714795 0.85023373
000330 68 54 bb bf 96 f2 ee be 92 a0 5c be 1c 8f d4 be
       -1.4635134 -0.46669453 -0.21545628 -0.41515434
000340 4b 00 f1 3e ca 57 bc 3f d7 c2 3e 3e 1a 1d af 3f
       0.47070536 1.4714291 0.18629013 1.3680756
000350 e2 ca 97 bf 4b db 88 3b 5f 9b 5b 3f d9 2b 56 c0
       -1.185879 0.0041765324 0.8578395 -3.3464262
000360 fe ad 0a 40 bf 2a 40 3f ba 5f 4c bf d9 18 1c 3c
       2.1668696 0.75065225 -0.7983357 0.0095274085
000370 f1 a5 56 3f be a9 3d 3f c1 d5 1e c0 cf ae 97 be
       0.83846956 0.7408713 -2.4817965 -0.29625556
000380 28 3a 0d c0 7c 1e 69 be e7 8d 0f 3f c4 7e 09 3f
       -2.2066746 -0.22765535 0.560759 0.53709054
000390 03 68 8a bf 5a 52 ad 3f d2 09 36 3e 22 63 29 3f
       -1.0812992 1.3540757 0.17777184 0.6616689
0003a0 d3 92 1c bf ed a2 66 3e 5f 13 99 3c 5c f5 bc 3f
       -0.61161536 0.22523089 0.018685995 1.4762378
0003b0 0a cd 3a 3f c7 1a 15 3f 01 10 23 bf f0 34 ae bf
       0.72969115 0.58243984 -0.63696295 -1.3609905
0003c0 27 17 d2 3e c0 e2 57 bf a3 b4 74 3e 9a 7c 87 3f
       0.4103329 -0.8433037 0.23897032 1.05849
0003d0 a9 95 9f 3f b6 ee c6 3e 81 c6 7c bf d6 4c 2f 3e
       1.2467548 0.38853997 -0.9874039 0.17119154
0003e0 ec bd 05 3f a3 41 af 3f e4 34 8a be 6f 49 87 3f
       0.5224292 1.3691906 -0.26993477 1.0569285
0003f0 e5 72 2a bf 69 1d 1b bc f9 81 e8 be a4 0a 65 3f
       -0.66581565 -0.009467461 -0.4541166 0.8946936

prescalers.encoder_length.weight f4 [8, 1]
000000 20 7c 12 bf 26 a3 6c bf 88 c2 90 3e a0 49 fd be
       -0.5722065 -0.92436445 0.28273416 -0.49470234
000010 a4 4a de be b6 95 64 3f 00 53 82 3d da 3a 55 3f
       -0.4341632 0.8929094 0.06363487 0.83292925

prescalers.encoder_length.bias f4 [8]
000000 14 24 03 bf 97 34 1a bf bd 6c 60 be f8 f2 16 3f
       -0.51226926 -0.60236496 -0.2191648 0.5896449
000010 32 e9 f9 3e f1 81 1e 3f 45 40 2e bf 9a 00 b8 3d
       0.48810726 0.61917025 -0.6806682 0.0898449

prescalers.time_idx.weight f4 [8, 1]
000000 30 1c af 3d 02 62 7e 3f 00 e9 22 3e de 51 03 3f
       0.08550298 0.993683 0.15909195 0.51296794
000010 20 16 b9 3d 0a e2 3c bf fa c3 38 3f 18 b1 ad 3e
       0.09037423 -0.7378241 0.72174037 0.33924174

prescalers.time_idx.bias f4 [8]
000000 b5 0c 61 3d 15 d5 ed 3d 60 f2 3b 3f a5 15 75 bf
       0.05494376 0.11612908 0.7341671 -0.9573615
000010 fe 02 3b 3f d1 8c 2a 3f ed 4d 08 bf f8 7b 78 bf
       0.7305144 0.6662112 -0.53243905 -0.9706416

prescalers.relative_time_idx.weight f4 [8, 1]
000000 84 a5 47 3f 94 b6 69 bf 88 4d ea 3e 30 7f 56 3f
       0.7798693 -0.9129422 0.45762277 0.8378782
000010 54 f9 a5 3e a0 68 2c bd 44 97 6e bf 0a 9f 35 bf
       0.32416785 -0.042091966 -0.93199563 -0.709458

prescalers.relative_time_idx.bias f4 [8]
000000 fe 65 17 3f b5 8c 2e 3f 08 fe 3a be de 51 7f bf
       0.5914 0.6818345 -0.18260968 -0.99734294
000010 44 6f 59 bd c6 db 85 bd 62 d0 63 be 83 ef 65 3f
       -0.053084627 -0.06536059 -0.2224746 0.8981859

prescalers.PTS.weight f4 [8, 1]
000000 48 cc c8 be ba ff 70 3f 74 2e 0f 3f 54 e8 3a bf
       -0.39218354 0.9414021 0.55930257 -0.73010755
000010 80 38 45 bf 88 5d 69 be 5a 96 0f bf 18 b0 9e be
       -0.7703934 -0.22789586 -0.56088793 -0.30993724

prescalers.PTS.bias f4 [8]
000000 f3 a5 28 3e 42 84 41 3f 58 7c 32 bf e7 3f c3 be
       0.16469555 0.75592434 -0.69720984 -0.3813469
000010 31 9c ce 3d f6 67 69 be 71 d6 6a 3f 0b 2d 01 be
       0.10088385 -0.22793564 0.9173346 -0.12614839

static_variable_selection.flattened_grn.resample_norm.mask f4 [2]
000000 9c 8b 93 bc 12 b3 93 3c
       -0.018010907 0.018029723

static_variable_selection.flattened_grn.resample_norm.norm.weight f4 [2]
000000 4a 9f 80 3f 4c 9f 80 3f
       1.0048611 1.0048614

static_variable_selection.flattened_grn.resample_norm.norm.bias f4 [2]
000000 37 b5 54 bc 07 b5 54 3c
       -0.012982658 0.012982613

static_variable_selection.flattened_grn.fc1.weight f4 [2, 19]
000000 57 00 aa 3e fc 79 12 3e 8e b2 8b 3e 8f d5 64 3e
       0.33203384 0.14304346 0.27284664 0.22347091
000010 b8 24 52 be 5f 27 d6 be 95 b2 a7 bd 76 05 3f be
       -0.2052182 -0.41826913 -0.08188359 -0.18654427
000020 52 a8 ca be 4c 11 2b bf cc 4b 27 be 5c ab a5 3d
       -0.39581543 -0.6682327 -0.16337508 0.08089325
000030 cf a4 56 be bd c5 1c bf ba db 86 3e ad df b6 bd
       -0.20961307 -0.61239225 0.26339513 -0.089293815
000040 84 a6 ce 3e c4 b9 6c 3e 0f c2 de 3e d5 99 c0 3d
       0.40361416 0.23117739 0.4350743 0.09404341
000050 1e 92 bc be 3e c2 6b 3e 19 b5 4a be 72 f9 97 3d
       -0.3683023 0.23023316 -0.19795646 0.07420625
000060 7d 0b c6 be 9a d9 54 be 9c d2 90 be 70 1b fb 3d
       -0.3868064 -0.20786133 -0.28285682 0.12261093
000070 ff 34 69 be 2b 9d b8 3c b2 49 82 3d 4d a7 94 3e
       -0.22774123 0.022535881 0.063617125 0.2903389
000080 80 27 ed bd 05 50 8b 3e cf 0f 0a bc 19 61 0d be
       -0.115798 0.27209488 -0.008426621 -0.13806571
000090 c4 b6 ba bd 89 73 0d bf
       -0.09116891 -0.5525442

static_variable_selection.flattened_grn.fc1.bias f4 [2]
000000 00 5a 00 bc 75 75 bb 39
       -0.007833958 0.00035754932

static_variable_selection.flattened_grn.fc2.weight f4 [2, 2]
000000 4b 38 38 3f 07 9b d7 be cd a4 21 bf 26 68 15 3e
       0.71960896 -0.42110464 -0.6314209 0.1459051

static_variable_selection.flattened_grn.fc2.bias f4 [2]
000000 7a 5f 7a 3b e6 76 64 3c
       0.003820388 0.013944363

static_variable_selection.flattened_grn.gate_norm.glu.fc.weight f4 [4, 2]
000000 9b 15 bc be 94 bf 3b bf 63 59 3f 3e bd 0a 52 3f
       -0.36735234 -0.733392 0.18686442 0.82047635
000010 dc bb 8a 3e 64 07 8b bd e0 a4 3b bf 48 aa 43 bf
       0.2709645 -0.06788519 -0.73298454 -0.76431704

static_variable_selection.flattened_grn.gate_norm.glu.fc.bias f4 [4]
000000 61 51 01 bc 33 84 12 3c f0 80 f4 ba d4 a4 c5 ba
       -0.007892937 0.008942652 -0.0018654149 -0.001507903

static_variable_selection.flattened_grn.gate_norm.add_norm.norm.weight f4 [2]
000000 37 aa 8b 3f 37 aa 8b 3f
       1.091132 1.091132

static_variable_selection.flattened_grn.gate_norm.add_norm.norm.bias f4 [2]
000000 c1 4f d8 bc c2 4f d8 3c
       -0.026405217 0.026405219

static_variable_selection.single_variable_grns.TEAM_ID.mask f4 [16]
000000 11 2a c7 bd 4c ad 57 3d 6e b2 c6 bd b6 56 cb 3d
       -0.097248204 0.052655503 -0.097020015 0.09928648
000010 7b ca 4c 3d a0 e2 d9 3b 1a b7 48 3d f7 87 9e bd
       0.049997788 0.0066493303 0.049002744 -0.07740777
000020 c1 c1 8f 3d 42 c5 ce ba ba 7d 2b 3a 21 3b 12 3d
       0.070193775 -0.001577534 0.0006541867 0.03570092
000030 0c 2a b1 bd c2 ca a5 bc 57 80 88 3c 97 24 78 3d
       -0.08650598 -0.020238284 0.01666276 0.06058177

static_variable_selection.single_variable_grns.TEAM_ID.norm.weight f4 [16]
000000 40 4b 66 3f 2e 59 8a 3f 31 b8 60 3f ce db 8e 3f
       0.8995857 1.0808465 0.87781054 1.1160829
000010 35 90 7d 3f dc ed 85 3f ce e3 86 3f dc 8e 63 3f
       0.9904817 1.0463214 1.053827 0.8888986
000020 d5 a1 8b 3f 02 ce 82 3f a4 9b 83 3f ae a8 83 3f
       1.0908762 1.0219119 1.0281873 1.0285852
000030 c7 4e 6a 3f 16 df 81 3f bf 41 75 3f 01 64 8c 3f
       0.91526455 1.0146205 0.95803446 1.0968019

static_variable_selection.single_variable_grns.TEAM_ID.norm.bias f4 [16]
000000 85 cd 85 bd 77 5c c0 bd 2f f1 af 3d 62 10 d0 3d
       -0.0653334 -0.09392636 0.08590924 0.10159375
000010 41 ea b3 3d d1 dd b5 bd a8 d3 4d 3d 3d 34 98 3d
       0.08784915 -0.08880199 0.05025068 0.07431839
000020 70 9a b9 ba c2 e7 44 bd 4f 90 75 bd ac 6b 65 3d
       -0.0014160406 -0.048072584 -0.059952077 0.056010887
000030 8b d4 7b bd 37 b5 35 3c a0 f8 ce 3d 89 c0 fc bc
       -0.061481994 0.011090568 0.10106015 -0.030853527

static_variable_selection.single_variable_grns.encoder_length.resample_norm.mask f4 [16]
000000 eb 11 3f bd 90 01 04 3d 28 ae 31 3d 9a c4 56 bc
       -0.046647947 0.032228053 0.04337898 -0.013108397
000010 ec e4 0c 3b 42 7a 22 bc 10 5e 21 3d f9 90 ad 3c
       0.0021498753 -0.009916844 0.039396346 0.021187292
000020 92 fa da ba 3e 8b 10 bd 37 81 bc ba 62 19 c6 3c
       -0.0016706756 -0.03528904 -0.0014381771 0.024182025
000030 b9 43 82 3c 40 ea ea bc 6d e8 4f bb 10 a4 87 bc
       0.015901433 -0.028676152 -0.003172423 -0.016557723

static_variable_selection.single_variable_grns.encoder_length.resample_norm.norm.weight f4 [16]
000000 76 96 74 3f fa 11 87 3f 1e b0 87 3f 5f 70 7d 3f
       0.95542085 1.0552361 1.0600622 0.9899959
000010 cb 38 7f 3f 7d b5 7a 3f 5a de 86 3f 73 d4 83 3f
       0.99696034 0.9793318 1.0536606 1.0299209
000020 db 25 80 3f 34 9d 75 3f be fa 80 3f e5 72 85 3f
       1.0011553 0.95943 1.007652 1.0425688
000030 47 fa 82 3f 2a 86 77 3f 05 fc 7e 3f b4 b7 7c 3f
       1.0232629 0.96689093 0.996033 0.9871781

static_variable_selection.single_variable_grns.encoder_length.resample_norm.norm.bias f4 [16]
000000 67 dd 26 3d 86 ad 55 bd c0 b0 5b bd a9 72 2e 3c
       0.04073849 -0.052167438 -0.05363536 0.010647454
000010 ec 23 92 bc 8f cb 25 bd 0a 78 f4 3c da 2c 19 3c
       -0.017839395 -0.04047733 0.029842395 0.009349072
000020 d2 ab c8 3c 36 63 04 bd 03 6b fd 3b f6 4e 41 3d
       0.024495993 -0.032321177 0.007733704 0.047194444
000030 88 8a e7 39 b2 fd 00 3d f8 c4 fd 3a ba 12 4d bc
       0.00044162967 0.031491943 0.001936107 -0.012516672

static_variable_selection.single_variable_grns.encoder_length.fc1.weight f4 [8, 8]
000000 af a5 6e 3e 19 19 11 bf 64 d1 a4 3e 0d 53 3d bf
       0.23305391 -0.5667892 0.32191002 -0.7395485
000010 69 2f 23 bf 61 d5 66 be 83 40 27 bf 9d c1 3f bf
       -0.6374422 -0.22542335 -0.6533281 -0.74904805
000020 9a 36 89 3e 13 99 98 be 08 a5 93 3e 5d 43 44 bf
       0.2679947 -0.29804286 0.28836846 -0.7666529
000030 ad ff 29 bf ce 42 43 3e 1f b2 4e 3f 9e 91 f0 bd
       -0.66405755 0.19068453 0.8074054 -0.11746524
000040 9f 83 9c bb fb f5 10 bd 5b 6d 43 3f 6b 68 d9 be
       -0.0047764326 -0.035390835 0.7633874 -0.42462477
000050 cc da 90 bd ad ad 05 be b6 49 08 3f 8d d4 c6 bb
       -0.07072982 -0.13054533 0.53237474 -0.0060678185
000060 66 d7 2c 3e 5e b1 45 3f 2c 86 30 bf 09 8f ad be
       0.16879043 0.77223766 -0.6895473 -0.3389819
000070 f6 f2 02 bf 2d f3 d7 be e2 0f f3 be 5c 28 92 be
       -0.5115198 -0.42177716 -0.47473055 -0.28546417
000080 5c 7f 45 3f 90 6e bd bd 9f 66 20 bd 56 93 00 bf
       0.7714746 -0.09249604 -0.039160367 -0.50224817
000090 ad 3c 0b 3f 44 c7 69 3f 1e 22 52 be 6b c1 dd 3d
       0.5438946 0.9131968 -0.20520827 0.10827907
0000a0 3e 47 ed 3e 73 50 09 3e d7 8f c9 3e 2b 1e 05 bd
       0.46343416 0.13409595 0.39367554 -0.032499474
0000b0 03 dd fa be e4 a3 db 3e 01 04 22 be 39 b2 dc 3f
       -0.48996744 0.42898476 -0.1582184 1.7241889
0000c0 fb 83 06 bf 63 32 b2 be 96 fa 9d 3e 4c 9e ed 3e
       -0.52545136 -0.34804067 0.30855244 0.46409833
0000d0 bd eb 4a 3f ab 55 48 bf 6c 3a 74 3d 70 e3 95 3f
       0.7926596 -0.7825572 0.059626028 1.1710033
0000e0 53 af 8a bd 20 34 44 3e 97 18 03 3e 73 ca 56 3f
       -0.06771722 0.19160509 0.12802349 0.83902663
0000f0 0d f5 84 be a7 11 e3 3e 3d 95 a7 be df 56 2b be
       -0.2596821 0.44349405 -0.32731047 -0.16732357

static_variable_selection.single_variable_grns.encoder_length.fc1.bias f4 [8]
000000 1f ef 8c bc 3c bb cf bb 12 ec 00 3c 9d 13 5f ba
       -0.017203866 -0.0063394587 0.007868784 -0.00085096975
000010 16 99 94 bc 99 21 05 bd 4a 4f 35 bd 51 20 f7 3c
       -0.018139403 -0.032502744 -0.04426507 0.030166777

static_variable_selection.single_variable_grns.encoder_length.fc2.weight f4 [8, 8]
000000 3a 93 8e 3e 6a 9d 0e 3f 0e e0 e7 be e2 0c 04 bf
       0.278467 0.55708945 -0.45288128 -0.5158216
000010 5f d5 27 bf 42 aa 65 3e 18 c0 4e 3f 13 51 55 bf
       -0.65559953 0.2242823 0.8076186 -0.83326834
000020 f2 12 6c 3e 65 ad d0 be 00 67 3d be fc 0c fa be
       0.23054102 -0.4075729 -0.18496323 -0.4883803
000030 0e e8 96 3e d1 6b 89 3e 2e 52 a8 be f6 ea e9 be
       0.2947392 0.2684007 -0.32875198 -0.45687073
000040 e2 03 5f bd bd 4b 99 be a2 7d 5d 3e a0 8c 35 be
       -0.054447062 -0.29940596 0.21629956 -0.17729425
000050 28 52 d1 3e 0f fb 63 3f b4 39 88 3e 93 d8 bf bd
       0.40882993 0.8905496 0.26606524 -0.0936748
000060 75 b1 ab 3e dc c0 65 be 7c 86 e8 bd 3f 5a a4 bd
       0.33533826 -0.22436851 -0.11353776 -0.080250256
000070 dd ea ea bd ce f1 f6 be f0 f6 09 3e 1b 80 e2 be
       -0.11470578 -0.48231357 0.13473105 -0.44238362
000080 e7 18 c8 3e e4 a3 08 bf 89 e6 47 3e 64 1c 06 3d
       0.390815 -0.5337508 0.19521536 0.03274192
000090 29 da 6e be 37 cf e2 bd 96 ca 22 3e 9d d3 8b be
       -0.23325409 -0.11074679 0.15897593 -0.27309886
0000a0 14 c6 09 bf 6a 3a e1 be 0c 5c 15 3f 68 a8 20 bf
       -0.5381787 -0.4398988 0.5834358 -0.6275697
0000b0 3b ea 94 bf 72 63 07 3f c5 ce b7 3d 49 60 7e bd
       -1.1633981 0.52886117 0.08974985 -0.062103543
0000c0 a9 bc 3f 3e 80 2f f0 3d 35 a0 c9 be c5 51 67 3e
       0.18724312 0.1172781 -0.3938004 0.22589786
0000d0 8b a0 43 3e 0e 92 93 be 41 f5 cb 3e b5 aa 09 bd
       0.19104211 -0.28822368 0.3983555 -0.033610065
0000e0 65 50 14 3e 3e 34 92 3e 57 d5 d3 be 62 37 b0 be
       0.14483793 0.28555483 -0.41373703 -0.34417254
0000f0 26 55 8d 3e 70 55 e0 3e 62 9d fa 3e 54 bc f2 be
       0.27604026 0.43815184 0.489482 -0.47409308

static_variable_selection.single_variable_grns.encoder_length.fc2.bias f4 [8]
000000 af 1f 00 bc 1b 85 82 3a 8f 06 eb bc d3 48 87 bb
       -0.007820054 0.0009957881 -0.02868965 -0.0041285544
000010 76 f1 84 bc ad b4 a5 3b 46 37 0a bc c4 eb b5 bc
       -0.016228419 0.0050569386 -0.00843603 -0.022207148

static_variable_selection.single_variable_grns.encoder_length.gate_norm.glu.fc.weight f4 [32, 8]
000000 77 6b b5 3d 26 42 e6 3b 5d 67 80 3d ba ca fc 3b
       0.08858388 0.0070269285 0.06269715 0.0077145966
000010 8a 67 60 be 82 7b a2 3e ee e7 b3 3e 44 27 90 be
       -0.21914497 0.31734854 0.35137886 -0.28154957
000020 0d b4 8f bc f0 44 92 be 9f 52 a7 bd 2f 4c 99 3e
       -0.01754191 -0.2856822 -0.081700556 0.29940936
000030 b4 e2 ad bd 10 8f 98 be 11 cb 69 3e c2 1c 9d 3d
       -0.08490506 -0.29796648 0.2283137 0.07671501
000040 93 a8 58 be 5c 08 91 3e ed a2 97 be b8 06 03 3e
       -0.21158056 0.2832669 -0.2961649 0.12795532
000050 63 9d 4c be 9e af d9 3d cf 5f ac 3e 20 34 71 be
       -0.19981913 0.106291994 0.33666846 -0.2355504
000060 d7 73 92 be ce b6 1f be 14 66 c7 3e b9 1c a3 3d
       -0.28604004 -0.15597078 0.38945067 0.07964463
000070 7d 46 5c 3e 2b 47 19 be 34 2f ac be 83 2d 57 be
       0.21511264 -0.14968555 -0.33629763 -0.21013455
000080 8b f9 2f 3e bd a0 af bb 99 6e 2b 3e 50 d6 23 b8
       0.17185037 -0.0053597377 0.16741408 -3.9061822e-05
000090 51 a8 92 3e 36 a1 d0 bd d8 e2 e0 3d 3e fc 83 bc
       0.2864404 -0.101869985 0.10980767 -0.01611149
0000a0 b9 0a bb bd f5 6b eb 3a d7 4c 36 3e 4a 4d 43 3d
       -0.091329046 0.0017961251 0.1780275 0.04768113
0000b0 80 4a c8 3e 0e 64 96 bd 66 b4 11 3e b2 08 3a be
       0.3911934 -0.07343303 0.14228973 -0.1816738
0000c0 b8 6a 3e 3d 2f e2 38 3c c1 6e 06 be 88 52 78 be
       0.046488494 0.011284395 -0.13128187 -0.24250233
0000d0 4c 4d c2 be e1 73 36 be 34 06 14 3d 7a 85 82 3e
       -0.37949598 -0.17817642 0.03613873 0.2549246
0000e0 a9 33 4f bd aa 46 0d 3e 2c 86 5e 3d 7a 3c 34 3d
       -0.050586376 0.13796487 0.054327175 0.044002987
0000f0 c2 2f 6d be ad be 13 3e 97 16 20 3e 69 d7 28 be
       -0.2316275 0.14428206 0.15633617 -0.16488422
000100 4e 16 a3 be 23 61 bf bd 86 e3 92 bd a5 5f 5e 3e
       -0.31852955 -0.09344699 -0.07172303 0.21716173
000110 45 75 1c 3e 8d ef 5a be 45 af 00 be f2 4d 0f be
       0.1527911 -0.21380444 -0.1256686 -0.13994578
000120 25 c9 07 3d 65 09 7d be 9b 40 80 3e 24 a7 3d 3e
       0.03315081 -0.24710615 0.2504929 0.1852079
000130 8d 92 80 be c4 5e bc 3e f9 5a eb bd 93 40 a5 be
       -0.2511181 0.3679105 -0.11491961 -0.3227583
000140 ca 12 b6 3e 85 65 83 bd 03 5e 7a 3e 92 f9 ad 3d
       0.3556121 -0.06415848 0.24449925 0.084948674
000150 f8 38 6a bc 1d 1c 23 bd e0 4c a0 be fe af 7e be
       -0.014295809 -0.039821733 -0.3130865 -0.24871823
000160 08 cd b9 3e 5e 9a 86 bd 48 13 2b 3d fb 17 8f be
       0.3628924 -0.06572412 0.041766435 -0.27947983
000170 53 45 c7 be a8 d9 3c 3e c0 c1 86 3c c4 38 80 be
       -0.38920078 0.18442404 0.01644981 -0.2504331
000180 d4 4c 50 be e6 19 08 be 66 b7 9e be eb c0 78 3e
       -0.20341808 -0.1329113 -0.30999297 0.24292342
000190 92 51 cd 3d ca c3 8b 3e 43 67 06 3d 2f 3c df 3d
       0.10025324 0.27297813 0.03281332 0.10900151
0001a0 64 48 68 bc 82 8e 40 3d 25 db 75 be 01 d6 68 be
       -0.0141774155 0.047010906 -0.24009378 -0.22737886
0001b0 9b a2 7c 3e d4 43 ad be fa 4c 47 3e bb e7 ef 3c
       0.24671404 -0.3384081 0.19462958 0.029285302
0001c0 71 df 84 3d 56 e4 6e 3d 5c d4 a4 3d 14 49 97 3e
       0.064879306 0.058323227 0.08048317 0.29547942
0001d0 c5 c3 78 3e dd be a4 3e d8 fb 32 be 04 52 da bc
       0.2429343 0.32176867 -0.17478883 -0.026650436
0001e0 03 25 92 3e a9 fd d4 bd be ba 5e bc 6d 7d 84 3c
       0.28543863 -0.10399944 -0.0135943275 0.016173089
0001f0 2c ce 65 be 22 70 b8 3b 9b 28 4c be a4 9a 8e bd
       -0.2244193 0.0056286016 -0.19937365 -0.06963089
000200 0b 94 73 3e 46 e6 91 3e a1 a5 a6 be c5 4d 6d be
       0.23786943 0.28495997 -0.3254824 -0.23174198
000210 9f de ad 3e 4e ab 30 3e 5e c0 c3 3d c9 c8 84 be
       0.3395891 0.17252848 0.095581755 -0.25934437
000220 48 51 ee bd 7d 7d a9 bc 7b 5b a4 be 72 6e 9f 3e
       -0.11636597 -0.02068972 -0.32101044 0.3113895
000230 f6 e3 a9 bd f1 6c 86 bd 70 54 bb 3e af 60 91 bd
       -0.08295433 -0.06563748 0.36587858 -0.07098519
000240 7a 31 2d be d3 4a 6a be d7 72 8a be 22 e2 62 3e
       -0.16913405 -0.22880106 -0.2704074 0.22156575
000250 19 d0 58 be fe 82 8e be 35 cf a0 bd e5 8f 52 bc
       -0.21173133 -0.27834314 -0.078520216 -0.01285169
000260 5c aa 3f be 25 86 1a be b7 74 14 3e 4e 5a 72 be
       -0.1871733 -0.15090235 0.14497648 -0.23667261
000270 43 c9 24 3d 81 b0 a7 3c 8d 66 23 be f9 61 90 be
       0.040231 0.020469906 -0.15957089 -0.28199747
000280 43 48 4a 3e 8d 0b 2f 3e 3a dd 9f be aa cc 5a 3e
       0.19754128 0.1709425 -0.3122347 0.21367136
000290 2d a2 80 3e 21 15 8e be a4 db 43 be 5f c3 f0 3d
       0.2512373 -0.27750495 -0.19126755 0.11756014
0002a0 61 37 34 3e 6a 3a 06 be 14 cd 4e 3d 02 c0 3a bc
       0.1759925 -0.1310822 0.050488546 -0.011398317
0002b0 e0 68 9e 3e 02 1b 9c be e6 30 91 3e da e8 03 be
       0.30939388 -0.30489355 0.2835762 -0.12881795
0002c0 d6 f0 7e be ac 56 85 bc e7 04 28 be 9f 6f d8 3d
       -0.24896559 -0.01627668 -0.1640812 0.10568165
0002d0 0f 81 67 3e cb 90 cf 3d 0a 63 04 be e7 8a a4 3e
       0.22607826 0.10135039 -0.12928405 0.32137224
0002e0 b7 ce 44 3e 4a 15 9d 3a 26 0e af 3e 86 b9 2a 3e
       0.1921948 0.0011984494 0.34190482 0.16672334
0002f0 05 91 17 be fc cd 98 3e b8 8a 50 3e 84 37 d6 3d
       -0.14801414 0.29844654 0.20365417 0.104598075
000300 2f e8 d6 3d 69 06 40 3e 32 44 37 be a7 50 93 3d
       0.10493504 0.18752445 -0.17897108 0.071931176
000310 9b 8e a5 3e bc 45 c1 bb 49 81 bd 3d 15 1f 5b 3e
       0.32335362 -0.0058982056 0.09253175 0.21398576
000320 89 53 ad 3e 2e 41 bd 3e fe 00 50 3e 20 34 06 3e
       0.33852795 0.3696379 0.20312878 0.13105822
000330 06 73 3f be 81 d2 bf 3e 03 2e 9c be 6b 49 fc 3d
       -0.18696222 0.3746529 -0.30503854 0.12318691
000340 86 f9 a8 3e c1 8f ec 3d 36 91 50 3e 49 21 12 be
       0.3300287 0.115508564 0.20367894 -0.1427051
000350 93 73 29 3e a3 b7 c1 be 76 3d e4 3d 95 6c ad be
       0.16547994 -0.37835416 0.11144535 -0.33871904
000360 c9 79 b0 3e 99 0c 5d bc 80 26 cf 3d c2 09 84 be
       0.34467915 -0.013491773 0.10114765 -0.25788695
000370 72 ae b1 3e 3d 25 96 be 87 53 77 3e 8a 11 65 3e
       0.34703404 -0.29325286 0.24152957 0.22369972
000380 0a 10 4e 3e ea 80 b4 bc c5 5f 29 3e 69 00 63 be
       0.20123306 -0.022034127 0.1654044 -0.22168125
000390 ac bb 3b be d5 43 01 be e2 04 a6 3e 20 48 b0 bc
       -0.1833331 -0.12623532 0.324256 -0.021518767
0003a0 b2 f9 bf be a7 67 73 be 0e 1e 53 3d 98 3c 81 3d
       -0.3749519 -0.23770009 0.051542334 0.063103855
0003b0 bf b9 28 3e a8 cb 2e ba d5 02 d1 bd 1b 55 63 3d
       0.16477107 -0.00066679204 -0.10205618 0.055501085
0003c0 87 9b b1 3e a4 5e aa be 95 f0 39 be cb 79 5b be
       0.3468897 -0.3327533 -0.18158181 -0.21433179
0003d0 0f f9 aa bd f8 8f aa be 7c 94 b7 3e 21 5c ac 3e
       -0.083482854 -0.33312964 0.35855472 0.3366404
0003e0 9c 63 71 3e a9 8a 8b 3e f9 95 2c 3c 23 f2 30 be
       0.23573154 0.27254227 0.010533803 -0.17279868
0003f0 d1 10 ea 3d ac 18 1b be b2 e0 ab 3e dc d7 90 3d
       0.11428989 -0.1514613 0.33569866 0.07072422

static_variable_selection.single_variable_grns.encoder_length.gate_norm.glu.fc.bias f4 [32]
000000 ba 5a fd 3c 0a cf 0b bd fc 6c db bc c6 11 2a 3c
       0.03092705 -0.034132995 -0.026785366 0.010380214
000010 5c a3 58 bc ed c6 0a bd e0 40 c0 3c 70 35 55 3b
       -0.013222542 -0.033881117 0.023468435 0.0032533072
000020 5e 4b b8 3c 8b 6d d0 bc 9b 61 08 3c d6 9c 16 3d
       0.022496875 -0.02544286 0.008324052 0.036770664
000030 f7 a8 84 3b f9 66 d2 3c 35 f4 40 3b 40 3c 41 bc
       0.0040484625 0.025683867 0.0029442434 -0.01179415
000040 0b 60 8c bc 90 3f bf 3b 56 f7 d6 3c 15 ae 9b bb
       -0.01713564 0.0058364347 0.026240986 -0.004750977
000050 cf 58 66 bc 0a 1a 16 bc 1a cc 1d bc ec 9b 19 bb
       -0.01405926 -0.009161482 -0.009631181 -0.0023438884
000060 75 b4 b9 bc d5 0c 08 bb 55 24 6f bb d7 9f 38 bb
       -0.022669056 -0.0020759602 -0.0036490161 -0.0028171444
000070 f7 f2 54 bc 01 b9 67 bc 24 c4 c3 bb 14 04 fa bb
       -0.01299738 -0.014143229 -0.0059743095 -0.0076298807

static_variable_selection.single_variable_grns.encoder_length.gate_norm.add_norm.norm.weight f4 [16]
000000 30 11 75 3f d7 1b 88 3f 61 53 88 3f 9f 3f 7e 3f
       0.9572935 1.0633496 1.0650445 0.9931583
000010 de ef 77 3f b6 7a 77 3f c8 51 83 3f ae 92 82 3f
       0.96850383 0.9667162 1.0259333 1.0201013
000020 56 c9 76 3f 4c a5 70 3f c8 a6 80 3f 64 79 84 3f
       0.96400964 0.94002223 1.0050898 1.0349545
000030 32 c8 7e 3f e7 0e 78 3f 41 5e 7c 3f 60 94 7b 3f
       0.99524224 0.9689774 0.9858132 0.9827328

static_variable_selection.single_variable_grns.encoder_length.gate_norm.add_norm.norm.bias f4 [16]
000000 2f 87 15 3d 2f a0 77 bd 96 1f 79 bd 47 94 77 3b
       0.036505874 -0.060455497 -0.06082114 0.003777759
000010 eb fe d0 bc 81 e1 28 bd e8 3a d7 3c 55 93 13 3a
       -0.02551218 -0.041230682 0.026273206 0.0005629559
000020 66 4a 89 3c b7 aa 11 bd 11 48 1a 3c 37 dd 32 3d
       0.016759109 -0.035563197 0.009416596 0.043668
000030 2d 63 5c bb c6 ab c9 3c 06 9a 41 bb bc 4b 4f bc
       -0.003362845 0.02461804 -0.0029541268 -0.012652334

static_variable_selection.prescalers.encoder_length.weight f4 [8, 1]
000000 20 7c 12 bf 26 a3 6c bf 88 c2 90 3e a0 49 fd be
       -0.5722065 -0.92436445 0.28273416 -0.49470234
000010 a4 4a de be b6 95 64 3f 00 53 82 3d da 3a 55 3f
       -0.4341632 0.8929094 0.06363487 0.83292925

static_variable_selection.prescalers.encoder_length.bias f4 [8]
000000 14 24 03 bf 97 34 1a bf bd 6c 60 be f8 f2 16 3f
       -0.51226926 -0.60236496 -0.2191648 0.5896449
000010 32 e9 f9 3e f1 81 1e 3f 45 40 2e bf 9a 00 b8 3d
       0.48810726 0.61917025 -0.6806682 0.0898449

encoder_variable_selection.flattened_grn.resample_norm.mask f4 [4]
000000 ac 0b 49 3d d6 8b b0 bc 78 d9 9d bc 8c 22 6f bc
       0.049083397 -0.021551054 -0.019268736 -0.014595639

encoder_variable_selection.flattened_grn.resample_norm.norm.weight f4 [4]
000000 86 06 81 3f 89 43 83 3f 7c 4f 74 3f ef 7c 74 3f
       1.0080116 1.0254985 0.95433784 0.95503134

encoder_variable_selection.flattened_grn.resample_norm.norm.bias f4 [4]
000000 b4 2e c2 3d 83 21 29 bd d0 c3 d6 3b 89 15 fc bc
       0.09481564 -0.041291725 0.0065541044 -0.030771988

encoder_variable_selection.flattened_grn.fc1.weight f4 [4, 35]
000000 50 5f 1c be 08 c3 81 be 4a c4 87 3e 1f ad 9e bd
       -0.15270734 -0.2534411 0.26516944 -0.07747864
000010 26 76 00 be f0 6f a3 be 2f 50 59 be 1d 74 fd 3d
       -0.1254507 -0.3192134 -0.21221994 0.123756625
000020 89 39 8a 3d 54 fd ef be e8 f3 9c be 8f 22 86 be
       0.06749255 -0.46872962 -0.30654836 -0.2619824
000030 d8 26 ad be 69 34 0a 3e d1 5a c4 3d 0e 54 9d be
       -0.33818698 0.13496555 0.09587634 -0.3072819
000040 7f 4b 9d be d7 b8 65 3e de cf 1e be a7 23 95 3e
       -0.3072166 0.22433792 -0.15508983 0.29128763
000050 7a f6 c6 be 66 29 86 3e e3 f1 7d 3e 6a 1b 2e 3d
       -0.38859922 0.2620346 0.24799304 0.042506613
000060 11 73 e9 3e b9 02 a5 3e 1d 97 53 3d e2 0a 0a 3d
       0.455956 0.3222864 0.051657785 0.033701785
000070 a6 12 43 3e 00 29 ed bd 5c 51 09 bd 8f 01 48 be
       0.19050083 -0.11580086 -0.033524856 -0.19531845
000080 30 fb 11 3e ac 52 78 be 42 42 0a 3e 3a f4 14 bd
       0.14255977 -0.24250287 0.13501838 -0.036365725
000090 b8 0e e7 bd 01 18 0e 3f e5 d5 2f be 01 1d 28 bf
       -0.11282104 0.5550538 -0.17171438 -0.65669256
0000a0 a8 e2 e7 bd 58 89 e9 be f2 27 1d be 57 74 81 be
       -0.11322528 -0.45612597 -0.15347269 -0.25284073
0000b0 6a 86 44 be 25 48 9e 3e 04 38 84 3e 6f ca 85 be
       -0.191919 0.30914417 0.25823987 -0.26131007
0000c0 84 48 dc be f9 8f e2 be 35 74 27 be 01 08 97 3e
       -0.43024075 -0.44250467 -0.16352923 0.29498294
0000d0 ec cc ea bd fa f0 4f 3e 61 7e 45 3d dc bd 91 3d
       -0.11464867 0.20306769 0.048216227 0.07116291
0000e0 0b f8 35 3e 5c 94 bc be 54 45 14 3f c5 b2 00 be
       0.17770402 -0.3683194 0.57918286 -0.12568195
0000f0 4a 96 b4 3e 51 ca e4 3e 87 15 ba 3d 2b d0 f0 3d
       0.3527091 0.44685605 0.09086137 0.11758455
000100 f3 ca 65 bb 05 5b 7c 3e 6e d4 f9 be 2c c6 fe bd
       -0.0035063594 0.24644096 -0.48794883 -0.12440142
000110 ff a4 eb be 1a 67 f5 3e 5c ed 52 be 95 c5 7e be
       -0.4602432 0.47930223 -0.20598358 -0.24880059
000120 d2 86 95 bb a0 58 b3 3e 38 82 c0 3d 4e 6d 1e 3e
       -0.004563191 0.35028553 0.09399837 0.15471384
000130 d4 85 5c bc c4 6d 91 be 5a f8 27 3d d3 5c ea 3d
       -0.0134596415 -0.28404057 0.04100833 0.11443486
000140 26 2e 69 3e 7f 3b 1f 3e 29 80 a9 be 7c d9 08 3e
       0.2277151 0.1555004 -0.3310559 0.13364214
000150 09 1a 99 be e8 f3 b0 be f0 82 d7 be 41 85 b3 be
       -0.29902676 -0.34561086 -0.42092085 -0.35062602
000160 e3 01 83 3e 63 f5 d8 3e 50 b5 8a 3e 20 f0 30 bd
       0.25587377 0.42374715 0.27091455 -0.04319775
000170 2b 3a e2 bd 6f 9a 3e bf 21 9e a7 3e 90 96 92 be
       -0.11046251 -0.74454397 0.3273783 -0.28630495
000180 ba 60 75 3e 73 88 06 3e c0 28 be bd bf f8 a9 3b
       0.2396268 0.13137989 -0.09285116 0.0051871235
000190 24 02 a3 3e f0 52 0b 3f f4 09 51 3e 27 bd 5a be
       0.3183757 0.5442343 0.20413953 -0.21361218
0001a0 2e 4f c1 3e 7b 56 c9 bd f5 93 79 be 44 e7 b1 3d
       0.37755722 -0.09830948 -0.24372847 0.086866885
0001b0 5c dc 0c 3e 50 c6 85 be d3 29 18 bd 97 cb c8 be
       0.13755935 -0.26127863 -0.03714926 -0.39217827
0001c0 d5 a9 33 be e5 d2 53 bd 84 7a 4b 3f 92 17 94 be
       -0.17545255 -0.051714797 0.7948382 -0.28924233
0001d0 e3 b3 a8 be 6f 52 11 3e e7 8e e6 be ed 9d 3d bd
       -0.32949743 0.14191602 -0.450309 -0.046293188
0001e0 8a 3f 32 3e 77 42 5c 3e 90 f5 20 3e d6 60 68 3f
       0.1740705 0.2150973 0.15718675 0.9077276
0001f0 11 8e b2 3d c6 ad 3a be 1e d9 4c be 34 a0 7b 3e
       0.08718503 -0.18230352 -0.20004699 0.24572831
000200 1f 07 9e bd 2f ac b1 3e c0 3a a5 be 9f 0d 90 be
       -0.07716202 0.34701678 -0.32271385 -0.28135392
000210 17 92 8a 3e cf 8c 7b 3e 73 74 d5 bd 02 7d fc 3d
       0.27064583 0.24565433 -0.104226016 0.12328531
000220 41 1d ff 3e 05 e9 82 bc 55 b1 bd 3e 15 0c 1e 3b
       0.49827006 -0.015980253 0.37049356 0.0024116088

encoder_variable_selection.flattened_grn.fc1.bias f4 [4]
000000 87 d1 05 bd 8d 34 c8 3c 7f b3 63 3d 98 23 50 bc
       -0.032670524 0.02443912 0.055591103 -0.012703799

encoder_variable_selection.flattened_grn.context.weight f4 [4, 16]
000000 16 b5 c5 3e 5f 1a f2 3e ec f7 8c be 59 38 bf bd
       0.3861472 0.47285745 -0.275329 -0.09336919
000010 a0 e2 6b be 47 d7 c7 3e 1a ac 81 be 35 82 cc be
       -0.2303567 0.3903143 -0.25326616 -0.3994309
000020 f9 49 f5 be 78 ef b1 3e 29 fc f6 bc 0b d7 a6 be
       -0.47908 0.34753013 -0.030149536 -0.3258594
000030 37 36 ec bd cf 40 30 be 56 35 e2 3e 1e c0 24 bb
       -0.11533778 -0.17212223 0.44181317 -0.0025138925
000040 d6 2d f3 3d fa 4c 05 3f 81 60 a4 bd 59 9b 62 be
       0.11873977 0.5207058 -0.08026219 -0.22129573
000050 3e 25 77 be d4 df fb bd 83 63 a0 3e d0 f6 d7 3e
       -0.241353 -0.12298551 0.3132592 0.4218049
000060 27 d7 cf 3e 88 ea 2d 3e bd 76 a3 be 9a 43 06 bf
       0.40593836 0.16983998 -0.31926528 -0.524469
000070 25 10 bb be 40 a1 da bd 8a fa bd 3d 2d d2 28 bd
       -0.36535755 -0.10675287 0.09276302 -0.041216064
000080 48 88 e2 be 1e 54 83 3e be 1f 84 be 3b 73 8d 3d
       -0.442446 0.25650114 -0.25805467 0.06906744
000090 e6 a9 9d be 0c a1 47 3e 2b 74 c9 be 05 ff c1 be
       -0.30793685 0.19495028 -0.39346442 -0.37889877
0000a0 c2 bc 27 3e 60 b9 ca 3e 65 01 08 3f 9b 30 fa bd
       0.16380599 0.39594555 0.5312713 -0.12216302
0000b0 92 fa 1b 3d 5a d1 11 be dc db d4 3d fa d6 08 3f
       0.03808076 -0.14240018 0.10393497 0.5345303
0000c0 61 52 e9 be 8a 74 f5 3e 44 74 dd bd 8e 71 f9 3e
       -0.45570663 0.47940475 -0.108131915 0.48719448
0000d0 08 f0 9f 3d 83 d4 bb 3e 81 44 8a be 26 cd 86 be
       0.07809454 0.3668557 -0.2700539 -0.2632839
0000e0 42 1a a4 3d 6f 3d a3 3e 35 e5 0d bf 50 2b ce be
       0.08012821 0.31882808 -0.5542787 -0.4026742
0000f0 aa 4f b1 3e 43 a9 64 3d 8b 23 ba be 3b 00 ef be
       0.3463109 0.055825483 -0.36355242 -0.46679863

encoder_variable_selection.flattened_grn.fc2.weight f4 [4, 4]
000000 74 06 ae be 37 71 33 3f da d4 0c bf 37 36 e5 3e
       -0.33989298 0.7009463 -0.55012286 0.44767925
000010 77 e8 b3 3e c7 30 76 bf 39 2c 5e 3e 39 28 5e 3d
       0.35138294 -0.9616818 0.21696557 0.054237578
000020 1e a6 d5 3d 13 69 c8 be 50 8d 36 3f 1d 1c 0b bf
       0.10432075 -0.39142665 0.71309376 -0.5433977
000030 c6 b2 26 bf 23 cd 28 3f 4f e0 a8 3f b4 9a 50 bf
       -0.65116537 0.65938014 1.3193454 -0.8148606

encoder_variable_selection.flattened_grn.fc2.bias f4 [4]
000000 be c8 a5 3c 73 78 28 bd 55 4f 30 3d ce 0a 4d 3d
       0.020237323 -0.041130494 0.043044407 0.050059132

encoder_variable_selection.flattened_grn.gate_norm.glu.fc.weight f4 [8, 4]
000000 1f c6 87 be fd 51 bf be 43 88 89 3e a2 9e 27 3f
       -0.26518342 -0.3736724 0.26861772 0.6547643
000010 d3 fe 2e bf 43 f0 9b 3e 9f 69 95 3c 29 4e b9 3d
       -0.6835758 0.30456743 0.01823884 0.09048111
000020 c1 5f d0 bd 2b 7f 98 3e c3 76 94 3e db d7 08 3d
       -0.101745136 0.2978452 0.28996858 0.03340898
000030 fd b8 03 bd 32 b3 31 3e 25 28 2a bf b4 d8 f1 be
       -0.03215884 0.17353514 -0.66467506 -0.47235644
000040 83 a7 fb 3e c9 ac 3e be 24 14 9f bd 00 6a 31 3f
       0.4915124 -0.186206 -0.077675134 0.6930237
000050 a3 74 1d bf 3c 86 ae be 71 57 48 be fb 0f 8c be
       -0.615061 -0.34086788 -0.19564606 -0.27355942
000060 b0 b5 de be 01 cb 0e bf 66 d7 23 3f a9 0e e3 3e
       -0.43497992 -0.5577851 0.64000547 0.44347122
000070 23 03 a4 be 78 41 30 be 79 f6 55 3d d7 96 f2 bd
       -0.32033643 -0.17212474 0.052237008 -0.11845177

encoder_variable_selection.flattened_grn.gate_norm.glu.fc.bias f4 [8]
000000 48 03 5a 3d 4d 2e 0d bd 44 8f 3d 3c 4b 0d d8 bc
       0.053225785 -0.034467984 0.011569802 -0.026373526
000010 76 f1 71 b9 d1 2a 07 bc a7 7b 6c 3b e4 55 24 3c
       -0.00023073502 -0.008249954 0.0036084445 0.010030244

encoder_variable_selection.flattened_grn.gate_norm.add_norm.norm.weight f4 [4]
000000 0f da 80 3f 34 58 80 3f 58 3b 83 3f c5 78 80 3f
       1.0066546 1.0026917 1.0252485 1.0036856

encoder_variable_selection.flattened_grn.gate_norm.add_norm.norm.bias f4 [4]
000000 e1 7f 12 3d bf e2 0f bc 3b e5 ec bc 4b c4 f0 bb
       0.035766486 -0.008782088 -0.0289179 -0.0073476187

encoder_variable_selection.single_variable_grns.TEAM_ID.mask f4 [16]
000000 9e 66 bc bc 64 a1 ad bc bb e6 11 3c 24 ea f6 3b
       -0.02299815 -0.021195121 0.008905108 0.007535236
000010 60 bd 82 3c a4 4d ea 3c de 7f 49 bd 29 e4 43 3c
       0.015959442 0.028601475 -0.04919421 0.011956253
000020 ad 41 03 3d ac 93 27 bd be e6 16 bd aa e3 a3 3c
       0.032045055 -0.040912315 -0.036841147 0.02000602
000030 c2 96 7f 3c e2 51 ba bc ff 0e 45 3d 83 2f c5 3c
       0.015599908 -0.022744123 0.048110005 0.024070507

encoder_variable_selection.single_variable_grns.TEAM_ID.norm.weight f4 [16]
000000 e5 bd 79 3f 52 b6 77 3f 71 11 82 3f b2 56 82 3f
       0.9755538 0.96762574 1.0161573 1.0182707
000010 ea 12 87 3f dc 6e 85 3f 0d 3e 77 3f 4f 09 83 3f
       1.0552647 1.0424457 0.96579057 1.0237216
000020 1d 7d 87 3f 7a f6 72 3f 1e 2a 6c 3f 59 a6 7f 3f
       1.0585057 0.94907343 0.92251766 0.998632
000030 8a 06 85 3f 17 b2 74 3f 05 ab 87 3f b7 17 85 3f
       1.039262 0.95584244 1.0599066 1.0397862

encoder_variable_selection.single_variable_grns.TEAM_ID.norm.bias f4 [16]
000000 62 1d 89 3c 7e 3d ca bb 2a dc 03 bd 58 e5 fa 3c
       0.016737644 -0.006171881 -0.032192387 0.030626938
000010 16 8b 5d bc 86 73 89 bd b5 a7 50 3c 6d be fd 3c
       -0.01352193 -0.067114875 0.012735297 0.030974591
000020 ca da a0 bd 96 82 e6 3c 39 44 b3 3c 8e 18 96 3d
       -0.07854231 0.02813844 0.021883117 0.07328902
000030 11 36 6f 3d fd 20 26 bd 51 b5 58 3d 6a c6 c3 bd
       0.05840117 -0.040558804 0.05290729 -0.09559329

encoder_variable_selection.single_variable_grns.time_idx.resample_norm.mask f4 [16]
000000 af c8 2d bc e4 8e 0e 3d 96 f2 54 bd af e9 5c 3d
       -0.010606929 0.03480424 -0.05198916 0.053933796
000010 01 06 96 3c 48 28 62 bb fb 6f d8 bc 17 65 98 3b
       0.01831341 -0.0034508873 -0.026420584 0.0046507227
000020 e3 12 54 bd 09 2f 13 3d de 09 0c bd ed 27 e6 bc
       -0.051775824 0.035933528 -0.034189098 -0.02809521
000030 d8 d4 40 bc b8 23 9b 3b f1 e2 82 bc ad 7e 62 3d
       -0.011769496 0.0047344826 -0.015977355 0.05529659

encoder_variable_selection.single_variable_grns.time_idx.resample_norm.norm.weight f4 [16]
000000 62 12 84 3f 85 c3 83 3f 29 50 71 3f 02 72 87 3f
       1.031811 1.0294043 0.9426294 1.0581667
000010 5b 2f 84 3f f5 10 7d 3f ed 0e 72 3f 3f 7b 74 3f
       1.0326952 0.98854 0.94554025 0.9550056
000020 7c f5 72 3f 19 8c 85 3f f7 24 7b 3f 7f fa 72 3f
       0.9490583 1.043338 0.9810328 0.94913477
000030 45 9e 82 3f 58 24 81 3f d2 1f 77 3f 38 82 89 3f
       1.020455 1.0089216 0.9653293 1.0742865

encoder_variable_selection.single_variable_grns.time_idx.resample_norm.norm.bias f4 [16]
000000 29 dc 8f 39 cc 73 2a 3d 36 b2 72 bd 40 e4 54 3d
       0.00027439118 0.04161434 -0.059251986 0.05197549
000010 55 7a f7 3c 93 70 84 bc 99 d4 53 3d 89 7b 84 3d
       0.0302097 -0.01616696 0.05171642 0.06468875
000020 1b cf 6f bd 57 bf 16 3d 6d 9f 65 bd 1f a2 f1 3b
       -0.05854712 0.03680357 -0.056060243 0.0073740627
000030 62 c5 84 bb 15 7b 3d ba 6a 22 25 3d e6 68 85 bd
       -0.00405185 -0.00072281185 0.040316023 -0.065141484

encoder_variable_selection.single_variable_grns.time_idx.fc1.weight f4 [8, 8]
000000 7c bc bc be 10 7a 44 be cc 90 05 bf 69 3c 50 3e
       -0.36862552 -0.19187188 -0.5217407 0.20335545
000010 eb 41 1a 3d 59 79 b5 3d e3 27 21 3d 59 82 01 bd
       0.03766052 0.08861036 0.03934468 -0.03161845
000020 f7 40 a6 3e 9f 78 da 3e 86 34 54 be af 48 41 be
       0.3247144 0.42670152 -0.20723161 -0.18875383
000030 14 2a 39 bf e5 81 99 bd 9d 93 33 bf 4b 71 9d be
       -0.7232983 -0.074954785 -0.70147115 -0.30750498
000040 1f d5 8b 3e 37 a9 8e be 31 c0 ee be 51 ad cd 3e
       0.27311036 -0.27863476 -0.46631005 0.40171292
000050 f3 2e eb be 53 4e 9a 3e 3c 8c 05 bf ec 7d ab be
       -0.45934257 0.30137882 -0.52167106 -0.33494508
000060 02 c1 dc be 25 7d 20 be 0e 5d 85 3d 8e 73 71 3e
       -0.43116003 -0.15672739 0.065118894 0.23579237
000070 d2 b3 04 3d f3 8b f5 3e 3c b4 22 be 53 65 9e 3e
       0.032398053 0.47958335 -0.15889066 0.3093668
000080 22 15 28 be 7e bb 43 bf 36 3c 2a bf c7 09 c8 3e
       -0.16414312 -0.76457965 -0.66498125 0.3906996
000090 a5 49 37 3d 57 c8 8b 3d a8 4e 81 3f 98 da 19 3f
       0.044747967 0.06825321 1.0102129 0.6009917
0000a0 d7 5d 0f bf 7d 36 cb 3e 49 cf 5b 3d 03 0c 07 be
       -0.56002563 0.3969001 0.05366448 -0.13188176
0000b0 19 81 9c 3d 09 0f 6d bf 8f 77 ff bd 89 76 91 3d
       0.07641811 -0.92601067 -0.12473976 0.07102687
0000c0 7a ea 23 be 76 ed 03 3f 23 19 b9 be 64 3e 1e bd
       -0.16007414 0.5153421 -0.3615199 -0.03863372
0000d0 1f a1 83 bf 3c 0d bb 3e a7 99 6d 3e a2 10 05 3e
       -1.0283545 0.36533535 0.23203145 0.12994626
0000e0 53 98 c5 3e d8 41 60 be 5c 91 d7 be 3e e1 a1 3d
       0.38592777 -0.21900117 -0.42103088 0.0790429
0000f0 63 7d 93 3e 2a 12 07 bf ff c5 9d be b1 f0 8b 3e
       0.288066 -0.5276209 -0.30815122 0.2733207

encoder_variable_selection.single_variable_grns.time_idx.fc1.bias f4 [8]
000000 e9 23 27 bd 37 ab c9 3b 09 93 f3 3c b8 81 04 bd
       -0.04080573 0.0061544436 0.029733198 -0.032350272
000010 f5 51 14 3c 0a 5c 48 3d 3e 0a 5f bc a9 7a b6 bc
       0.009052743 0.0489159 -0.013613282 -0.022275286

encoder_variable_selection.single_variable_grns.time_idx.fc2.weight f4 [8, 8]
000000 e7 6c a7 bf 56 08 90 3d 6b 7b ac 3e 3b 54 fa be
       -1.3080109 0.0703284 0.3368791 -0.48892388
000010 c0 43 07 3f 09 a7 a9 3f 1f ea 87 bf e0 3c 3c bf
       0.52837753 1.32541 -1.0618323 -0.7353039
000020 58 26 07 bf b2 67 38 bf cc cd f7 be 0d 72 11 3f
       -0.5279288 -0.72033226 -0.48399198 0.5681465
000030 12 8b 16 3d bc 7b 0f bf c5 c9 57 bf 40 f4 01 3e
       0.03675372 -0.5604818 -0.8429225 0.1269083
000040 0c 4a 10 bd 83 9f 4e be 93 ff b8 be e9 93 1d bf
       -0.035226867 -0.20178036 -0.36132488 -0.6155382
000050 81 91 fe 3d 8c 90 10 bf ec 4c f4 bc 9b 0c f9 bd
       0.124300964 -0.5647056 -0.029821835 -0.121606074
000060 d0 04 19 3f 8a a4 77 3e 8d 80 d9 bd 5d 39 2c be
       0.5977297 0.2418386 -0.10620222 -0.16818757
000070 ac f6 ef 3e 5e de 4d bf 2d 61 9d 3e 5c ba 84 bf
       0.46867883 -0.8041743 0.30738202 -1.0369372
000080 69 3b 9b 3e 82 5f 07 be a9 e2 d6 be f2 6c 4b 3e
       0.30318764 -0.13220027 -0.41969803 0.19865778
000090 8e 3a f9 be 3a 3d de be 55 1a 05 3f 3c aa 18 be
       -0.48677486 -0.43406087 0.51993304 -0.1490869
0000a0 10 51 83 bd f6 a1 7d 3e 07 1c 8c bd b3 29 2d 3f
       -0.06411946 0.24768814 -0.06841283 0.6764175
0000b0 fe 17 12 bf 0e 08 60 bf 0f ff 98 be 67 e1 55 be
       -0.5706786 -0.8751229 -0.29882094 -0.20886765
0000c0 8d 70 87 be c8 30 41 3e 61 5c 89 bf 9d db 9a be
       -0.26453057 0.18866265 -1.0731317 -0.30245677
0000d0 f8 37 4a be 81 cd a1 bd b4 24 4a bf 26 98 9e 3e
       -0.19747913 -0.07900525 -0.78962255 0.30975455
0000e0 5d 19 03 3f f9 aa 20 bf 35 50 39 bb 86 9d 96 be
       0.51210576 -0.62760884 -0.0028276567 -0.29417056
0000f0 f6 2b a6 be df fc fe 3d 18 2a 83 3e 6f 54 81 3e
       -0.32455415 0.12450575 0.25618052 0.2525973

encoder_variable_selection.single_variable_grns.time_idx.fc2.bias f4 [8]
000000 d0 1e 36 3d 36 1a cd bc 6d b1 39 bd 85 fe 6c bc
       0.04446298 -0.025036912 -0.045335222 -0.014464979
000010 64 5b f8 3b 96 ed c5 bc 7c 38 bf bb 36 d4 70 3c
       0.007579254 -0.024161141 -0.005835591 0.0146990325

encoder_variable_selection.single_variable_grns.time_idx.gate_norm.glu.fc.weight f4 [32, 8]
000000 1a 14 a8 3e fa 17 4e 3e a8 b2 4c bd 4c 9c 1e be
       0.32827836 0.20126334 -0.049975067 -0.1548931
000010 d6 18 ca 3b 14 47 63 bd 33 77 a3 3e cb 31 17 be
       0.0061675115 -0.055487707 0.3192688 -0.14765088
000020 c6 d9 c0 3e 54 57 2e bd a7 75 53 be 83 cf 74 3e
       0.37666148 -0.04256375 -0.2065035 0.23907284
000030 60 32 96 3e 86 ac 54 3e db 31 2a 3d f5 4c a3 be
       0.29335308 0.20768937 0.041551452 -0.3189465
000040 ff cb d6 be 5d 17 cd 3c fd 0f 2d 3e bb fa a8 bd
       -0.41952512 0.025035555 0.1690063 -0.08250948
000050 58 56 12 be 77 1d 90 3e 42 e8 68 be be 44 b3 3d
       -0.1429075 0.2814748 -0.2274485 0.08753346
000060 31 fe 8c be 69 23 22 3d d2 77 0b 3d 4b 07 11 3e
       -0.27537683 0.03958455 0.034049816 0.14162938
000070 cb 00 04 3e 65 ff c4 be c2 03 87 be 76 b4 4e be
       0.12890927 -0.384761 -0.26370054 -0.20186028
000080 97 4b 07 3e 0d 6a b4 3e 5b 8d 22 3d e5 3c 9d 3e
       0.13212429 0.3523716 0.03968559 0.3071052
000090 2c 95 9a 3d 9b 2d b2 bd 4e 01 71 be 74 2b 6b 3e
       0.075479835 -0.08700105 -0.23535654 0.22965795
0000a0 c3 6a 73 bc c7 9a 83 be bb 79 88 3e d7 92 02 be
       -0.014856997 -0.25704023 0.26655373 -0.12751327
0000b0 88 c3 bf 3e ff d1 06 be 8c db 09 be aa 7d c2 3d
       0.37453866 -0.13166045 -0.13462657 0.09496625
0000c0 ad 80 83 3d c8 52 18 bd 1c 78 5c be 6a 00 ad be
       0.06421027 -0.03718832 -0.21530193 -0.33789378
0000d0 84 f0 90 bd 9e 5e 73 3e 80 e1 d0 3e 22 1f 63 3e
       -0.07077125 0.23766562 0.40797043 0.22179845
0000e0 af 0e ac 3e 67 a8 a5 3e 76 46 b6 be f4 77 16 be
       0.33604953 0.32355043 -0.35600632 -0.14694196
0000f0 01 b9 a8 be d7 73 1f be e7 22 a1 3e 1a 78 ed 3c
       -0.32953647 -0.15571533 0.3147194 0.028987933
000100 cb 2d b5 be 2c ca 17 3b ff 59 d3 3e c8 3d e0 3e
       -0.353865 0.0023161275 0.412796 0.43797135
000110 e7 d8 5e 3e 9b 11 8e bd 36 7b 6a bc 70 05 a8 be
       0.21762429 -0.06936952 -0.014311602 -0.32816648
000120 b5 d2 af 3e e8 a1 9f be ee 21 72 3c 28 55 5a 3e
       0.34340444 -0.31178212 0.014778597 0.21321547
000130 3f 36 e6 3d 85 da 2f 3e 10 53 0e 3e 2f 70 88 bd
       0.11240815 0.17173202 0.13898873 -0.06662022
000140 ca ac 42 be a5 b3 7b bd 51 dd f5 bc 52 d1 ca 3e
       -0.19011226 -0.06145062 -0.030012758 0.39612824
000150 95 3f 4a be f3 c3 a5 3e bb 38 a8 3d a0 70 95 3e
       -0.19750817 0.3237606 0.082139455 0.2918749
000160 66 c6 95 be dd 69 24 be d1 59 d8 bd 68 e5 c4 be
       -0.29252928 -0.16056009 -0.10564006 -0.38456273
000170 a5 c1 a5 3c 83 29 e7 3d c1 f1 af 3e ed 9d 82 be
       0.020233938 0.112872146 0.3436413 -0.25511113
000180 1c aa c7 3d c3 36 b1 bd af 71 ca 3d 63 62 76 3e
       0.09749243 -0.08653023 0.09884965 0.24060969
000190 d1 50 b4 be 5a 55 17 be de 7d 04 3e 05 e9 9e 3e
       -0.35217908 -0.14778653 0.1293864 0.31037155
0001a0 38 19 ad 3e ef db 85 3e fa e6 d5 bd 77 17 59 3e
       0.33808303 0.2614436 -0.10444446 0.21200357
0001b0 a6 ad 34 3e a1 f8 12 3e d4 ea b3 3e e5 0e 50 bd
       0.17644367 0.14352657 0.35140097 -0.050795455
0001c0 eb 4f c0 3e 2c 9d 69 be 6f aa 41 be d3 51 a1 bd
       0.37560973 -0.22813863 -0.18912672 -0.07876935
0001d0 7f f5 29 3e 42 00 bf bd 98 9f b8 be b7 1e 63 3e
       0.16597556 -0.09326221 -0.3605926 0.22179686
0001e0 85 3a 60 bd 8f 8c 50 3e c0 00 fe bd 20 91 48 3e
       -0.05474331 0.20366119 -0.12402487 0.19586611
0001f0 1d 89 c4 3d 24 3d c6 be 41 34 a0 bd eb da 51 bd
       0.09596465 -0.38718522 -0.07822467 -0.051234167
000200 65 d2 9d 3e f2 5b bc 3e e5 92 74 3e 9c 93 b4 bd
       0.3082458 0.367889 0.23884161 -0.08817217
000210 bd a2 c3 3e 51 0d a5 ba 87 f5 50 3e a3 cf 73 3e
       0.38210097 -0.001259247 0.20406161 0.23809676
000220 9a 50 bd 3d 69 a1 92 be 85 67 6a bc 5e a3 53 bd
       0.09243889 -0.2863877 -0.014306908 -0.05166947
000230 58 3a f3 3c c6 6f 48 be a8 71 1e bd 8e d2 ac bd
       0.029690906 -0.19573888 -0.03868261 -0.084385976
000240 1e f3 82 3e 6a 6d 67 bd 3c d5 6b 3e e6 c0 29 bd
       0.2557611 -0.05650083 0.23030561 -0.041443728
000250 90 25 46 bb 82 dd c3 be 82 43 05 3e 90 28 0e 3e
       -0.0030234791 -0.38254935 0.13014033 0.13882661
000260 bd db 08 3e 47 86 94 3e ef d0 be be 73 f9 ab 3d
       0.13365074 0.29008695 -0.3726878 0.08397188
000270 a5 26 6e 3d 0d 5e 2b 3e 83 1e 80 3e bc b0 17 3e
       0.058142323 0.16735096 0.2502328 0.14813513
000280 0d 60 93 3e 6b ba a8 3e 78 6f 86 3d 34 05 9d be
       0.28784218 0.32954726 0.0656423 -0.30668032
000290 b8 33 96 3e 7e b1 0b 3e 1c 5e bd 3e df 20 be 3e
       0.29336333 0.13641927 0.36985862 0.37134454
0002a0 03 10 38 3b cf dc 91 bd a8 26 bb be 0b 91 61 3e
       0.0028085716 -0.07122194 -0.3655293 0.22027986
0002b0 e0 ec cf 3d 62 ca 2b be 6a c5 8a 3e 92 00 97 be
       0.10152602 -0.16776422 0.2710374 -0.29492623
0002c0 52 08 25 3c de 7f c0 3e 6d fe 75 3e ff d9 81 3e
       0.0100727845 0.37597555 0.24022837 0.2536163
0002d0 ab 34 8d be 14 e9 1b 3c ea 79 9d be 66 8c ab bd
       -0.27579245 0.009516019 -0.30757076 -0.08376388
0002e0 1b 8e 49 be 41 28 55 bc e0 ff 85 3d f6 49 a9 3e
       -0.19683115 -0.013010086 0.06542945 0.3306424
0002f0 01 79 81 3e 48 ac 8f 3e 97 eb 04 3d 72 fa 81 3e
       0.2528763 0.28061128 0.03245124 0.25386387
000300 85 8c 38 be 05 a8 7a bd b9 f1 75 bd bd bb 99 be
       -0.18022354 -0.061195392 -0.060044978 -0.30026045
000310 c8 9c 91 be 8e c6 fc bd df 9a c9 3e ca 33 c7 be
       -0.28439927 -0.12342559 0.3937597 -0.389067
000320 88 37 28 be 39 5d a3 3e 49 43 96 be 59 d1 31 be
       -0.16427433 0.3190706 -0.2934821 -0.17365016
000330 9a a7 bd be cf 67 73 3d 73 86 42 3e 54 ff 8a 3d
       -0.37041932 0.05942517 0.18996601 0.06786981
000340 92 46 0d bd 4e be 98 3e b4 c4 30 be 74 1d 80 be
       -0.03449113 0.2983269 -0.17262536 -0.2502247
000350 29 12 3d be ba 1b a0 be ab 08 83 3e d4 ca bf be
       -0.18463959 -0.31271154 0.2559255 -0.37459433
000360 2f 3c ad be 7a 5a bc be f4 a9 25 3e 68 1d 0c be
       -0.3383498 -0.36787778 0.16178113 -0.13683093
000370 cb e0 70 be ae c1 9b 3d da bd 8d 3d 57 55 97 bd
       -0.23523252 0.07605301 0.06920977 -0.07389324
000380 c1 44 c8 3d 7d 17 13 3d c2 4d 2e 3d 83 6f a7 3e
       0.09778739 0.035911072 0.042554624 0.32702264
000390 c5 57 b0 3e 38 77 c6 3d 74 07 2f bc 32 c0 6a be
       0.34441963 0.09690708 -0.010682929 -0.22924879
0003a0 1c 45 a5 be b4 0e 1e 3d c6 98 7a 3c 29 7b 80 3e
       -0.3227929 0.03858824 0.015295213 0.25093964
0003b0 26 32 0d 3e 34 fd ff bd 4a 8f df 3d 8a 7c 72 bd
       0.13788661 -0.124994665 0.10916002 -0.0592008
0003c0 88 58 a4 bd 50 3b 28 be 07 08 bd be 56 cf ce 3d
       -0.080246985 -0.16428876 -0.36920187 0.1009814
0003d0 cc cc a1 be c0 7c ad 3e 76 8e 1b be e8 88 a2 be
       -0.3160156 0.3388424 -0.15191063 -0.31745076
0003e0 1c 61 db bc 63 9f 18 be f7 f6 05 3e af 3e 89 3e
       -0.026779704 -0.14904551 0.13082491 0.26805636
0003f0 11 3c 86 bd 02 96 41 bb 98 0c 95 3d 3a b1 81 be
       -0.065544255 -0.0029538875 0.07277793 -0.25330526

encoder_variable_selection.single_variable_grns.time_idx.gate_norm.glu.fc.bias f4 [32]
000000 17 96 15 bc aa 9a 03 3d a5 81 4e bd df ec 39 3d
       -0.0091300225 0.03212992 -0.050416607 0.045391914
000010 8c 14 ac 3c af f2 44 bc 69 80 10 3d 9b 28 05 3d
       0.021005891 -0.012020751 0.03527871 0.032509428
000020 e8 b4 50 bd e9 4f f8 3c 28 c0 30 bd 55 25 b0 3a
       -0.050953776 0.030311542 -0.043152004 0.001343886
000030 8f cf 3c 3b 37 f0 cf ba 83 77 d7 3c 73 a1 3f bd
       0.0028810238 -0.0015864436 0.026302105 -0.04678483
000040 84 16 76 bc b2 43 7b 3b 10 b1 58 3c fc 11 cd bc
       -0.015020017 0.003833991 0.013225809 -0.02503299
000050 b9 23 18 bb ec ef 55 3b 8c 30 8d 3c 6b 32 0d 3d
       -0.0023214652 0.0032644225 0.017235063 0.03447191
000060 d1 ca f1 3c 02 bf 52 3b f1 a6 87 3b 2b 06 6f bb
       0.029515656 0.0032157307 0.004139774 -0.0036472182
000070 d9 94 4e bc 0f 8d 5c bb bc a0 74 bb 04 f2 13 3c
       -0.01260873 -0.0033653413 -0.003732725 0.009029869

encoder_variable_selection.single_variable_grns.time_idx.gate_norm.add_norm.norm.weight f4 [16]
000000 08 47 75 3f f7 68 81 3f 6e ec 70 3f 55 d5 83 3f
       0.9581151 1.0110158 0.94110763 1.0299479
000010 71 37 7f 3f ef 86 7b 3f ad ab 76 3f 0a 9b 7d 3f
       0.9969397 0.9825277 0.96355706 0.99064696
000020 a1 49 75 3f c2 7a 84 3f d2 49 74 3f 33 d1 6d 3f
       0.95815474 1.0349963 0.9542514 0.9289734
000030 3d 7b 81 3f 57 1e 82 3f 99 2c 7b 3f 09 a8 89 3f
       1.0115734 1.0165509 0.98114926 1.0754405

encoder_variable_selection.single_variable_grns.time_idx.gate_norm.add_norm.norm.bias f4 [16]
000000 6c e6 9e bc 5b 6f cc 3c 7b 6b 81 bd 3e 20 17 3d
       -0.019396983 0.024955442 -0.063193284 0.036895983
000010 42 6e 6d 3b 94 68 eb bc 70 fe 16 3d 66 b5 37 3d
       0.003622905 -0.02873639 0.036863744 0.04485073
000020 fb 40 6a bd e8 c4 cc 3c a6 dd 35 bd 59 66 cc 3b
       -0.057190876 0.024996236 -0.044400834 0.0062377867
000030 3f 36 6b bc 28 37 0f bd ca 9f ec 3c fd 0c 83 bd
       -0.014356195 -0.03496471 0.028884787 -0.06398962

encoder_variable_selection.single_variable_grns.relative_time_idx.resample_norm.mask f4 [16]
000000 96 6d 4a 39 ce 7f 37 3c 46 8a 98 bc 9f 20 45 3c
       0.00019305045 0.011199905 -0.018620621 0.012031703
000010 fd a2 3f bb 85 05 41 3c ca 86 eb bb 9d 8d 45 bc
       -0.0029241436 0.011781101 -0.007187699 -0.012057689
000020 80 54 a0 3c 05 a7 df ba f1 4c c4 3a 9e 5d fe ba
       0.019571543 -0.0017063326 0.0014976544 -0.0019406562
000030 86 0d 8c 3b c4 d8 7a 3b 4b 6d 49 3c 30 22 cd bc
       0.004274073 0.0038276175 0.012294124 -0.025040716

encoder_variable_selection.single_variable_grns.relative_time_idx.resample_norm.norm.weight f4 [16]
000000 d6 7b 7f 3f 5a 47 82 3f a2 ec 78 3f 0f 91 82 3f
       0.99798334 1.0178025 0.97236073 1.0200518
000010 ef 65 7e 3f 09 8d 82 3f 90 2a 7c 3f 6f cd 79 3f
       0.9937429 1.019929 0.98502445 0.9757909
000020 7a 30 84 3f 29 0a 7f 3f 6f 72 80 3f b9 ee 7e 3f
       1.0327294 0.9962488 1.0034922 0.9958301
000030 72 02 81 3f 43 f1 80 3f 66 8c 82 3f d0 26 75 3f
       1.0078871 1.0073627 1.0199096 0.9576235
