ml/lightning_logs/version_2/checkpoints/epoch=9-step=500.ckpt (torch, 561396 bytes, 820 tensors)

input_embeddings.embeddings.TEAM_ID.weight f4 [30, 11]
00000000: fefb cebf 77fa 9c3f e5aa f83e 77b6 cdbf
00000010: a080 12be 985c 643e 5a1c b53f 3954 95be
00000020: a2bc 5f3e 9780 1040 8229 e63f 0e92 03bf
00000030: 0ed3 09c0 c024 e23e 52a4 dbbf 18e4 cf3f
00000040: 22a6 3d3f cd36 803e e680 ce3f 5049 00c0
00000050: 7cc1 3bc0 0683 0ebf 4d35 afbf 1037 25be
00000060: 8780 343e 6f2b 843f 4ee4 e5be 9346 d0bf
00000070: 3ee2 69bf 520e bf3f 1966 c2be 8f4a cc3e
00000080: 620f 88bf 278f ef3f 61af 3fbf b46a d73f
00000090: d069 80bf ed8d fb3e 2069 b8bd 3996 6cbf
000000a0: 4711 4cbf f5d6 1bbe 928e 87bf 75bc 173f
000000b0: 70b5 c53e c04d cd3f 24e8 89bd 9a58 4f3f
000000c0: cceb 893f 6035 a03e a4a4 013f e5ea 3dbe
000000d0: f6c3 da3f 9cbc 833e 90b5 f93e 1653 3f3f
000000e0: 479d 043f dcbb d33d 2429 e63e 54f9 4abf
000000f0: ee75 653f c19a 693f 0519 66bf a517 0abf
00000100: 3f18 153f 06fa 3abd 1a82 f0be 7557 d33f
00000110: dac3 8a3f 0d87 1f40 3324 eb3f f921 8b3f
00000120: 1955 42bf bb64 823f 0bc6 acbf 9627 a13f
00000130: cf44 d33e cad8 37bf e812 52bf 0dc0 1dbf
00000140: 5a25 6ebe c81b 3d3f 4a4d ac3e 6c80 cc3e
00000150: a3bc b63e 8dea ecbf 3c3d 583f 95bf 60bf
00000160: 802f 043f 7e98 e83e 0c42 bdbe eaf9 a5bf
00000170: a82b 323b 6158 0cbe 1dfc b13f d923 0d3f
00000180: ea80 19be c19d a13f 1cc8 bc3e 5f7c ffbf
00000190: bdb5 42bf c725 cbbf 0d92 6cbf cdfd 93be
000001a0: 759a d5bf e364 1040 6e89 c73f 40f4 403f
000001b0: d21b 2f3f ca12 db3f 319a 143f 2c96 d9bf
000001c0: 25d9 5bbe fa36 65bf 3081 94bf 6b55 97bf
000001d0: 0ae0 33bf 3f03 7f3e febf 2e3f 20f5 3abf
000001e0: 243c 3abf 10ac 80bf 9624 733f 7222 cd3c
000001f0: f95f edbe d655 6d3f bc52 1440 c274 90bd
00000200: 7e97 e83d de5d 65bf 0176 243f 0764 4bbf
00000210: c088 4dbe 0a8c 7b3f 4ef8 91bf eaee d0be
00000220: e448 c5bd bed8 983f 349d 0740 41c5 06bf
00000230: 725d 53bf 7e63 163f 0259 c93f 050e a83f
00000240: 397b 0e3f 3bd4 103f 3653 93be 89dd 3f3f
00000250: a7f4 d1be 16bc d7be ed3c 793f 235a ccbe
00000260: 6914 173d bfeb 273f d11f cc3f ecbc a3be
00000270: a349 02bf 960b 8ebe dd3d 1cbe 400f 7fbf
00000280: 8fd2 8ebe 0d15 02bf dae8 57bf c0ff 9cbf
00000290: de76 f0be 39f7 473f cb1e ea3e 8209 26bf
000002a0: af6b abbd 9c0f b3bf dee4 7f3f 4213 b0bf
000002b0: 9928 7a3f e8ed cc3e a63c a63f ecb8 75bf
000002c0: b2ab a53f 84e3 13c0 8727 f23f 3b12 b13f
000002d0: d214 aabf d393 e13e 4d0f 8ebf e8d1 583e
000002e0: fe59 85bf 62ff 18bf 2ff3 26c0 9afb c1be
000002f0: f368 0bbf 2cd8 36bf b9d2 29be ab33 093f
00000300: 42bd 563e fef5 7dbf fbf3 683f 6619 84bf
00000310: 3d65 033f ac1a 15be 101f 223e cd1e 94bf
00000320: 6d1d 89bd 1d08 96bf 24c3 a73f 4f1d d3bf
00000330: 384c cb3f 0b44 fb3e 0ef8 1d3f e98b af3f
00000340: 93d6 0abf 1a3c 1f3f cacc 23be 3839 b63d
00000350: 1678 ee3e a9e9 4ebf 0147 9dbf 7c0a 003f
00000360: fa15 cebe bdcd 803f 66f5 98be 88c9 823e
00000370: ccb2 94bf 2e34 163f e559 a1bd c117 92bf
00000380: 55ad 243e 3c5a ad3e b4b3 c6bf 3ef2 753e
00000390: a12c b7be 3d5b aa3f 8cf9 843e 690b 2440
000003a0: bea3 893f e517 bdbf e82c 503f 2639 e63d
000003b0: 7a86 ae3f 8fee 7e3f 3dd0 b93e 8ebd dfbe
000003c0: 3958 823f 60f1 4bbf cb08 f0bf 3f26 bc3f
000003d0: 5a2f 41bf 58e5 24bf c54c 073f c6fd abbf
000003e0: 74bf f53e 8ecf 923f fd38 d6bf 4992 a03f
000003f0: 93d9 a73f c5e7 88bf 294b 41be 1c9f bf3f
-1.6170652 1.2263936 0.48567882 -1.6071309 -0.14306879 0.22300947 1.4149277 -0.2916582
0.21849301 2.2578485 1.7981417 -0.51394737 -2.1535068 0.44168663 -1.7159522 1.6241484
0.74081624 0.2504181 1.6133087 -2.0044746 -2.9336843 -0.55668676 -1.3688141 -0.16134286
0.17627154 1.0325755 -0.44900745 -1.6271538 -0.91360843 1.4926245 -0.3796852 0.39900634
-1.0629694 1.8715562 -0.7487698 1.6829438 -1.0032291 0.49131718 -0.09004426 -0.9241672
-0.79713863 -0.15218718 -1.0590384 0.5927194 0.38614988 1.6039352 -0.067337304 0.8099457
1.0775084 0.31290722 0.50641847 -0.18546636 1.7091053 0.25729835 0.48771334 0.74736154
0.51802486 0.10338566 0.44953263 -0.79286695 0.8963307 0.9125176 -0.89881927 -0.5394233
0.5824012 -0.045648597 -0.4697426 1.6511065 1.0841019 2.4926178 1.8370422 1.0869743
-0.759111 1.018699 -1.3497938 1.2590206 0.41263434 -0.7181517 -0.820601 -0.6162117
-0.23256436 0.73870516 0.33652717 0.39941728 0.35690793 -1.8509079 0.84468436 -0.8779233
0.5163498 0.45428842 -0.36964452 -1.2966893 0.0027186666 -0.13705589 1.3905064 0.55132824
-0.14990583 1.2626268 0.3687142 -1.995983 -0.7605856 -1.5870904 -0.92410356 -0.28904572
-1.6687762 2.2561576 1.5588815 0.75372696 0.68401825 1.7115109 0.5804778 -1.6998954
-0.21469553 -0.8953701 -1.1601925 -1.1822942 -0.7026373 0.24903582 0.68261707 -0.7303028
-0.7274802 -1.0052509 0.949777 0.025040839 -0.46362284 0.927091 2.3175497 -0.0705352
0.1135702 -0.89596355 0.6424256 -0.79449505 -0.20071697 0.9826056 -1.1403902 -0.40807277
-0.096330434 1.1941144 2.11897 -0.52644736 -0.8256446 0.58745563 1.5730288 1.3129278
0.5565677 0.5657384 -0.28774422 0.7494741 -0.41006967 -0.42135686 0.9735859 -0.3991252
0.0368847 0.65594095 1.594721 -0.31980073 -0.5089361 -0.27743214 -0.15257974 -0.99632645
-0.27895018 -0.5081337 -0.8433968 -1.2265549 -0.46965688 0.78111607 0.45726618 -0.6485826
-0.083701484 -1.3989139 0.999586 -1.3755877 0.977182 0.40025258 1.2987258 -0.95985293
1.2943022 -2.3107615 1.8918313 1.3833688 -1.3287604 0.44058093 -1.109842 0.21173823
-1.0418088 -0.59764683 -2.6085927 -0.3788727 -0.54457015 -0.714236 -0.1658429 0.53594464
0.20970634 -0.9920348 0.90997285 -1.0320251 0.5132635 -0.14560956 0.15832162 -1.15719
-0.06695066 -1.1721226 1.3106427 -1.6493319 1.5882635 0.4907535 0.61706626 1.3714572
-0.54233664 0.6220108 -0.1599609 0.08897632 0.46575993 -0.8082529 -1.2287294 0.50016
-0.40251142 1.0062786 -0.29874724 0.2554438 -1.1617064 0.5867337 -0.07878474 -1.1413499
0.16081746 0.33857906 -1.5523591 0.2401819 -0.35776237 1.3309094 0.2597164 2.5631964
1.0753095 -1.4772917 0.8131852 0.11241369 1.3634789 0.9958276 0.36291686 -0.43699306
1.0183173 -0.79665184 -1.8752683 1.4699172 -0.7546288 -0.6441245 0.52851516 -1.343682
0.4799763 1.1469591 -1.6736141 1.2544643 1.3113273 -1.069573 -0.18876328 1.4970431

prescalers.encoder_length.weight f4 [8, 1]
00000000: b80b 823e 24d7 88be 4057 423f 4e74 003f
00000010: 4c4d b2be 1893 4d3e 60fd 14be 38b4 713f
0.25399566 -0.2672664 0.7591438 0.50177467 -0.34824598 0.20075643 -0.1454978 0.94415617

prescalers.encoder_length.bias f4 [8]
00000000: 9c1d 4dbf f16a fcbd ed6c 1c3e 8e1f 4f3f
00000010: d857 25be a3d6 623f 6c27 7b3f c682 933f
-0.80123305 -0.12325085 0.15275927 0.80907524 -0.16146791 0.8860876 0.9810703 1.1524284

prescalers.time_idx.weight f4 [8, 1]
00000000: ac43 633f c4d1 37bf a08f 06bf a08d afbd
00000010: 7458 9abe 78ff e33e b86e a0be f08b d13d
0.88775134 -0.7180445 -0.52562904 -0.08571935 -0.3014561 0.44530845 -0.31334472 0.10231769

prescalers.time_idx.bias f4 [8]
00000000: 5e93 84bd d3f8 90bf eaab 683f 5306 eebd
00000010: df3a 1c3f de16 81bf 92ab fc3d efc5 1fbf
-0.064734206 -1.1325935 0.9088732 -0.116223 0.6102733 -1.0085104 0.12337412 -0.624114

prescalers.relative_time_idx.weight f4 [8, 1]
00000000: 4c3c 653f 40b1 7d3f 52cd 663f 361f 4e3f
00000010: b0a1 b3be 7c1e 96be e6d1 153f 4e26 60bf
0.8954513 0.9909859 0.90157044 0.80516374 -0.35084295 -0.29320133 0.58523405 -0.8755845

prescalers.relative_time_idx.bias f4 [8]
00000000: 149d 8c3f e5bc 30bf 3d30 11bd 8d0e 36bf
00000010: ba28 983e 8d85 dd3e 2422 eabe 3a6a 7a3f
1.0985436 -0.6903823 -0.035446394 -0.7111595 0.29718572 0.43265954 -0.45729172 0.9781834

prescalers.PTS.weight f4 [8, 1]
00000000: 4486 cfbe 5870 39bf bcce d2be 1c78 073f
00000010: 1c99 ccbe 0098 43bd 008f 493d 004e 923c
-0.40532124 -0.7243705 -0.4117335 0.5291765 -0.39960563 -0.04775238 0.04920864 0.017859459

prescalers.PTS.bias f4 [8]
00000000: d312 9abe 2009 5b3f ae52 753d 6b3d b53e
00000010: b1de 20bf 54e0 873e 3202 ad3d 6e61 cfbd
-0.30092487 0.855608 0.059893303 0.3539842 -0.628398 0.26538336 0.08447684 -0.10126005

static_variable_selection.flattened_grn.resample_norm.mask f4 [2]
00000000: 66da b5be 8628 b73e
-0.35518187 0.35773104

static_variable_selection.flattened_grn.resample_norm.norm.weight f4 [2]
00000000: b770 803f cb70 803f
1.0034398 1.0034422

static_variable_selection.flattened_grn.resample_norm.norm.bias f4 [2]
00000000: 6898 b9bd 2897 b93d
-0.09062272 0.09062034

static_variable_selection.flattened_grn.fc1.weight f4 [2, 19]
00000000: 7f66 13be ae36 c13d 3281 483e e91c 043f
00000010: dde3 1e3b a5c3 403e 315f 9d3e ebf2 883e
00000020: 6115 253d 55a6 3dbd d543 9a3e 466d edbe
00000030: 8aa0 2d3e 4696 0dbf d28d 10be 4ecb 0fbf
00000040: 95c5 a4bd 0f0e fabe 28c2 873c aa46 f3bd
00000050: 8d11 023f beda 21be 43af ac3e cb67 a1be
00000060: 69aa bb3d 7bd8 09be ba68 ca3e 4522 b4be
00000070: dbe7 003f d0b6 993d 82ed 30bf e2fe 6dbd
00000080: a982 a53e c6c1 2a3d 6838 b83e 2f3c 92be
00000090: 6a20 9cbe 879f b6be
-0.14394568 0.094342574 0.19580534 0.51606613 0.0024244704 0.18824632 0.30736688 0.26747832
0.04030359 -0.046301205 0.30129877 -0.46372432 0.16955772 -0.55307424 -0.141166 -0.56169593
-0.08045498 -0.4883885 0.016572073 -0.118787125 0.5080803 -0.158061 0.33727464 -0.315245
0.091633625 -0.13461487 0.39533025 -0.35182396 0.50353783 0.07505572 -0.6911241 -0.058104403
0.32326248 0.041688703 0.35980535 -0.2856154 -0.3049348 -0.35668585

static_variable_selection.flattened_grn.fc1.bias f4 [2]
00000000: 4943 3f3c acd4 48bc
0.011673757 -0.012257736

static_variable_selection.flattened_grn.fc2.weight f4 [2, 2]
00000000: 81f4 1bc0 0e25 b83f 46b1 9f3e be26 c1be
-2.4367983 1.4386308 0.31189936 -0.3772487

static_variable_selection.flattened_grn.fc2.bias f4 [2]
00000000: 72fa 78bc 4194 81bc
-0.01519643 -0.015817763

static_variable_selection.flattened_grn.gate_norm.glu.fc.weight f4 [4, 2]
00000000: bd8d 68bf 03fa 67bf 9199 42bf 71d0 72bf
00000010: 5b7c a63d b4b4 7ebf f8de a73e 224d 61bf
-0.90841275 -0.9061586 -0.76015574 -0.94849306 0.08129188 -0.9949448 0.327873 -0.8800832

static_variable_selection.flattened_grn.gate_norm.glu.fc.bias f4 [4]
00000000: ef5f 70bd 561a 883d 57c3 023d 32d0 ddbc
-0.05868524 0.06645648 0.03192457 -0.027076814

static_variable_selection.flattened_grn.gate_norm.add_norm.norm.weight f4 [2]
00000000: 2ac3 753f 26c3 753f
0.9600092 0.960009

static_variable_selection.flattened_grn.gate_norm.add_norm.norm.bias f4 [2]
00000000: 6137 67bc 5237 673c
-0.014112324 0.0141123105

static_variable_selection.single_variable_grns.TEAM_ID.mask f4 [16]
00000000: b6f1 1d3e 64f6 edbd c061 71b8 edf2 823c
00000010: 6a8c 1a3d bef4 acb9 8e17 14bb 8cf1 cebc
00000020: 563f f8bc 3234 aa3c c50e fdbb fcc9 023b
00000030: 02ae 7ebd 8f21 c13d 9e4e 6039 6643 b6bd
0.15424237 -0.11619261 -5.7549914e-05 0.015984977 0.037731566 -0.00032988744 -0.0022597048 -0.025261663
-0.030303638 0.020776842 -0.007722708 0.0019956818 -0.062177666 0.09430229 0.00021391592 -0.08899574

static_variable_selection.single_variable_grns.TEAM_ID.norm.weight f4 [16]
00000000: f4bf 973f 56b3 5c3f 4a15 7b3f ddae 873f
00000010: 5da4 7f3f 64b0 753f ac04 6c3f 1501 7a3f
00000020: efe7 793f 4a48 863f 39ec 833f 683b 873f
00000030: 0bfc 6a3f 215f 913f 33f1 7a3f 1fc7 5a3f
1.1855454 0.86211145 0.9807936 1.0600239 0.99860173 0.95972276 0.9219463 0.976579
0.9761953 1.0490811 1.0306464 1.0565004 0.9179084 1.1357156 0.9802429 0.85460085

static_variable_selection.single_variable_grns.TEAM_ID.norm.bias f4 [16]
00000000: 87a8 ca3d f529 1cbe 79ea 88bd 6042 38be
00000010: 0332 e7bd d33f 1f3d c1e1 ab3d 95fe 7dbd
00000020: f12d 87bb 4d4f 233e f20b 71bd 0c9b c73c
00000030: eef2 02b9 ff18 8d3d b7cb 803d 2cdc 79bb
0.09895425 -0.1525038 -0.06685347 -0.1799407 -0.11288836 0.038879227 0.083926685 -0.062010366
-0.0041253497 0.1594822 -0.058849283 0.024365924 -0.00012488264 0.06889533 0.062888555 -0.0038125617

static_variable_selection.single_variable_grns.encoder_length.resample_norm.mask f4 [16]
00000000: 2ea6 0a3c 0aae 3abc 5c2b 0e3d 80ab 75bc
00000010: 2d60 58bd 2684 88bd 1be1 c9bc bcc5 4fbd
00000020: 188a 0cbb dbc8 15bd 71d3 a7bc 5911 5d3c
00000030: ba9e 96bd 197c b73d 7cdd 013e 9e68 a63d
0.008462472 -0.011394033 0.03470932 -0.014994502 -0.052826095 -0.0666583 -0.024643471 -0.050725684
-0.0021444615 -0.036568504 -0.020486565 0.013492906 -0.073544934 0.089592166 0.12682146 0.08125423

static_variable_selection.single_variable_grns.encoder_length.resample_norm.norm.weight f4 [16]
00000000: 90c6 803f ebfe 7e3f 088f 873f fa52 863f
00000010: 3d2d 723f a904 703f 6a20 7c3f c7d1 723f
00000020: afa2 703f 59ad 683f 322b 753f acc5 823f
00000030: 2ec4 6c3f b5ec 8c3f 7ecd 8f3f e3f7 8f3f
1.0060596 0.99607724 1.0590525 1.0494072 0.9460028 0.9375711 0.9848696 0.94851345
0.93998235 0.9088951 0.95769036 1.0216575 0.92486846 1.1009737 1.1234586 1.1247524

static_variable_selection.single_variable_grns.encoder_length.resample_norm.norm.bias f4 [16]
00000000: b029 bb3b 3e83 d03a 1239 72bd 3c2b 5ebd
00000010: 60ce 50bd 2e06 9dbd 5fbd cfbc 6b01 63bd
00000020: c064 8a3d 638b d83d a7c0 92bc ec2a 983c
00000030: 1f63 8ebd 6a5f a43d fa37 f23d 2b62 da3d
0.0057117566 0.0015908254 -0.059136458 -0.05424045 -0.050978065 -0.07667194 -0.025358854 -0.055421274
0.06757498 0.10573461 -0.01791413 0.018575154 -0.069524996 0.08026011 0.11827083 0.10663255

static_variable_selection.single_variable_grns.encoder_length.fc1.weight f4 [8, 8]
00000000: 9fb4 37bf 070b 5cbf 1ab0 a9bc 8bc8 013f
00000010: 31cb fabd 4493 d2be 249b 993e 6eb9 ae3e
00000020: a6ff 84be d9ad 0ebe b8ba 393e 6509 a9be
00000030: a5bf e6be 5809 ab3e b497 8bbf 7fb1 16be
00000040: 85e1 b03e 1b9d a63e 508b 323e f8dc 753e
00000050: fc71 9abe eac6 ca3e 53f0 ec3e 4b6e 323e
00000060: 76d0 803e 1d45 afbe 3049 27bf 7511 a0be
00000070: f766 b73e bcf5 61be 58ce 2abf 706b 2fbf
00000080: d310 9d3e c656 2abf 5ea3 23bd bc73 31bf
00000090: fbc9 55bd 56fb 9f3e 0e85 04bf 8c97 84bc
000000a0: 4ee3 933e 7ba7 aa3e 0113 cd3e 08c1 6a3f
000000b0: b578 523e 5b3e b83c d090 1f3f 624b 9b3e
000000c0: e69c 69be 9885 a6be a2c6 89be 297e c03e
000000d0: 57ca cebe 3e08 6a3f 7aab 69bd a255 fdbe
000000e0: ef3b 3fbf 1b66 153e cbca 283f d073 98bd
000000f0: 9543 13bd 53e6 96be c829 c53c fc34 50be
-0.7175998 -0.85954326 -0.020713855 0.5069663 -0.12245787 -0.4112798 0.30001175 0.34125847
-0.25976294 -0.13933505 0.18137634 -0.3301498 -0.45068088 0.33405566 -1.0905671 -0.14716147
0.34547058 0.32541737 0.17435956 0.24010074 -0.30165088 0.39604884 0.46277103 0.17424886
0.25159043 -0.34232417 -0.6534605 -0.3126332 0.35820743 -0.22066396 -0.66721106 -0.6852331
0.30676898 -0.66538656 -0.03995072 -0.6931722 -0.052194577 0.31246442 -0.51765525 -0.016185544
0.28884357 0.33330902 0.4005356 0.9170079 0.20553859 0.02249067 0.6233034 0.3033095
-0.22813758 -0.325238 -0.26909357 0.37596253 -0.40388748 0.91418827 -0.0570483 -0.49479395
-0.74700826 0.14589731 0.6593444 -0.074439645 -0.035953123 -0.29472598 0.024067774 -0.20332712

static_variable_selection.single_variable_grns.encoder_length.fc1.bias f4 [8]
00000000: a89e 9bbb d1f5 863b a169 053d 4136 6a3b
00000010: 9633 8ebc e72f f23c b259 cebb 202e a5bd
-0.004749138 0.004118659 0.03257144 0.0035737904 -0.017358582 0.029563857 -0.0062973136 -0.08065438

static_variable_selection.single_variable_grns.encoder_length.fc2.weight f4 [8, 8]
00000000: d073 873e 7f24 62bf 3b0a 103f 2e9e 953d
00000010: a050 903e 5242 633f ffb9 c03e 63b7 cdbe
00000020: 5346 61bf 5489 cebe 845f 9ebf 6de9 e03d
00000030: 7385 34bf f092 113f 233d 19bd 8b19 9f3e
00000040: a559 19bf 9ea5 593f 6a11 6b3f 69a8 023e
00000050: bebc 2cbf 760e ec3d 14d2 4cbf 5255 793d
00000060: 6a9f 413f 668f 653e ccf8 9bbe 9007 eebe
00000070: f821 c33e 9cbb 8d3d d642 17be f87d 3f3d
00000080: 556f 8e3d d9e1 c8bd 82e5 4b3f 87a4 f43d
00000090: 65fe d53e 43fb e23d 74f0 54bf 76d9 b03e
000000a0: b798 643e b18b d2be 12a8 b7bd 1fde d93e
000000b0: 2167 2fbf dcbe 153f ac8f a0bd 8f14 953e
000000c0: 8bf6 a7bc 77bb 373e 6019 babe 0df0 1e3e
000000d0: 7941 913e 6214 4e3f 8612 0a3d 25d4 823e
000000e0: 28e2 3cbe dce0 a0be f2c8 0cbd e623 35bf
000000f0: 8dc1 313f f2da 0dbf 1b70 013e bac7 7abf
0.26455545 -0.8833694 0.5626561 0.07305561 0.28186512 0.8877307 0.37641904 -0.40178975
-0.8799793 -0.40339148 -1.2372899 0.109820224 -0.7051613 0.56864834 -0.03741182 0.31074175
-0.5990241 0.85018337 0.91823447 0.12759556 -0.674755 0.11526196 -0.80008054 0.060872383
0.7563387 0.22417983 -0.30463254 -0.46490145 0.38111854 0.06920549 -0.1477159 0.046750993
0.06954829 -0.09808702 0.79647076 0.119454436 0.4179565 0.110830806 -0.831794 0.3454091
0.22323881 -0.411222 -0.08967604 0.42552277 -0.6851674 0.58494353 -0.07839903 0.29117247
-0.020503303 0.17942606 -0.36347485 0.1552126 0.28370264 0.8049985 0.03370907 0.25552478
-0.18445647 -0.31421554 -0.034371324 -0.707579 0.6943596 -0.5541221 0.12640421 -0.9796101

static_variable_selection.single_variable_grns.encoder_length.fc2.bias f4 [8]
00000000: 53ce 893d e955 35bc 5f32 bf3d c07b 203d
00000010: 336f 89bd 48d1 333c d59b 57bd 506b 27b9
0.06728806 -0.011067846 0.093357794 0.039180517 -0.06710663 0.0109751895 -0.052638847 -0.00015966338

static_variable_selection.single_variable_grns.encoder_length.gate_norm.glu.fc.weight f4 [32, 8]
00000000: 437b 693d 6014 983e d9ad 70bc 9599 9bbe
00000010: bc47 d4bd c6d3 fd3d 22ef 70be 3af2 b2be
00000020: 4b45 a0bd 882c ed3d b46e 663e 4154 be3e
00000030: 8c0f 9cbd bb24 683e 9b69 983e f745 89be
00000040: 46f5 c5bd 1e3d 5bbe 9634 96be 3a67 863a
00000050: 24da 0fbe 27e4 303c 714a efbd fe64 ab3c
00000060: dc65 b9be 9409 483e 055e 52be 2ef6 20be
00000070: ca28 87be b203 2c3e f220 a1be cb20 953e
00000080: 318b 0cbe 9bf7 30be 910f ae3c 9190 9cbe
00000090: e10e 543d 4825 ffbd ef2d c6bd dc25 93be
000000a0: e4fb ecbd dd11 7b3e d2a5 7cbd c9a4 87bc
000000b0: 5cda 933e e23b ef3d bcd7 8a3e b830 a63c
000000c0: 568a 24bd b558 86be 49a9 953e 8736 ec3d
000000d0: 5bb1 bb3e 9b92 96be 6053 91bd 91a1 9fbe
000000e0: f058 b1be f4d0 b03e ad54 973e 8d37 463e
000000f0: 8fd2 8b3e c578 cabe 54bd bb3e f231 97be
00000100: 9aab 66bd 585a 47bd ff12 813d c184 fcbc
00000110: cd3c 39be 2137 983e 6d4d 7dbd dd6b a03d
00000120: e28d 543e 1cb7 bfbd 9f68 34bd bd12 253e
00000130: 892b 4b3d 5cf7 aa3d f857 82be 2e67 c6be
00000140: 7394 aabe 6c07 b03b f9f1 c03e c8e7 95be
00000150: 0c48 803e fa08 8d3e a583 90bd 3c7b 50be
00000160: 6322 cebe d328 99bc 9220 ed3d 9f06 a8be
00000170: 1157 643e ea75 9bbe ef96 4c3d 09f2 a8be
00000180: 7b3b a3be 615b be3e 23d9 a2be 8394 2fbe
00000190: 35c6 9fbe 9097 2abb 3fb2 953d f7e3 a43c
000001a0: 640d dd3d 07a6 dd3d cac9 873e e9cd dd3e
000001b0: 76de 81be 3ae3 cabd 9cea b1bd 9a82 1cbe
000001c0: 5788 10bd 4e07 123e 8889 63be a01f 7a3d
000001d0: d420 93be 8153 bb3e e6c4 453d dc6d 89be
000001e0: 967d 043f d5fa f5be 9777 c33d c507 f53d
000001f0: 9279 3b3e 55a6 653e 6a45 1f3c ea72 943d
00000200: 6385 8b3e 758d 153e c5d6 1ebe 9034 5a3d
00000210: c2bd b7be 45b8 723e 0678 a53e 751f 4f3d
00000220: 1f7a 9f3d acbf 753e 50aa bcbd dd77 29be
00000230: 2a5e 49be 4840 88be 99db adbe a878 41be
00000240: 982f 853e 660d 6f3e daa9 5b3e a051 bfbe
00000250: fda4 893e d3e1 973e 2620 35be 1309 c13c
00000260: b2ca 9a3d 5363 433e d57d 68be 6345 d03d
00000270: 3f09 76be 8cc1 c0bd 9391 bbbd 3efb 83be
00000280: ee31 70be 99be 4b3e 11d9 f8bd 680d e93d
00000290: 0a75 803b 6395 febd d33b cabe 76a9 0abd
000002a0: ec37 5f3e 11e9 34be ded6 08be 8bda 92be
000002b0: 05d2 823e 6acd b7be 0063 b3be 4c79 923e
000002c0: 1da0 46be c164 d83e dc42 3a3e 48f0 cbbe
000002d0: 2089 90be d9dc 783e ea19 d63d bc0b b13e
000002e0: 978c 693e 991a 6dbe 633e 963e 2848 57be
000002f0: 05f5 a2be ca4e b73e 605d a6be 7207 acbc
00000300: e390 55be 7065 aebe 12d2 943e 270b 8b3e
00000310: 96f1 263e 1c24 ea3d aa37 bebe 60a4 7d3e
00000320: dbb7 bf3e d104 0ebd 08d5 653e 6941 7ebe
00000330: 70fb 91bd 556a 823d c1e7 e4bd 4d48 90be
00000340: 844b e63d c38f cf3d add3 bf3e 7e34 96be
00000350: 7abe 363e d2eb 2c3d 7c6f bb3e d333 52be
00000360: 4804 a43e c957 80be d302 a1be 7fab 123e
00000370: aa43 3d3e ba66 b1be a40b d2be 5767 7a3c
00000380: 2f33 cd3e c8d7 223e 456a 39be ac64 b13d
00000390: df0a 6ebc 62ba b23e f814 cc3e 68bd b2be
000003a0: 43bc b93c ba82 bd3e e24e 213e 5683 653e
000003b0: 3c0c 89be 1902 99be 55d8 253e 57f9 8f3e
000003c0: 9b14 443d dcc7 a03e 8839 213c 0c3c 873e
000003d0: 7932 5c3e 946a 96bd 7351 8c3e f17e 593e
000003e0: e2b8 b93e 9dca 97be 1898 65bc 635d 363d
000003f0: 5054 3abe 51a0 60bd e667 1e3e 73c2 debe
0.057002317 0.29703045 -0.014689886 -0.3039061 -0.10365245 0.12393908 -0.23528722 -0.3495043
-0.078257166 0.11580759 0.22503167 0.37173656 -0.07620153 0.22670262 0.2976807 -0.2681119
-0.09665923 -0.21410033 -0.29336995 0.0010254153 -0.14048058 0.010796583 -0.116841204 0.02092218
-0.36210525 0.19534904 -0.20543678 -0.1571891 -0.26398307 0.16798285 -0.31470448 0.29126582
-0.13724972 -0.17281954 0.021247657 -0.30579045 0.051772002 -0.12458283 -0.0967673 -0.28739822
-0.11571482 0.24518533 -0.061681576 -0.016558068 0.28877532 0.116813436 0.27117717 0.020286903
-0.04017099 -0.26239553 0.29230717 0.11533838 0.3665875 -0.29408726 -0.07095981 -0.31177953
-0.34638166 0.3453442 0.2955679 0.19357128 0.2730908 -0.39545265 0.36667883 -0.29530293
-0.056315996 -0.048670143 0.06302451 -0.03082502 -0.180896 0.2972956 -0.061841417 0.07833073
0.20757249 -0.09361097 -0.044045087 0.1612043 0.049602065 0.08347961 -0.2545774 -0.38750595
-0.33316383 0.0053719785 0.3768461 -0.29278398 0.25054967 0.2754591 -0.07056359 -0.2035951
-0.4026061 -0.018696224 0.11578478 -0.32817551 0.22298838 -0.303634 0.04994863 -0.32997158
-0.31881317 0.37179092 -0.31806287 -0.17146496 -0.31205907 -0.002603028 0.07309388 0.020128233
0.1079357 0.10822683 0.2652114 0.4332116 -0.25365037 -0.09906621 -0.08687326 -0.15284196
-0.035286274 0.14260599 -0.22220433 0.061065316 -0.28735983 0.36587146 0.04828348 -0.2684163
0.5175413 -0.48042932 0.09544294 0.119643725 0.18308094 0.22426732 0.009721139 0.072484806
0.27250203 0.14604743 -0.15511616 0.053272784 -0.3588696 0.23703106 0.32318133 0.05056711
0.077869646 0.23998898 -0.09212172 -0.1654963 -0.19664827 -0.26611543 -0.33956602 -0.18893683
0.26012874 0.23344955 0.21451512 -0.37366962 0.2688369 0.29664478 -0.17688045 0.023563897
0.07558192 0.19080858 -0.22704251 0.101694845 -0.24026965 -0.09411916 -0.091586255 -0.2577762
-0.23456547 0.19896926 -0.12150777 0.1137951 0.003920202 -0.12430837 -0.39498767 -0.033853017
0.21798676 -0.17667033 -0.13363215 -0.2868236 0.25550857 -0.35898906 -0.35036469 0.28608167
-0.19397016 0.4226437 0.18189567 -0.39831758 -0.28229618 0.24302997 0.104541615 0.34579265
0.22807537 -0.23154677 0.29344472 -0.21023619 -0.3182756 0.358023 -0.32493114 -0.020999644
-0.20856051 -0.34061766 0.2906652 0.27156946 0.16303095 0.114326686 -0.37151843 0.24769735
0.37444958 -0.034672562 0.22444546 -0.2482964 -0.07128036 0.063679375 -0.11177016 -0.2818016
0.11244872 0.10134842 0.37466183 -0.29336923 0.17846099 0.042217083 0.36608493 -0.20527582
0.32034516 -0.25066975 -0.31447467 0.14323233 0.18482843 -0.34648687 -0.41024506 0.015283427
0.40078112 0.15902627 -0.18106945 0.0866178 -0.014528959 0.34907824 0.39859748 -0.3491013
0.022672778 0.370138 0.15752748 0.22413382 -0.26767147 -0.29884413 0.16195805 0.2811992
0.047871213 0.3140248 0.009840377 0.26413 0.21503629 -0.07344547 0.2740589 0.2123983
0.36273867 -0.2964677 -0.014013313 0.044522654 -0.18196225 -0.05484039 0.15469322 -0.43507728

static_variable_selection.single_variable_grns.encoder_length.gate_norm.glu.fc.bias f4 [32]
00000000: 89a5 d73b 230c c43b e109 67bd f35b 06bd
00000010: d0e2 3bbd cdff 8bbd bd62 d9bc a8b7 43bd
00000020: 563a 313d 587f c53d e870 2bbc 0e8f 453c
00000030: 7f18 8cbd ef8a 683d 0d3e c03d 11c7 c93d
00000040: 54ca 26bd 09c9 b3bc 19b5 44bd 364b 283d
00000050: 299a 41bd 91f7 00bd 62f6 62bd c2aa 23bc
00000060: 5981 e2bc 586c 693d ec83 5abc 2a65 adbc
00000070: d0d6 203d 8849 a7bb b7f9 063c 66ca 533d
0.0065810126 0.005982892 -0.056405906 -0.032802533 -0.045870602 -0.068358995 -0.02653634 -0.04778257
0.043268524 0.096434295 -0.010463931 0.012058033 -0.0684061 0.056773122 0.09386835 0.09852422
-0.0407203 -0.021946447 -0.04802427 0.04108735 -0.04726616 -0.031486098 -0.05541075 -0.009989442
-0.027649568 0.05698809 -0.013337117 -0.021166403 0.03926736 -0.005105201 0.008238248 0.051706694

static_variable_selection.single_variable_grns.encoder_length.gate_norm.add_norm.norm.weight f4 [16]
00000000: 3f9c 813f e1b1 7f3f 07a2 853f 430e 873f
00000010: 3414 713f 26d5 6c3f ed5f 7a3f 056c 643f
00000020: b0c8 713f 5f97 6c3f fe43 6b3f e42e 7c3f
00000030: e62c 793f f668 8b3f 4570 8e3f 976b 933f
1.0125808 0.99880797 1.0440072 1.0551227 0.9417145 0.9251274 0.9780262 0.89227325
0.9444685 0.92418474 0.9190062 0.9850905 0.97334135 1.0891407 1.1128012 1.1517209

static_variable_selection.single_variable_grns.encoder_length.gate_norm.add_norm.norm.bias f4 [16]
00000000: ee3d c4bc 5bf2 14bc f38c 83bd cd43 8fbd
00000010: 720c 73bd f6a0 d3bd cd4b 9fbc 7a9b 8cbd
00000020: 0818 963d a191 c83d 8342 9cbc 0921 35bb
00000030: ef65 a0bd db64 903d 9891 f03d 5a98 033e
-0.023955312 -0.009090985 -0.06423368 -0.06995354 -0.05933804 -0.10333435 -0.019445324 -0.06865592
0.07328802 0.097934015 -0.019074684 -0.0027638099 -0.07831942 0.07050487 0.1174652 0.12851086

static_variable_selection.prescalers.encoder_length.weight f4 [8, 1]
00000000: b80b 823e 24d7 88be 4057 423f 4e74 003f
00000010: 4c4d b2be 1893 4d3e 60fd 14be 38b4 713f
0.25399566 -0.2672664 0.7591438 0.50177467 -0.34824598 0.20075643 -0.1454978 0.94415617

static_variable_selection.prescalers.encoder_length.bias f4 [8]
00000000: 9c1d 4dbf f16a fcbd ed6c 1c3e 8e1f 4f3f
00000010: d857 25be a3d6 623f 6c27 7b3f c682 933f
-0.80123305 -0.12325085 0.15275927 0.80907524 -0.16146791 0.8860876 0.9810703 1.1524284

encoder_variable_selection.flattened_grn.resample_norm.mask f4 [4]
00000000: e8e6 0a3e a9ce f53c 230a 39bd d1e8 11be
0.13564646 0.03000577 -0.045175683 -0.14248969

encoder_variable_selection.flattened_grn.resample_norm.norm.weight f4 [4]
00000000: c5b4 823f f2dd 703f ca0c 413f cfdb 943f
1.0211416 0.9408866 0.7541014 1.162958

encoder_variable_selection.flattened_grn.resample_norm.norm.bias f4 [4]
00000000: 2d93 4e3e c8a7 05be 5bfa aebd fec8 d03d
0.2017333 -0.13052285 -0.08543845 0.10194586

encoder_variable_selection.flattened_grn.fc1.weight f4 [4, 35]
00000000: 4d9e 60be ad99 f33e 9197 1fbe cbc1 9d3d
00000010: c9f9 2a3e 45ec 8cbe 4230 9b3e af54 89be
00000020: 6c56 1abe cd66 283e b29e e43d 97c4 a63e
00000030: 956c 5f3d 2281 533e 032a 9c3e 3740 e93d
00000040: bb20 c93b b905 313d 198c bc3e b937 48be
00000050: b7f5 c9bd 4ad0 71be 7448 213e 8168 553d
00000060: 85c8 9bbe 93aa 5a3e 6ed1 6c3e d44d b93d
00000070: e722 423e cc36 e13d 0938 bebe 0c8d f63e
00000080: ea88 c83e aa29 02be d35c 043e e3ae 983e
00000090: 150b 0b3d 72fd 3e3e 787f 65be a7c2 183e
000000a0: 3f36 f03d 61a5 e83d 2c68 f93d c140 ee3d
000000b0: f6b3 fcbd b012 0f3d 6afd 083e 4123 193f
000000c0: 3cf5 263c 1e45 703e 45d3 833e af7c 4f3d
000000d0: 5d60 4fbe c379 8ebd 018c 86be eab7 b03d
000000e0: 2474 7fbb 4885 933e db76 debe e7e1 dc3d
000000f0: ce52 49bc 8ec3 e2be bf3b 493e 6f45 d2bc
00000100: 9494 c33e 8a3d a2be 0938 573e dd60 0fbe
00000110: 8c95 ddbd b0a0 a13e de67 a7bd 65d5 bf3e
00000120: c919 e6bb cc76 da3e 01fe 9bbd 3bbe dbbd
00000130: ddc2 0e3e 4e19 90be 8276 54be 1ff5 3f3e
00000140: 946a 26bc db11 9bbe 8609 36bd 96db 8abe
00000150: 678d a23c 37e4 b7be 8045 c8be fb34 e7be
00000160: 27ab 173e 3441 8fbe 74e0 d93d 3b39 6f3e
00000170: 6bcf 2d3e fcb9 803e 2e8f 1abf 6a66 ef3d
00000180: 45f4 003d 23b4 a8bd a5c5 d0be aae5 4cbe
00000190: 4a6b 343b 36ae fb3d 8914 a1be ba3f 21be
000001a0: c822 09be 530e 4dbe a3a7 b3be d8c8 1bbf
000001b0: 8c94 1b3e 87ed 073e c74d a6be 9a90 2dbe
000001c0: 784d c03e b080 97bd e3ec 853e c565 53be
000001d0: 3c81 c03e fa68 603e 0e15 863c 068f 1d3e
000001e0: 70a4 b03e dca4 003e 3ef3 08be c94a 423e
000001f0: b127 343f a7d9 ac3b 1141 85bd c042 83bd
00000200: 005e 943e 3711 6e3e 164c fcbc b08f a9be
00000210: f8ce 46b9 2bb8 0a3e da40 b83d 2e8f f53e
00000220: 9094 a6bd 4865 893e bcb8 263f b36f ea3e
-0.21935387 0.47578183 -0.15585162 0.07702979 0.16696848 -0.2752401 0.30310255 -0.2682242
-0.1507203 0.16445465 0.11163081 0.3257186 0.05454691 0.20654729 0.30500802 0.11389201
0.006137935 0.04321835 0.36825636 -0.19552507 -0.098613195 -0.23614612 0.15750295 0.052101616
-0.30426422 0.21354131 0.23126766 0.09048048 0.18958627 0.1099678 -0.37152126 0.48154485
0.39166957 -0.12711206 0.12926035 0.29820928 0.033946116 0.18651369 -0.22411907 0.14918004
0.117290966 0.113596685 0.12178072 0.116334446 -0.12339012 0.03492993 0.1337792 0.5981942
0.010190304 0.23463866 0.25747123 0.050656017 -0.20251603 -0.06956818 -0.2627869 0.08628829
-0.0038979137 0.28812623 -0.43450055 0.10785275 -0.012287809 -0.4428982 0.19651698 -0.025667874
0.38199294 -0.31687576 0.2101747 -0.14001794 -0.108195394 0.31567907 -0.08174108 0.37467495
-0.007022117 0.4266876 -0.07616807 -0.10729643 0.13941522 -0.28144306 -0.20748332 0.1874585
-0.010157246 -0.3028706 -0.044442676 -0.27120656 0.019842817 -0.35916302 -0.39115524 -0.45157608
0.14811383 -0.27979434 0.10638514 0.23361675 0.16973655 0.25141895 -0.60374725 0.11689456
0.031482954 -0.08237483 -0.4077579 -0.20009485 0.002752977 0.122890875 -0.3146098 -0.15746966
-0.13392174 -0.20024996 -0.35088834 -0.6085334 0.15193385 0.13274203 -0.32481214 -0.16949692
0.37559104 -0.07397592 0.26157293 -0.20644291 0.37598598 0.21915045 0.016367462 0.1538659
0.34500456 0.12562889 -0.1337404 0.18973841 0.70373064 0.0052749696 -0.06506551 -0.06409216
0.28977966 0.23248754 -0.030798 -0.33117437 -0.00018959853 0.13546817 0.089967445 0.479608
-0.08133805 0.26835084 0.6512563 0.45788345

encoder_variable_selection.flattened_grn.fc1.bias f4 [4]
00000000: 67c0 13be bf51 cebd 71cc d3bd 9a97 1f3e
-0.14428864 -0.100741856 -0.103417285 0.15585175

encoder_variable_selection.flattened_grn.context.weight f4 [4, 16]
00000000: fe83 14bd b361 95be 3141 2abe 73a7 afbe
00000010: bf1f dc3e f5c9 f5be 2a7a bc3e eb02 b4be
00000020: ef26 20bf 7971 023f 3df5 383e 6094 1b3e
00000030: 7396 46be 0963 95bd 5b3e 5cbe 06c4 13be
00000040: 5871 f9bd 1ca4 be3e ceb4 223f 2f6a 1a3f
00000050: 9254 61be b7cc 33bd 1b7e 55be bcc4 26be
00000060: aaf0 053d 2529 1a3d 3049 b6be b030 cb3e
00000070: 62b8 0f3e 3fb9 5fbd 3ec0 e43e f7cb 543e
00000080: fdb0 4c3d ef56 05be 2203 603d 721d 003d
00000090: 24fc 8f3e fb37 8f3e 2d32 703e 382d ff3d
000000a0: 4693 433e a388 763d 3c9d 8ebe c178 e63e
000000b0: 52a8 833e 45c8 0cbf ac00 d0be 3f8c 22be
000000c0: 1b52 703e 6479 6e3e 68b2 38bf 7966 17bf
000000d0: 767f a6be 37ba 03bf f438 2cbe 4091 e2be
000000e0: aa24 f73e 2140 6e3e 03dd 9bbc 183f 91be
000000f0: 8231 2bbf 917e ea3e fdd5 d03e 5370 1b3f
-0.03625869 -0.291761 -0.16626431 -0.3430744 0.4299297 -0.48005643 0.36811954 -0.35158476
-0.6255941 0.50954396 0.18062301 0.1519332 -0.1939333 -0.0729428 -0.21508162 -0.14430246
-0.12179822 0.3723458 0.63557136 0.60318273 -0.22004917 -0.043896403 -0.20848887 -0.16285986
0.03270022 0.037636895 -0.35602713 0.39685583 0.1403518 -0.054620024 0.4467792 0.20780931
0.049973477 -0.13021444 0.054690488 0.03127808 0.28122056 0.27972397 0.2345664 0.12459797
0.19099149 0.0601889 -0.27854335 0.45014003 0.25714356 -0.5499309 -0.40625513 -0.15873812
0.23468821 0.23288494 -0.72147226 -0.59140736 -0.3251912 -0.51456016 -0.16818601 -0.44251442
0.4827016 0.2326665 -0.019026285 -0.2836845 -0.6687242 0.45799688 0.4078826 0.6071827

encoder_variable_selection.flattened_grn.fc2.weight f4 [4, 4]
00000000: e719 133e f6c0 a63f 24f8 49bf 8db3 573f
00000010: 96e4 0f3e 8253 f13e 0426 b83e ea8c b23f
00000020: d723 973e 9dd2 b63f d5df 673f e24d 8a3e
00000030: c9ba 7a3e 67f3 cb3f c723 123f 5fd3 05bf
0.1436535 1.3027637 -0.7889426 0.8425835 0.14052042 0.47134024 0.35966504 1.3949254
0.2951953 1.4283024 0.90575916 0.27012545 0.24485315 1.5933656 0.5708584 -0.5227565

encoder_variable_selection.flattened_grn.fc2.bias f4 [4]
00000000: 4cc6 b7bd 06e8 303e 0048 57be 9350 f1bd
-0.08973369 0.1727601 -0.2102356 -0.117829464

encoder_variable_selection.flattened_grn.gate_norm.glu.fc.weight f4 [8, 4]
00000000: 988f b43e 1748 2b3f 6c4f 423d cf08 5dbf
00000010: b378 403e 0ba8 edbe e602 6bbd 5b6c e6be
00000020: 5a43 323e f5c0 36bf cb3f 963d 5f18 823f
00000030: 2f1f 4a3e c6fa 913e 460d 8b3e f7af 96be
00000040: b4d0 a7be e71e 223f b188 11be 79a4 cfbe
00000050: 64da 23bc 24e4 2cbf c670 523f ad12 663d
00000060: 80fa 1c3d 3d07 673e 374b fbbc 2c37 43bf
00000070: eba2 073f 0bc6 aebe 74a8 c7be d5a4 2e3f
0.35265803 0.66906875 0.047439024 -0.86341566 0.18796043 -0.4641727 -0.05737581 -0.45004544
0.17408505 -0.7138818 0.07336386 1.0163687 0.19738458 0.28511637 0.27158564 -0.29431126
-0.32776415 0.63328403 -0.142123 -0.4055517 -0.010000799 -0.67535615 0.8220333 0.056170154
0.038324833 0.22561355 -0.030675514 -0.7625606 0.5298297 -0.3413547 -0.38995707 0.68220264

encoder_variable_selection.flattened_grn.gate_norm.glu.fc.bias f4 [8]
00000000: a5c8 053e 510a d0bd 5c3b a7bd 1dd8 553d
00000010: 6e63 923e c53a 003b 1362 193d c464 f3bd
0.13064821 -0.10158218 -0.08165619 0.052208055 0.28591484 0.001956628 0.037447046 -0.11884454

encoder_variable_selection.flattened_grn.gate_norm.add_norm.norm.weight f4 [4]
00000000: dac7 823f 78eb 733f f202 6b3f 3969 6b3f
1.021724 0.9528117 0.9180137 0.9195743

encoder_variable_selection.flattened_grn.gate_norm.add_norm.norm.bias f4 [4]
00000000: 3a44 693e 2e83 57be 21a6 46be bdeb 733e
0.22779933 -0.21046135 -0.1939931 0.23820396

encoder_variable_selection.single_variable_grns.TEAM_ID.mask f4 [16]
00000000: f2f8 923e 1bf8 63be 9374 81be 29e5 1a3e
00000010: d6d9 76be 461c 6dbe d78a e33e fc40 033e
00000020: c4c2 84be 3d37 68be 6669 7fbe b567 76be
00000030: 07bd 4b3e 3aa4 363e 8646 aa3c 7ac1 04be
0.28705555 -0.22262613 -0.25284252 0.1512648 -0.24106535 -0.23155317 0.44441864 0.12817758
-0.25929844 -0.22677322 -0.2494255 -0.24062999 0.19896327 0.17836085 0.020785581 -0.1296443

encoder_variable_selection.single_variable_grns.TEAM_ID.norm.weight f4 [16]
00000000: f58a b83f 474a 463f 76f1 513f 109b ab3f
00000010: a990 803f 3279 4c3f 9568 d03f 8924 b73f
00000020: 7542 593f 74a3 db3e 4057 763f 8115 2f3f
00000030: 3bdc 903f 8a06 833f 7ea8 9c3f c437 693f
1.4417406 0.7745709 0.82009065 1.3406696 1.0044147 0.7987243 1.6281916 1.4308025
0.8486703 0.42898142 0.9622688 0.6839219 1.1317209 1.023637 1.223892 0.91100717

encoder_variable_selection.single_variable_grns.TEAM_ID.norm.bias f4 [16]
00000000: 8a84 023e 2a77 1abd bef6 b2bd 95c3 dd3c
00000010: f249 9b3a 7efe a6be 3cbc 84bd 9116 12bd
00000020: ec80 3a3e 2f24 923e 9f71 69be 858c b6be
00000030: 764d ea3e 4466 363e c918 23be df84 6f3d
0.12745872 -0.0377113 -0.087384686 0.0270708 0.0011847599 -0.32616037 -0.06481215 -0.035666052
0.18213242 0.2854323 -0.2279725 -0.35654083 0.45762223 0.17812449 -0.15927424 0.058476325

encoder_variable_selection.single_variable_grns.time_idx.resample_norm.mask f4 [16]
00000000: d613 abbc d01e 123d bfb0 acbd dd96 1b3e
00000010: 6ad8 ddbc 968d 42bd 75a6 c9bc e856 ac3a
00000020: 9719 d2b9 ec69 683c e572 d33c 14b8 1c3d
00000030: 3423 c0bc 1071 19bc 1e7a 78bc cfff 253c
-0.020883482 0.035673916 -0.08432149 0.15194269 -0.027080733 -0.047498308 -0.024615506 0.0013148459
-0.00040073387 0.01418541 0.025811622 0.038261488 -0.023454286 -0.009365335 -0.015165834 0.01013179

encoder_variable_selection.single_variable_grns.time_idx.resample_norm.norm.weight f4 [16]
00000000: 6a36 713f 91eb 813f 3994 663f 509a 963f
00000010: 1351 753f aef0 6b3f 5154 853f 6580 813f
00000020: cf65 833f 02e3 883f 8624 823f 1563 873f
00000030: de1e 803f e9f7 833f 292d 7a3f fefe 7b3f
0.94223654 1.0150014 0.9006992 1.1765842 0.95826834 0.92164123 1.0416356 1.0117308
1.0265445 1.0694277 1.0167396 1.0577112 1.000942 1.0310031 0.9772516 0.9843596

encoder_variable_selection.single_variable_grns.time_idx.resample_norm.norm.bias f4 [16]
00000000: ab95 68bd 051a 91bd b9a6 8c3d 2b6d aabd
00000010: 803f febc 3ea7 8dbd dc9d f23d 027c 94bb
00000020: 432b 233d 11eb 9d3d cdef 71bd 53de 6abd
00000030: 85a2 253d 29e9 9d3d ab0c a13c 84a4 aebc
-0.05678336 -0.07085041 0.06867737 -0.083216034 -0.031036139 -0.069166645 0.118465155 -0.0045313844
0.03983618 0.07710851 -0.059066582 -0.05734093 0.040438194 0.077104874 0.01965936 -0.021318682

encoder_variable_selection.single_variable_grns.time_idx.fc1.weight f4 [8, 8]
00000000: 81fb 9c3e ad5e 953e dfde 8b3e b754 30bf
00000010: 0d71 27bf f2c5 833e 69f3 0fbf 4c0d 9dbf
00000020: 5aff 853e c4c7 e6be 45b2 10bf bbec 523e
00000030: 865f 39be 59db c03e 7013 773f cffd 19bd
00000040: e846 81bc 5b11 513f 3cd0 053f 14de 7dbf
00000050: f1b0 583f 7fb7 2b3f 37d5 5fbe 500e bdbe
00000060: f341 8e3e 63d8 c23e 555b 293f 86fa 31bf
00000070: 93b8 4a3e ff8a c43d 1aab a53e 727d b7bd
00000080: 6785 9fbe 52a0 8bbe 3918 c3be 9bf0 6ebe
00000090: 025a 793e 1327 0f3d e7bb 243f cf17 c73e
000000a0: 45da e33e 633a 143f 3be5 08bd ce3a 8dbd
000000b0: 2908 ad3e 68b5 13be 7984 903e f917 cd3e
000000c0: 30a9 193f e36a d6be 5752 8d3e 780c 133f
000000d0: 12ef b2be f853 2dbe b467 be3d b102 85bf
000000e0: 3db6 bdbe ae40 60be 3738 75bf aee2 a13e
000000f0: 5a0d b63d db49 e1bd 9a88 0d3e 740f 3abe
0.30660632 0.29173794 0.27318475 -0.68879265 -0.65406877 0.25736958 -0.5623079 -1.2269683
0.2617138 -0.45074284 -0.5652202 0.20598118 -0.18102846 0.3766735 0.96514034 -0.037595566
-0.015780881 0.8166711 0.52270865 -0.9916699 0.8464499 0.6707687 -0.21858679 -0.36924982
0.2778469 0.38055715 0.66154987 -0.69522893 0.19796972 0.09596824 0.32357103 -0.08959474
-0.31156465 -0.27270752 -0.38104418 -0.23333971 0.24350742 0.034949373 0.64349216 0.38885352
0.44502464 0.5790159 -0.033421736 -0.06895982 0.33795288 -0.1442467 0.2822607 0.40057352
0.60023785 -0.41878423 0.27601883 0.574409 -0.3494802 -0.16926563 0.092971236 -1.0391446
-0.370531 -0.21899673 -0.957889 0.31618255 0.08889265 -0.11000415 0.1382164 -0.18169957

encoder_variable_selection.single_variable_grns.time_idx.fc1.bias f4 [8]
00000000: 7ef4 5f3d 4b19 063d 6a8e cd3c e0f0 febc
00000010: a03f 6cbd 0b9c 343d eb80 ff3d 7063 72bd
0.054676525 0.032738965 0.025092322 -0.031120718 -0.057677865 0.044094127 0.12475761 -0.059176862

encoder_variable_selection.single_variable_grns.time_idx.fc2.weight f4 [8, 8]
00000000: 0cdd 38bd c0f4 ba3e 6870 3fbf 7371 09bf
00000010: 44ce 69be 6811 97bd 6d77 18bf 52bd e23e
00000020: 5090 bdbe cdff c73e 9d19 193d 411e 47bf
00000030: bb6f 8d3e b2eb 863e 976d 953e 6001 39be
00000040: d894 8b3e 17c9 153f 6796 90be 4b42 1a3c
00000050: 789e 78be d553 8dbe 9ae0 813e 52a0 0b3e
00000060: 1a7c d23c be06 913f e684 073e 41dc 293f
00000070: 2009 97bf 87ec 5f3f 2138 49be 20b2 f9bd
00000080: e0ed 373e 7e86 323f 74e1 3a3e 813b 7d3e
00000090: 5875 9e3d e90f 233f 4484 8b3f 71a8 00be
000000a0: 8e64 823e 8813 2cbe 5bc5 3c3c 8e6f 0cbf
000000b0: b316 7bbe dda3 cebe a62f 893f ad0e 4dbe
000000c0: 6dac a0bd e391 803e 7b9e f03e aec5 b03e
000000d0: 40c8 90be f4a2 16be 8757 7c3e 5662 1d3e
000000e0: 2875 ccbe 93fc 223c af37 d6bc 674c 2f3e
000000f0: a643 9d3e e963 a3bc fcb4 c4be 1763 a63b
-0.04513268 0.36514854 -0.74780893 -0.53688735 -0.2283259 -0.07376367 -0.5955723 0.44285065
-0.37024164 0.39062348 0.037377942 -0.7778054 0.27624306 0.26351696 0.29185173 -0.18066931
0.27261996 0.58509964 -0.28239748 0.00941522 -0.24279201 -0.2760302 0.2536667 0.13635376
0.025693942 1.1330183 0.1323429 0.66351706 -1.179966 0.8747029 -0.19650318 -0.12192178
0.17961836 0.6973647 0.18250066 0.2472973 0.07737225 0.6369615 1.0899739 -0.12564255
0.25467342 -0.16804326 0.011521663 -0.5485772 -0.24520378 -0.40359393 1.0717666 -0.2002513
-0.078453876 0.25111303 0.4699591 0.34525818 -0.2827778 -0.14710599 0.24642764 0.15369543
-0.39933133 0.009947914 -0.026149599 0.17118989 0.30715674 -0.019945102 -0.3841933 0.0050777304

encoder_variable_selection.single_variable_grns.time_idx.fc2.bias f4 [8]
00000000: a900 b9bc f6f7 563d aee7 b53c 6c84 1d3d
00000010: c4f2 6a3d 9681 6f3d 2271 f5bc fd99 a9bd
-0.022583323 0.052482568 0.0222052 0.038456365 0.057360426 0.058473192 -0.029961172 -0.08281324

encoder_variable_selection.single_variable_grns.time_idx.gate_norm.glu.fc.weight f4 [32, 8]
00000000: 3e04 be3e aa93 86be 3721 78be e008 c83e
00000010: d180 7d3e 593d 6fbd 5aeb 8dbe 096f 34be
00000020: f468 803d aecc 6e3d f4fc 883e 270e 7fbe
00000030: e14b bcbe 0117 5fbe 648f 6fbe f8be 1d3e
00000040: dc63 483e 6931 3dbe 34e0 b03d 03b6 58be
00000050: 5ed5 ff3d 45ef dd3e 4a52 94bd 8ec9 c8be
00000060: 60a3 0c3e 6c51 0fbe 1be1 22be 9471 5abe
00000070: afa1 1b3e 64d2 a4be 1c3c 383e 7133 433e
00000080: 7324 83be 2ae2 853e 1225 15be 1c2b e13c
00000090: 083e 5cbc 85cd 4cbe 24be 19bd 5dc9 763e
000000a0: aa12 b53d 6577 723c 5fdf b73d 078c 8dbe
000000b0: 15ba 87be 92ea b7bd 2d09 953e 64b7 883e
000000c0: f328 82be fd1d 9cbd 8196 6cbb 9b8d 34be
000000d0: aef5 993e 0768 fe3e b15c 14bd 4a92 d7bd
000000e0: a34e 5f3d 8b7a 7cbe 8e25 8abe 803d c3be
000000f0: 9343 de3d 4490 8abb 243e 20be a252 9ebe
00000100: 033a 6c3e 1056 74be f650 bd3c 1e27 d63d
00000110: f097 503e 6cc4 67bd c1b4 8c3d 9226 c33d
00000120: 8317 c0be 243f 50be 1ede 863e 6b18 9c3d
00000130: fa8a b13e 7f19 41bb 7b7a 8d3e ec93 a4be
00000140: 618e a43d bdf9 a7be 9250 5d3e adb4 573e
00000150: 28a4 61bd 1749 a83e 0470 b3be 0a01 a03c
00000160: dcce ae3e db8a a0be 5500 54be 874e 80bd
00000170: cb96 a9be 8d06 41be 4828 a33e 3d16 533d
00000180: 16bb 8e3e 920f 9fbe 67c7 803e 7864 b23d
00000190: f769 003e 97d6 9dbe 067f b4be 35c8 a8be
000001a0: 9965 14be f8d6 0b3e c242 7b3e 8fb2 dbbc
000001b0: a317 c6bc 7952 d33d 5cfe 88be a13c 7fbe
000001c0: a654 69be 932f 133d 5182 4fbe b794 b93e
000001d0: 8fbe bbbe 9b4e b3be 4fe5 0b3e 3252 58be
000001e0: be5a 543c e6e6 9ebe 6d6b edbd ae6e a33e
000001f0: 1efd 983e 6798 9fbe 3afc 323e c293 2d3e
00000200: 8ed4 73be b523 9e3e 1348 94be 4fdc 443e
00000210: e280 8bbe 8d49 a2be 2222 523e 2b3f c03e
00000220: d322 143c bca7 1a3e 1378 bebc 8636 1e3e
00000230: 97f7 c1bc 8eaa 38be 8042 79be b6e8 71be
00000240: 181f ab3e b989 983e b955 07bd d507 583d
00000250: ba89 1c3d d9f1 443e 8c1c b3be 837e acbd
00000260: 88ec 32be 8471 9ebd 5da0 b03e 339b 46be
00000270: 52b9 92bd eb4f 603c 5f3f b23e bbac 79be
00000280: 516c 7f3e 0a32 383e d2a5 63bd 0208 7e3d
00000290: 376f 4e3e e600 873d a0d1 32be f6a9 ae3e
000002a0: 54a1 dbbd 3fc6 513e b14a ddbc 4c93 ca3c
000002b0: 6530 403e aa93 8c3e 88ce b7be 532d 3cbe
000002c0: 6f01 bdbc 64a8 b73e 6209 1a3e 65e6 2c3d
000002d0: d3f2 a23e c520 dd3d 6f06 38be 5022 32bd
000002e0: 2bb3 d13c a54e 68be 67bf 853c f44d 3c3e
000002f0: bdfc 023e cb71 573e d926 6b3e 035b 8e3e
00000300: 67c4 783e 9a0c 8abe 87c2 143e 4065 b33e
00000310: a163 bfbe 318f 8a3e 3bd1 91be 052d b8be
00000320: e69f a93e 73de fe3d 13e2 773e 5b8a 57be
00000330: adef 853e 829e a73d 6f82 b83d a3b9 7dbe
00000340: 17f1 24be 2608 bbbe 630f ff3d 2ddf 3dbe
00000350: e64b 61be 65a0 813e cfc1 953d 1c53 333d
00000360: 5146 aabc b814 a63e 91ef 793e a49d 5bbe
00000370: 1929 20be 8c35 98be 5677 853c 697b 1bbd
00000380: 1497 0fbe 6ba8 833c fde9 f7bc f18e a6be
00000390: 49bb b2bd eec2 643e 8a46 9a3e 5bb7 f0bd
000003a0: 0f04 3ebe 4dff b6be fc79 c73e ae43 babe
000003b0: 3e2b 913e ecd2 6abe fe1a bf3e bff2 a5be
000003c0: 504e 56be 1a18 0abe e669 423e 87b7 893e
000003d0: 1c8d 7fbe 3da1 53be 6fc8 b3be 0389 b23e
000003e0: dc7e 94be 8eb4 e5bd a05d 313e 0cf0 3dbe
000003f0: e586 9e3e 2896 443e 4761 9e3e 9ace 9dbd
0.37112612 -0.26284534 -0.2423142 0.3906927 0.24756171 -0.058408115 -0.27718621 -0.17620482
0.06270018 0.058300667 0.26755488 -0.24907742 -0.3677664 -0.21786119 -0.23394543 0.1540488
0.19569343 -0.1847588 0.08636513 -0.21163182 0.124918684 0.4334661 -0.07242258 -0.39216274
0.13734198 -0.13995904 -0.15906183 -0.21332389 0.15198396 -0.32191765 0.1799168 0.19062592
-0.25613746 0.26149112 -0.14564922 0.027486376 -0.013442524 -0.20000274 -0.037534848 0.24100251
0.088414505 0.014798974 0.089781515 -0.27645895 -0.26509157 -0.089802876 0.29108563 0.26702416
-0.25421867 -0.07622907 -0.003610045 -0.17632143 0.3007025 0.49688742 -0.03622121 -0.10525949
0.054518353 -0.24656121 -0.26981777 -0.38132858 0.108527325 -0.0042286236 -0.15648705 -0.3092242
0.23069005 -0.23860955 0.023109894 0.1045668 0.2037046 -0.056583807 0.068704136 0.09528841
-0.37517938 -0.20336586 0.26341337 0.07621845 0.34676343 -0.002946466 0.27632508 -0.32144105
0.08034969 -0.32807723 0.21612766 0.21065016 -0.055088192 0.32868263 -0.350464 0.019531745
0.34142196 -0.31355938 -0.20703252 -0.06264978 -0.33122858 -0.18850155 0.3186667 0.05153488
0.2787711 -0.31066567 0.25152132 0.08710569 0.12540422 -0.30827782 -0.3525316 -0.32965246
-0.14491881 0.13656223 0.24537185 -0.026818542 -0.024181193 0.10318465 -0.2675656 -0.24925472
-0.22786197 0.035934042 -0.20264556 0.36246273 -0.36668822 -0.3502091 0.13661693 -0.21125105
0.012961088 -0.31035537 -0.115927555 0.3192038 0.29880613 -0.3117096 0.1747903 0.16950896
-0.23811552 0.30886617 -0.28961238 0.19224666 -0.27246767 -0.3169674 0.20520833 0.37548193
0.009041506 0.15103048 -0.023250615 0.15450487 -0.02367763 -0.18033811 -0.24341774 -0.23623928
0.3342216 0.29792574 -0.033040736 0.052741844 0.038217284 0.19232883 -0.34982717 -0.08422568
-0.17473042 -0.07736495 0.34497347 -0.19395141 -0.07164253 0.013690929 0.34813973 -0.24382298
0.24943663 0.17987838 -0.05557806 0.062019356 0.20159613 0.06591968 -0.17462778 0.34114045
-0.1072413 0.20485781 -0.027013155 0.02472844 0.18768461 0.2745641 -0.35899758 -0.18376665
-0.023071973 0.3587066 0.15042642 0.04221191 0.31825885 0.10797266 -0.17971204 -0.043489754
0.02559813 -0.2268625 0.01632662 0.18389112 0.12791725 0.21039502 0.22964038 0.2780381
0.24293672 -0.2696274 0.14527331 0.35038185 -0.37380698 0.2706237 -0.28479943 -0.35971847
0.33129805 0.124447726 0.24207334 -0.21048872 0.2615942 0.0818453 0.09009253 -0.24777846
-0.16107593 -0.36529654 0.12454107 -0.18542166 -0.22001609 0.25317684 0.07312357 0.04378043
-0.020785483 0.32437682 0.24407794 -0.21446854 -0.15640678 -0.29728353 0.016292255 -0.03795949
-0.14022475 0.016071519 -0.030262941 -0.3253093 -0.08727128 0.22339985 0.30131942 -0.11753722
-0.18556236 -0.35741654 0.38960254 -0.3637976 0.28353304 -0.22932023 0.3732528 -0.32411763
-0.20928311 -0.13485757 0.1898571 0.26897833 -0.24956173 -0.20666976 -0.35113856 0.34870157
-0.29003036 -0.11216079 0.17320871 -0.18548602 0.3096229 0.19197905 0.30933592 -0.07705422

encoder_variable_selection.single_variable_grns.time_idx.gate_norm.glu.fc.bias f4 [32]
00000000: 6e0b 97bc c6ab 2cbd 6ef2 793d 5c6e 8ebd
00000010: 36e9 73bc c2b1 71bd 5c2a c53d 5bf7 98b9
00000020: 3645 9e3c 2421 8e3d 7a50 34bd 5c8e f6bc
00000030: cd01 fc3c 6271 773d 6878 6a3c f43f 9ebc
00000040: e0be a2bb 1105 fd3b 97b9 133d 9899 8e3c
00000050: 9069 eebb c9b3 8539 a9f1 273d ec22 a9bc
00000060: a777 07bc 0638 b43c a710 4fbc 831f 923c
00000070: 0a21 c9bb f354 973b 1d12 1cbc 02a5 f8bb
-0.018438067 -0.042156003 0.061022215 -0.06954643 -0.014887145 -0.059007414 0.0962722 -0.00029175993
0.019320112 0.06939915 -0.04402206 -0.03009718 0.030762577 0.060410865 0.014310934 -0.019317605
-0.0049666017 0.007721551 0.036065664 0.017407224 -0.0072757676 0.00025501687 0.04100195 -0.020646535
-0.008268273 0.02199937 -0.012638248 0.017837292 -0.0061379718 0.004618281 -0.009525803 -0.00758803

encoder_variable_selection.single_variable_grns.time_idx.gate_norm.add_norm.norm.weight f4 [16]
00000000: 8f04 643f 2021 813f 2bee 673f 9372 8e3f
00000010: 74ba 683f 67a8 703f d0a7 8a3f f392 733f
00000020: 7590 7e3f f071 863f 5a41 773f 56cf 873f
00000030: 7757 783f 6258 843f ad5d 773f 4112 773f
0.89069456 1.0088234 0.9059779 1.1128715 0.90909505 0.9400696 1.0832462 0.951461
0.99439174 1.0503521 0.96584094 1.0610149 0.9700846 1.0339472 0.9662731 0.9651223

encoder_variable_selection.single_variable_grns.time_idx.gate_norm.add_norm.norm.bias f4 [16]
00000000: cbb7 8ebd 5431 54bd 6082 893d 8445 5fbd
00000010: f44b 57bc 72a7 98bd 688b e13d 7ee8 a73b
00000020: 505d a63c 35d2 473d ac45 89bd 9d56 61bd
00000030: fb4b 193d a0b3 8d3d 8de5 c83c 10ae 98ba
-0.069686495 -0.051804855 0.0671432 -0.054509655 -0.013140667 -0.07453813 0.11012918 0.005124151
0.020308167 0.048784453 -0.06702742 -0.05501424 0.037425976 0.069190264 0.02452352 -0.0011648554

encoder_variable_selection.single_variable_grns.relative_time_idx.resample_norm.mask f4 [16]
00000000: 7b21 0bbd 0d38 e439 7a31 39bc 5dd1 ec3c
00000010: f072 5abc 66de a73c 2331 45bd 7888 273d
00000020: e8d1 633b 6c98 dc3a 972c e3bc 2be2 92bc
00000030: 977d d6bb c527 e9bc 4f34 663c 4b99 f63c
-0.033967476 0.0004352931 -0.0113033 0.028908426 -0.013333067 0.02049179 -0.048142564 0.04090163
0.0034762565 0.0016830093 -0.027731223 -0.01793011 -0.006545733 -0.028461346 0.014050557 0.030102393

encoder_variable_selection.single_variable_grns.relative_time_idx.resample_norm.norm.weight f4 [16]
00000000: 318e 773f 78a2 803f e75b 7e3f ef14 853f
00000010: 3fd2 7c3f 277b 843f 33d5 703f e9ea 863f
00000020: e606 833f 4d71 813f 1643 773f 068b 783f
00000030: 0c66 803f cbea 763f 3abc 823f d1c1 853f
0.9670134 1.0049582 0.9935898 1.0397013 0.9875831 1.0350083 0.94075316 1.0540439
1.023648 1.0112702 0.9658674 0.9708713 1.0031142 0.96452016 1.0213692 1.0449773

encoder_variable_selection.single_variable_grns.relative_time_idx.resample_norm.norm.bias f4 [16]
00000000: 76db c7bc e35f ad3c e06d 9e3b f68c 1ebd
00000010: d6bd f73b 7fea 28bd 596d 553d ed70 61bd
00000020: 7b9c eb3c d9d0 f03b 690a 10bd ffd1 f2bc
00000030: 4a64 c33c b79f 203d 8549 e23c 3856 233d
-0.02439664 0.021163886 0.0048348755 -0.03870865 0.007560472 -0.041239258 0.052106235 -0.055039335
0.02876114 0.0073491153 -0.035166178 -0.02964115 0.023851532 0.039214816 0.027622947 0.039877146

encoder_variable_selection.single_variable_grns.relative_time_idx.fc1.weight f4 [8, 8]
00000000: e9f3 a2be f6f5 9d3e 1ece 353f 5272 403f
00000010: 1d06 c33e 896b 363f dc58 af3d aa47 733f
00000020: 0e02 80bd 7d29 5dbd d740 2e3f 31a1 2abf
00000030: f96d 74bf 4359 2abd eb4a 233f cd91 633f
00000040: 7ead e3be 8818 2fbf 2fd1 0abf a5da e6be
00000050: a307 4d3f 912e 3d3e 283b e93c b3b6 813b
00000060: 92f4 2f3f 539a c3bd b34c 7b39 a34f dc3e
00000070: f5de 0abf 4361 bbbe 662b 51bf 6be8 00bf
00000080: 69c5 113f ff5b 2a3e bdfd e83e 19c9 85bf
00000090: c7a6 353e dc49 3c3e 5136 a23e 755f 653f
000000a0: d397 92bf 4390 0fbf 2775 d0be d968 cf3e
000000b0: 4f7c 3c3e ebe4 6cbe c3a9 a53e cac3 a63e
000000c0: 6091 203f dd81 02bf 6b8f 93be 5cd4 e6be
000000d0: 684c acbe 2484 3d3f d8d9 94be 15f0 eb3e
000000e0: 21f1 3ebe b4f1 fa3d 6452 5fbf 415c a7be
000000f0: 4a7c 83be 0a30 8dbf 2dc1 57be 4955 2b3f
-0.31826714 0.30851716 0.71017635 0.7517444 0.38090602 0.71257836 0.085618705 0.95031226
-0.06250392 -0.053994644 0.6806769 -0.6665221 -0.95480305 -0.041589033 0.6378619 0.8889435
-0.44468302 -0.68396807 -0.5422544 -0.45088688 0.8008978 0.18474795 0.02847059 0.003958547
0.6873256 -0.095509194 0.00023965798 0.43029508 -0.54246455 -0.36597642 -0.81706846 -0.5035464
0.5694185 0.16636656 0.45506087 -1.0451995 0.17739402 0.1838755 0.31682065 0.8959878
-1.1452583 -0.560795 -0.4071438 0.4050968 0.18406795 -0.231342 0.3235608 0.3257125
0.62721825 -0.50979406 -0.28820357 -0.45083892 -0.33652043 0.74029756 -0.29072452 0.46081606
-0.18646671 0.122531325 -0.87235093 -0.32687572 -0.25680763 -1.1030285 -0.21069784 0.6692701

encoder_variable_selection.single_variable_grns.relative_time_idx.fc1.bias f4 [8]
00000000: 5d38 83bc 212b ecbc dba2 a9bd 4400 36bd
00000010: 0f4f 343c b850 ad3c 92bb b23c 98e8 42bd
-0.016018087 -0.02882916 -0.08283015 -0.044433847 0.011005177 0.021156654 0.021817956 -0.0475851

encoder_variable_selection.single_variable_grns.relative_time_idx.fc2.weight f4 [8, 8]
00000000: 1f71 50bf 0e9c b1bc 3e14 3a3f 4b4e a3be
00000010: e1c5 613e 49f2 633e 5273 19bf c828 703f
00000020: 98bc 29be 9e72 8e3e e1fb 96be 4720 483f
00000030: 099c 38bf 0987 cebe 5129 503f 81c9 ecbd
00000040: 19cf b3bc f1fb 2b3f 839b 833e 3a5d 23bf
00000050: 10d7 6b3e 14be f1bd 759e 4b3f c2ea 583f
00000060: 56fd 2bbf 8695 113f d9fe 02bf 2c08 33be
00000070: fcd3 723f 784e a53e 460d c8be 30b5 0cbe
00000080: 9085 8b3e 315e d9bd c34a 6abc cf85 2bbf
00000090: ee81 a93e 2af6 193f 0033 adbd baf6 00bf
000000a0: 875a 72be 7af1 16bf 7f8a 41bf ac05 45bf
000000b0: 95cf debc 3e20 05be 14a8 af3f 8605 c3be
000000c0: 68aa 013f bd38 c73d 319e 173f 8cc8 5e3e
000000d0: cde4 3e3f 53a7 1ebd 0826 1dbd 3108 7d3e
000000e0: 9a2b a23e 6e4d e8be 4e32 053d 7c74 f8be
000000f0: 450e f63e 3786 35bf 0d02 37bf 9a2e 7f3e
-0.8142261 -0.021680858 0.7268714 -0.3189567 0.22048141 0.22260393 -0.5994159 0.9381223
-0.16575849 0.2782182 -0.29489043 0.7817425 -0.7211309 -0.403374 0.81313044 -0.11561871
-0.021949338 0.6718131 0.25704584 -0.6381413 0.23031259 -0.11803833 0.7953866 0.8473321
-0.67183435 0.5686878 -0.51170117 -0.17483586 0.9485471 0.3228643 -0.39072627 -0.13740993
0.27250338 -0.10613669 -0.014300051 -0.6700105 0.3310694 0.6014124 -0.08456993 -0.50376475
-0.23667346 -0.58962214 -0.75601953 -0.7696178 -0.027198592 -0.1300058 1.3723168 -0.38090152
0.50650644 0.09727619 0.59225756 0.2175619 0.7456787 -0.03873379 -0.038366348 0.24710156
0.3167389 -0.45371574 0.032518677 -0.4852637 0.48057762 -0.7090792 -0.71487504 0.24920121

encoder_variable_selection.single_variable_grns.relative_time_idx.fc2.bias f4 [8]
00000000: adfa 773b a5b1 a5bc 696c a6bc 3a8b 623c
00000010: d596 7a3c 5eba 583d c92c b9bc 33a2 0c3c
0.0037838623 -0.02022631 -0.020315366 0.0138271395 0.01529475 0.05291211 -0.022604363 0.008583593
