ml/best_model/version_62/checkpoints/epoch=19-step=1000.ckpt (torch, 672033 bytes, 1002 tensors)

input_embeddings.embeddings.TEAM_ID.weight f4 [30, 11]
000000 9b b3 8a 3e 44 c5 2e be bc c3 a5 bf 84 10 95 bf
       0.27090153 -0.17067438 -1.2950358 -1.1645665
000010 38 4a c7 be 1f 88 d8 bf af f8 ad 3e a1 a6 bc 3d
       -0.38923812 -1.6916541 0.33978793 0.092114694
000020 48 2f ae bf ee 39 8b 3d ad 0b ed 3e 6b f5 22 3f
       -1.3608179 0.067981586 0.4629797 0.6365573
000030 db 50 34 bd 6e b3 d2 3f 32 f8 c4 3e 76 0c 0a bf
       -0.044022422 1.6461008 0.38470608 -0.53925264
000040 a3 62 93 be 80 6a 2e bf d2 8e 02 c0 4d fb 99 bd
       -0.2878619 -0.68131256 -2.039967 -0.07518635
000050 29 c7 21 bf 33 11 38 3e 3e e5 e1 3f 8f a5 67 bf
       -0.6319452 0.17975311 1.7648084 -0.90487
000060 a8 75 b3 bf 44 0d 9d 3f b6 00 39 bf 4c fb d7 bf
       -1.4020281 1.2269673 -0.7226671 -1.6873565
000070 9f 82 2c 3f 22 ba b8 3e 2c 98 dc 3e 1b ca dd bf
       0.6738681 0.36079508 0.43084848 -1.7327303
000080 3d dc bf bf e4 4b 6f 3f 18 76 82 3e 91 7d eb bf
       -1.4989086 0.93475175 0.25480723 -1.8397695
000090 be 88 0e c0 14 a2 08 bf 10 fc b1 3e 77 8e 5c be
       -2.227096 -0.5337231 0.3476262 -0.21538721
0000a0 b4 c5 83 3f e0 ce 7b bf 25 88 31 3f ea 06 83 bf
       1.0294709 -0.9836254 0.69348365 -1.0236485
0000b0 b5 4c c6 3e 7f 0b 05 be 1e df 07 bd 51 d5 06 bf
       0.38730398 -0.12992667 -0.033171766 -0.52669245
0000c0 3f 05 92 be 09 49 31 40 01 ea 14 be 44 44 32 3f
       -0.28519627 2.7700827 -0.1454239 0.69635415
0000d0 51 c7 19 bf c2 2b 2d bd 5f 0c d7 bd c0 d7 65 3e
       -0.6006976 -0.04227806 -0.105004065 0.22445583
0000e0 ce 41 9d bf ab 1a f8 3e 53 7b fa 3e fb 3e dc bf
       -1.2285707 0.48457846 0.48922214 -1.720672
0000f0 83 cd c5 3f 63 21 ea 3f 38 c3 51 3f 60 1a 54 3e
       1.5453342 1.8291439 0.81938505 0.20713186
000100 fd 51 0e bf 20 c6 77 3e 2d 91 d3 3e be 7b db 3f
       -0.55593854 0.24196672 0.41321698 1.7147138
000110 8e 30 af bf 4e d2 be bf d5 82 3f c0 b9 19 6f bf
       -1.3686693 -1.490793 -2.9923604 -0.93398625
000120 04 62 fa 3a 6f 3b ed 3e fc 9a 32 3e a2 1b fb bd
       0.0019102697 0.46334407 0.17441934 -0.1226113
000130 37 27 5b bf db d2 6a bf e1 80 c1 3f e5 d3 3d bf
       -0.8560671 -0.9172799 1.5117456 -0.7415145
000140 39 96 16 c0 d6 35 18 bf 13 a4 57 3f 64 8c 90 bf
       -2.3529189 -0.5945715 0.8423473 -1.1292844
000150 be d8 2f c0 57 f9 91 bf 27 fe ad 3f 6e 24 a8 3e
       -2.747604 -1.1404217 1.3593186 0.32840294
000160 3c 89 11 3e 77 2c a1 bf 61 ba ba bf 9e 88 d8 3f
       0.14212507 -1.2591695 -1.4588128 1.6916692
000170 63 2b eb be 74 7c bd 3f d3 f7 dc bc fc 03 94 3e
       -0.4593154 1.4803605 -0.02697364 0.2890929
000180 4e ab e1 be ea c2 cb 3d 79 3c 7d 3c dd 3b 97 3f
       -0.44076008 0.09949286 0.015456312 1.1815144
000190 d0 7b 85 bf 6a 66 c0 bf 37 33 fc 3e 22 a3 54 3f
       -1.042841 -1.5031254 0.49257824 0.8306142
0001a0 4f 3a e3 bf a7 9e 60 3e 1d 2c d7 be 6c ea 6f bf
       -1.7752169 0.21935521 -0.42025843 -0.93717074
0001b0 5a 1e 2e bf 0f 0c ea 3f 26 59 e0 3f 44 cc 9e bf
       -0.6801506 1.828493 1.7527206 -1.2406087
0001c0 6b 88 2c bf 2f 0d b5 be a5 ee bc 3f 39 c0 99 3c
       -0.6739566 -0.3536162 1.4760329 0.018768417
0001d0 0a 56 a2 3e 6a 2a 6d bf af 64 99 3f 21 d5 1b c0
       0.31706268 -0.92642844 1.1983851 -2.4348834
0001e0 82 e2 1f 3f 50 2c bd 3f 56 a7 c9 bf c9 2c f4 bd
       0.62455 1.4779148 -1.5754192 -0.119226046
0001f0 2a 58 45 bf 6f c7 4e 3f b1 f6 e1 bd c7 d8 35 3f
       -0.7708765 0.8077306 -0.11033381 0.710339
000200 ad 1f 83 3f 44 e2 41 3d 43 ef 63 3f ee 36 29 3f
       1.0244042 0.047334924 0.8903696 0.6609944
000210 70 29 c6 be 27 02 a6 3f 0d 68 67 3f d3 8d ad 3e
       -0.3870349 1.2969407 0.90393144 0.33897266
000220 9d 5d a6 bd ec 65 62 bf da fb 12 be 1f b8 52 bf
       -0.08123324 -0.8843677 -0.14353886 -0.82312196
000230 57 21 80 bf f1 3a f1 be 6e bf 93 3f a6 d5 1e 40
       -1.0010175 -0.4711528 1.1542795 2.48179
000240 3c c0 01 c0 84 96 da be 33 61 93 3e 4d 5a 51 3f
       -2.027358 -0.4269296 0.28785095 0.81778413
000250 a5 ef a6 bf 1b 11 e0 be df 0d cc bf d0 12 14 bf
       -1.3041884 -0.4376305 -1.5941733 -0.57841206
000260 b1 87 fc 3d e6 e7 4e 3e 67 39 09 3f db 75 9d bd
       0.123305686 0.2020565 0.53603214 -0.07688495
000270 a0 9d 98 bd ef 8b c4 bd ec 20 00 40 c7 1a 0e 3e
       -0.074519396 -0.09597003 2.0020094 0.13877402
000280 7a 72 04 3d 0e cc 92 3f c0 f6 03 c0 3e 0e ae 3f
       0.032335736 1.1468523 -2.0619354 1.3598096
000290 78 9c bc 3e 31 e4 6a be 07 9a d3 3d 6a aa 89 3f
       0.36838126 -0.2293861 0.10332113 1.0755131
0002a0 eb a5 84 3f 18 b3 9d be b6 01 a9 3f bb 6c d0 be
       1.0363134 -0.308007 1.3203647 -0.40707955
0002b0 03 84 89 be 7d c6 07 c0 0a 3b 1b be 3f b2 c5 be
       -0.2685853 -2.1214898 -0.1515924 -0.38612553
0002c0 87 1d fa 3e ce 01 77 3f 28 39 6f 3e 97 be b2 bf
       0.48850653 0.9648713 0.23361647 -1.3964413
0002d0 7a 9e 05 3f a3 1b 09 3f 9b 31 16 bf 60 40 56 3f
       0.5219494 0.53557795 -0.5866944 0.8369198
0002e0 bc 1d 60 bf 20 50 03 3e b6 52 25 bf d3 d8 86 bd
       -0.8754537 0.12823534 -0.6457933 -0.06584325
0002f0 f1 0a 5c 3f df 63 86 3f 2c f9 e1 bc 36 20 88 bf
       0.85954195 1.0499228 -0.027584635 -1.063483
000300 87 54 60 3f 0c 57 b0 bd f6 a4 5e 3f b9 15 1a bf
       0.8762898 -0.08610353 0.8697046 -0.60189396
000310 e2 3b 9b be 36 81 07 be 90 94 b2 bf e9 c7 1f 40
       -0.30319124 -0.13232884 -1.3951588 2.4965765
000320 84 d4 97 bf e6 ae 58 bf db bd 8a bf 95 36 07 3f
       -1.186173 -0.84641874 -1.0839189 0.5281766
000330 3f f0 23 be 29 b4 aa be fb 0f f2 3e 1d f7 dc 3f
       -0.16009615 -0.33340576 0.47277817 1.7262913
000340 c3 30 b2 be 6e 03 fe 3e 1d cd 05 40 33 a9 d8 3e
       -0.34802827 0.49611992 2.0906441 0.4231659
000350 c9 01 85 bf 3b ac d4 3e 06 a1 38 3f db e6 aa be
       -1.039117 0.4153765 0.721207 -0.33379254
000360 ed 30 d9 bf 8e 81 92 3f ed 3e ca be 75 6d b9 be
       -1.6968056 1.1445787 -0.39501134 -0.36216322
000370 fe 7b c5 bf 15 e8 29 bf ab 26 3f 3f 6e 2e 37 3f
       -1.5428464 -0.66369754 0.7466838 0.7155522
000380 04 35 05 c0 ba 70 50 bf f3 95 67 3f e9 d9 b6 be
       -2.0813608 -0.8142201 0.9046318 -0.35713127
000390 35 f4 45 3e 61 26 44 bf 4e 8d a6 bf 01 40 cd be
       0.19331439 -0.7662106 -1.3011873 -0.40087894
0003a0 a6 f2 18 bf d7 07 0e be 82 b5 16 c0 73 1a 88 3e
       -0.5974525 -0.13870178 -2.3548284 0.2658268
0003b0 1d 70 ac bf 28 f1 c6 3b fd fc 1f 3f b6 e0 19 3f
       -1.3471714 0.0060712285 0.62495404 0.60108507
0003c0 61 ad fb be f6 bb 3a bf d4 7b d4 3e 29 b6 13 bf
       -0.49155715 -0.72943056 0.41500723 -0.5769983
0003d0 92 62 66 bf d8 c6 50 3e 78 1f 66 3f f2 4c 0d 3f
       -0.89994156 0.20388353 0.8989177 0.55195534
0003e0 8d 03 7e bf ea ab 02 bf 2e 23 c1 3f a1 1e e4 3e
       -0.9922417 -0.5104357 1.5088861 0.44554618
0003f0 6e ed 07 3f b8 c5 80 3f 3e b7 04 3f 07 ac ce 3f
       0.53096664 1.0060339 0.51842105 1.6146249

input_embeddings.embeddings.OPPONENT_ID.weight f4 [30, 11]
000000 fc 8e 9b 3f 61 c7 ff 3e de 52 2a c0 35 10 77 bf
       1.215301 0.49956802 -2.6613078 -0.96509105
000010 d4 2d 52 3f 1d f5 a2 be a6 3a 90 bf 7c e5 ff be
       0.8210118 -0.31827632 -1.1267898 -0.4997977
000020 c2 87 bf bf 23 3a 29 bf 4e 17 00 c0 1b e6 0d 3f
       -1.4963305 -0.66104335 -2.0014224 0.5542924
000030 1d b4 b9 3e e0 f2 7b bf fe 05 be 3f ef 58 b0 bf
       0.36270228 -0.9841747 1.4845579 -1.377714
000040 99 41 8b bf d3 28 e8 3f ae 03 0e 3f a9 7b 1b 3f
       -1.0879394 1.8137459 0.55474365 0.60735565
000050 fd 8d 5d 3d b1 fd 6f 3f 87 0c e3 bf 82 d8 9f bf
       0.05409049 0.9374648 -1.7738198 -1.2487948
000060 89 4c 09 3f eb ff 2d 40 fd c8 7f 3f 42 99 81 bf
       0.5363241 2.718745 0.9991606 -1.0124896
000070 27 7e 3f 3f bf 45 03 3f 60 04 ca 3e 32 69 c3 3f
       0.7480187 0.512783 0.39456463 1.5266478
000080 74 f5 eb 3f 2f 65 ec 3e 3f 56 9e bf c2 16 a1 3e
       1.8434281 0.46170947 -1.237007 0.31462675
000090 5f 82 af 3e d7 5c b2 3f 37 f8 14 bf 4f 51 98 3f
       0.34279153 1.3934582 -0.58191246 1.1899813
0000a0 43 0f f0 bf ab f0 c5 3e 3b a2 9b be 1f 19 80 bf
       -1.8754658 0.38660178 -0.3039721 -1.0007666
0000b0 91 24 14 40 83 09 c9 3f b8 70 06 3f 54 e3 bd 3e
       2.3147318 1.5706028 0.52515745 0.370875
0000c0 38 90 48 bf 0b 1e 09 3f 79 03 bf 3f c5 45 a9 3e
       -0.7834506 0.53561467 1.4922935 0.33061042
0000d0 f7 66 5d be 50 a4 9b bf e5 b1 97 be 21 96 45 3f
       -0.21621309 -1.2159519 -0.2962791 0.77182204
0000e0 84 c2 40 bf 87 d3 96 3f 52 a6 04 3e 70 95 06 c0
       -0.7529681 1.1783303 0.12954071 -2.102871
0000f0 3a 23 16 3f 42 be 48 bf 12 f6 ae bf 8b a7 29 be
       0.586475 -0.7841531 -1.3668845 -0.16567819
000100 5b 08 ce 3f d2 33 94 bf 2b 58 e9 bf d9 53 84 bf
       1.60963 -1.1578314 -1.8230032 -1.0338088
000110 d7 04 d1 bd 83 d6 86 3e e1 70 33 3f cb 36 37 bf
       -0.10206001 0.26335534 0.70094115 -0.7156798
000120 15 74 72 3e 70 ab ca 3e 9c 8b ef bf cb 36 81 3f
       0.23677094 0.3958392 -1.871448 1.0094846
000130 22 f0 4e be db ac 6f 3e e2 a6 8e 3f b9 ed b7 3e
       -0.20208791 0.23405783 1.1144679 0.35923555
000140 17 0e 77 bf fe 46 e5 bb 3c bb f9 3e 2b c1 b3 3f
       -0.96505874 -0.0069969883 0.4877566 1.4043325
000150 f5 0d c6 3f 8c 50 0c bf 68 a0 0f 3f a0 b6 14 3e
       1.5473009 -0.54810405 0.56104136 0.14522791
000160 05 77 fb 3d 2e 4b a2 3f 48 05 2b 40 15 a2 cd 3f
       0.122785605 1.2679193 2.6721973 1.6065089
000170 90 e8 2d 3f 60 12 1f 3e 7d 3a 36 3f 82 e0 9d bf
       0.6793299 0.15534353 0.71182996 -1.2334139
000180 08 fa 44 3f 2d b3 1d 40 d9 14 ae 3d a2 38 3e 3f
       0.7694402 2.464061 0.0850007 0.74305165
000190 c5 01 7c bf 69 09 35 be 33 b0 be 3e b3 df c3 3e
       -0.984402 -0.17679371 0.37243804 0.38256606
0001a0 46 7e 44 3f 68 8b 7d 3f 4d 95 ce bf b5 29 d6 bf
       0.7675518 0.9904084 -1.6139313 -1.6731478
0001b0 6d 85 1e 3f f2 14 00 bf 34 ae 98 3f b8 d0 45 bc
       0.6192234 -0.5003196 1.1928163 -0.012073688
0001c0 c0 2f 8c bf c1 2b 8d bf b6 4d c1 3f 10 f3 6b 3f
       -1.0952072 -1.1028978 1.510184 0.9216776
0001d0 9b 3f ee 3e a3 85 db 3f 46 f0 33 bf cd 8c d3 bf
       0.46532902 1.7150158 -0.70288503 -1.6527344
0001e0 f3 c6 95 bd 95 9f 6e 3f 27 1d d6 3d 72 89 55 bd
       -0.07313337 0.9321225 0.10454779 -0.05213303
0001f0 ac ce ca 3d 02 65 e3 bf 37 21 47 3f 12 61 9d 3f
       0.09902701 -1.77652 0.77785057 1.2295249
000200 be 7d e7 bf 36 a7 ae bd dc 49 f9 3e 0f e6 c9 bf
       -1.8085248 -0.08527987 0.48689163 -1.5773333
000210 60 40 80 be 48 42 02 40 5e a9 3f 3f b9 59 a5 3f
       -0.25049114 2.0352955 0.7486781 1.2918006
000220 60 23 2d 3f ae 5f e4 bd 8f 50 dd 3e fb bd 48 3f
       0.676321 -0.11151062 0.43225524 0.7841489
000230 a6 0c 32 bf 4d 17 21 bf 50 a2 9a bf 82 b3 22 3f
       -0.6955055 -0.6292618 -1.2080784 0.6355516
000240 2a 89 c7 3e f1 4f ca be 43 e5 30 be 85 61 62 3f
       0.38971835 -0.39514115 -0.17274956 0.88430053
000250 96 44 51 3f 7a 4c 5f 3d ad d7 1c bf b3 8d 8b bf
       0.8174528 0.054516293 -0.61266595 -1.0902618
000260 1d 0f 12 3d d0 9c 06 3e 8b 87 27 3e de 72 3a c0
       0.035658944 0.13145757 0.163603 -2.913261
000270 70 ae 79 bf f5 ec b8 3f 72 41 e7 be bc 24 0a 3f
       -0.97531796 1.4447314 -0.45167118 0.539623
000280 b0 f0 12 c0 04 66 0f bf 52 14 59 bf 04 d2 21 bf
       -2.2959404 -0.5601504 -0.8479663 -0.63211083
000290 aa ca a2 3e c6 e3 8a 3f de 8b 3d bf ae 79 87 3f
       0.31795245 1.0850761 -0.74041545 1.0584009
0002a0 ca c5 45 bf b9 78 ad bf 50 7f dc 3e 4f 02 8f 3f
       -0.7725493 -1.3552467 0.43065882 1.117258
0002b0 85 4a 23 3f d5 1e 72 bd df bd 24 3d 60 5b a3 3e
       0.6378558 -0.059111435 0.040220138 0.3190565
0002c0 43 07 e5 be 63 92 cb bf c4 97 07 3e c3 42 bd bf
       -0.44732103 -1.5904049 0.13241488 -1.4785999
0002d0 78 ff 0d 3f 18 8c 25 3f 04 7d 98 bf 4e 65 06 3e
       0.5546794 0.6466689 -1.1913152 0.13124582
0002e0 1d 52 d4 3f 39 df 43 be 41 f8 16 3f c9 5b c4 be
       1.6587559 -0.19128121 0.58972555 -0.38351277
0002f0 40 23 9d be 15 07 36 be 17 d2 a2 3f 58 2f 93 bf
       -0.30690956 -0.17776139 1.2720364 -1.1498823
000300 e9 02 db 3f 35 56 8b 3d 37 4f b1 3f 2f 2b 90 bd
       1.7110263 0.06803552 1.38523 -0.070394866
000310 d3 48 86 bf 99 10 bd bf bd 37 ad 3e 54 4a 87 3e
       -1.0490974 -1.477069 0.33831587 0.26423895
000320 f4 c1 1a 40 08 cc 4f c0 ca 88 c4 3e 56 cc a6 3f
       2.418088 -3.246828 0.38385612 1.3031108
000330 1e f2 a0 3f b7 c9 0a c0 35 ea 25 be 50 07 49 be
       1.2573888 -2.1685617 -0.16202624 -0.19631696
000340 da d1 d9 3f 04 e1 a7 3f 66 18 90 bf 72 1e b0 bf
       1.7017167 1.3115544 -1.1257446 -1.3759291
000350 e3 e9 a3 3f ce 8e e4 3f 81 61 43 bf 20 86 64 3c
       1.2805752 1.785608 -0.76320654 0.0139479935
000360 2a 08 a6 3f e6 9e b5 bf 36 ab 04 c0 1a 03 cb 3e
       1.2971241 -1.4189117 -2.07295 0.39650804
000370 4e d6 b0 3e e1 ff d4 3e 66 25 eb 3e 50 7c 84 3f
       0.34538502 0.4160147 0.4592697 1.0350437
000380 25 12 b6 3f f0 6f 11 c0 06 72 c1 bd 7e 03 e1 3e
       1.4224287 -2.2724571 -0.09445576 0.43947977
000390 7e f3 87 3e 6f ce e3 bf 12 b9 91 3f 6f 88 09 3e
       0.26552957 -1.7797374 1.1384604 0.13430952
0003a0 b3 18 02 be be 6f 7f 3f df cd 8b bf ae d4 ba bf
       -0.12704735 0.9977988 -1.0922202 -1.4596155
0003b0 8b 1a f6 3f a4 2b fd be 49 55 04 bf bd 32 c1 bf
       1.922685 -0.49447358 -0.51692635 -1.5093609
0003c0 5f 80 be bf d9 f7 a1 3e 48 8e 6d bf e0 d1 00 c0
       -1.4882926 0.31634405 -0.9279523 -2.0128098
0003d0 e0 5a df bf 18 64 f2 bf 84 26 ef 3f 38 18 0c bd
       -1.7449608 -1.8936796 1.8683629 -0.034202784
0003e0 1c a0 95 3f 63 89 e8 bf 48 68 87 bf 6b 34 88 bf
       1.1689487 -1.8166927 -1.0578699 -1.0640997
0003f0 09 68 54 3f c7 6d a1 3f d1 f2 e3 3c 25 7f 93 be
       0.82971245 1.2611626 0.027825745 -0.2880794

input_embeddings.embeddings.day_of_week.weight f4 [7, 5]
000000 a2 c3 8c 3f 0c 53 91 bf a9 87 cd 3f c3 b5 82 bf
       1.0997202 -1.1353469 1.6057025 -1.0211719
000010 c7 70 30 3f 7b d2 a6 3f 66 e7 17 bf 8e 87 19 bf
       0.68922085 1.3032984 -0.5933746 -0.59972465
000020 1d d1 0a c0 87 15 07 3f de 2b 27 bf fe d7 05 bf
       -2.1690133 0.52767223 -0.6530131 -0.522827
000030 59 81 ad bf 23 1b 68 3f 58 a3 95 be d2 2e c1 be
       -1.3555099 0.9066641 -0.29226184 -0.37731034
000040 cb 0e 43 be a9 cd 35 3f 90 dc 0b 3f 3e a4 0c bf
       -0.19048612 0.7101694 0.54633427 -0.54938114
000050 ac a1 b9 3f 3f d4 ea 3e d6 4d 5d 3f bf 01 df be
       1.4502463 0.45865056 0.86446893 -0.4355602
000060 47 fa 90 3e 4e e7 43 3e 13 f2 6c bf 9f 15 55 be
       0.28315946 0.19131204 -0.92556876 -0.20809029
000070 dc d1 d6 3f 1d 4f 3a 3e b3 c0 51 3f f5 7b 42 bf
       1.6782794 0.18194242 0.8193466 -0.75970393
000080 45 ff 5e 3f 0c de 28 3f 70 2f 58 bf
       0.8710826 0.65963817 -0.84447384

input_embeddings.embeddings.WL.weight f4 [2, 1]
000000 e9 01 e9 3c 69 4d de bf
       0.028443294 -1.7367374

prescalers.encoder_length.weight f4 [8, 1]
000000 40 24 34 bd c0 0c df bd 6c 37 42 bf 5c fa 10 3f
       -0.043979883 -0.10891104 -0.7586582 0.5663202
000010 5c f6 bc 3e 40 2f 40 3f 34 02 d9 be 7c 80 36 bf
       0.36906707 0.750721 -0.42384493 -0.712898

prescalers.encoder_length.bias f4 [8]
000000 de 72 b3 be 3f 59 92 bf a0 c3 c6 3e de 4e 6d 3d
       -0.35048574 -1.1433486 0.38821125 0.05793654
000010 65 26 78 bf c7 95 f2 3e fc 2c 06 bf c8 06 8d be
       -0.96933585 0.47379896 -0.5241239 -0.27544236

prescalers.time_idx.weight f4 [8, 1]
000000 f4 47 0d bf 92 78 10 3f d2 df 6f bf 2c 59 87 3e
       -0.55187917 0.56433976 -0.937009 0.2643522
000010 f0 37 4f 3e 4e 66 7c bf 58 e7 7c bf 40 43 e3 bc
       0.20236182 -0.98593605 -0.987905 -0.027742028

prescalers.time_idx.bias f4 [8]
000000 0a 52 46 3f 2c 0e 93 3d 3f 27 d6 3d 95 3a 48 3f
       0.7746893 0.071804374 0.10456704 0.7821439
000010 2f 62 34 bf 72 cf ee be 33 c2 53 bf 78 62 d8 be
       -0.70462316 -0.46642643 -0.827182 -0.42262626

prescalers.opponent_WL_rolling_avg.weight f4 [8, 1]
000000 d0 82 48 bf 00 63 12 bd 10 63 7b 3f 98 a0 99 be
       -0.78324604 -0.035738945 0.9819803 -0.30005336
000010 f4 be ff 3e 30 5f e9 3e 24 43 0e bf 94 50 3a bf
       0.49950373 0.45580435 -0.555712 -0.727792

prescalers.opponent_WL_rolling_avg.bias f4 [8]
000000 d4 09 dc 3e ab e8 d5 3e 4b e0 05 3f e8 50 c3 3e
       0.42976248 0.41779074 0.5229537 0.38147664
000010 9d af 1f bf f8 61 38 3f e1 54 34 bf 6d b8 31 3f
       -0.6237734 0.7202449 -0.70442015 0.69422036

prescalers.year.weight f4 [8, 1]
000000 f8 1a 94 be f8 a1 25 3f 66 09 6b bf 78 26 6f be
       -0.28926826 0.6470027 -0.91811216 -0.23354518
000010 a2 97 79 3f 20 b8 b1 be fc 4e df be b0 b0 7f be
       0.97497 -0.3471079 -0.43614948 -0.24969745

prescalers.year.bias f4 [8]
000000 27 c7 31 3d f8 a5 b9 bd 42 4b e2 3e 0e 21 92 bf
       0.043402817 -0.09064859 0.44198042 -1.1416337
000010 3e 22 d0 3d 67 f5 90 3e e2 6d d5 bc cd da 80 bf
       0.10162781 0.28312227 -0.026053373 -1.0066773

prescalers.relative_time_idx.weight f4 [8, 1]
000000 60 51 01 bd 68 b2 2e be a0 60 57 be ae c0 4b 3f
       -0.031571746 -0.17060244 -0.21032953 0.7959088
000010 da a3 52 3f 68 b5 70 bf 88 d2 8a be 7c ce dc 3e
       0.8228127 -0.94026804 -0.27113748 0.43126285

prescalers.relative_time_idx.bias f4 [8]
000000 d5 ae 90 bc aa c5 67 be 01 70 41 bf 37 dc ff 3e
       -0.017661491 -0.22633997 -0.7556153 0.49972698
000010 39 35 fe 3e 5b e9 92 3e b2 42 b4 be 15 66 c1 3e
       0.4964998 0.2869366 -0.35207134 0.37773195

static_variable_selection.flattened_grn.resample_norm.mask f4 [3]
000000 c6 0d 8c be eb 54 85 be 76 7b d8 3e
       -0.27354258 -0.2604135 0.42281693

static_variable_selection.flattened_grn.resample_norm.norm.weight f4 [3]
000000 52 86 95 3f cc cd a7 3f b7 c5 da 3f
       1.1681616 1.3109679 1.7091588

static_variable_selection.flattened_grn.resample_norm.norm.bias f4 [3]
000000 60 c7 08 3e ad 6f 0d 3d 2b 3c fc bd
       0.13357306 0.03453033 -0.12316164

static_variable_selection.flattened_grn.fc1.weight f4 [3, 30]
000000 3b a6 00 bf e1 63 43 be 98 0a a9 be 18 de a9 be
       -0.5025365 -0.1908107 -0.33015895 -0.33177257
000010 e5 e6 75 bd bd 6b 6f 3f 48 d3 22 be 69 45 e9 be
       -0.06003465 0.9352377 -0.1590091 -0.45560768
000020 0b 85 06 bf a2 20 6a 3e 14 38 b9 3d 68 29 13 bf
       -0.5254676 0.22864011 0.09043899 -0.57485056
000030 da e9 74 bf 26 c9 43 3f 3d f1 8d 3e d8 1b 7b be
       -0.9566933 0.76478803 0.27723113 -0.2452234
000040 29 b9 b5 3d 3d 9e d2 be ec 0e 0b be 26 af a6 bc
       0.08873207 -0.4113635 -0.13579911 -0.02034719
000050 4d 77 23 ba 96 37 27 3f 8f 79 27 3e 1b 27 b4 3e
       -0.0006235734 0.6531919 0.16354965 0.35186085
000060 da 73 f9 3e d2 76 91 3b f1 12 b2 3e 8b 70 60 bf
       0.487212 0.0044392133 0.34780076 -0.87671727
000070 5d b4 e2 3e ca 39 62 3e db ce 13 3f aa 5b 63 be
       0.4427823 0.22092357 0.5773751 -0.22202936
000080 9c cc 16 be 25 4e 43 be 44 ca e3 bd b4 e9 e9 bc
       -0.1472649 -0.19072779 -0.111225635 -0.028553821
000090 3a a1 10 bd f1 10 c9 be 66 f7 fc 3e d8 79 07 bd
       -0.035310008 -0.39270738 0.494075 -0.033075184
0000a0 76 fe 1b 3e 33 34 12 3f 92 45 3c 3f 8b 22 a7 be
       0.15233788 0.571109 0.73543656 -0.32643542
0000b0 a7 0d 24 bf 8f dd 44 3d 86 84 78 3f 35 8a 85 3e
       -0.6408333 0.048062857 0.97077215 0.26082006
0000c0 61 0c 8e bd 32 32 49 3c ef cf 30 be f2 dc 23 bf
       -0.06935955 0.012280034 -0.1726682 -0.6400901
0000d0 48 59 1d 3e fb 36 56 be fc f8 53 be dc c7 9f 3e
       0.1536609 -0.20919411 -0.20700449 0.31207168
0000e0 df 19 4f be 60 81 c5 3d fc ee a7 3c 2e 02 e2 3e
       -0.20224713 0.09643817 0.020499699 0.44142288
0000f0 16 57 13 3f 04 9c 1a 3f eb 40 cd 3e d8 7b 14 3c
       0.5755476 0.6039431 0.4008859 0.00906273
000100 58 77 15 3d 2c 8c 6c 3e 98 d9 ab 3d 0d 9a 89 be
       0.03649077 0.23100346 0.08391112 -0.26875344
000110 0d 57 1e 3e 81 b3 23 3d a9 ac e0 3c a2 09 ba 3e
       0.15462895 0.03996611 0.02742608 0.36335474
000120 7c 10 0a 3e f2 0a b5 be 16 7d 06 3f 75 2b df 3e
       0.13482851 -0.35359913 0.52534616 0.43587843
000130 cd b7 b9 be 56 ec ae be 1d 67 c9 be 92 46 d6 be
       -0.3627304 -0.34164685 -0.39336482 -0.41850716
000140 dd d0 41 3e 50 d4 9d be b6 d8 e9 bd 34 e5 d5 bd
       0.18927331 -0.30826044 -0.114182875 -0.10444108
000150 5f 0f ae 3e ce e5 a7 be b9 84 8c 3d 11 28 05 3c
       0.33996102 -0.32792515 0.06861252 0.008127228
000160 bb 1b f5 3c 8a 4b d1 be
       0.02992045 -0.40877944

static_variable_selection.flattened_grn.fc1.bias f4 [3]
000000 2b c2 a0 be c2 6d 20 3e 57 1d 06 bd
       -0.31398138 0.1566687 -0.032742824

static_variable_selection.flattened_grn.fc2.weight f4 [3, 3]
000000 09 cf c1 3e eb 11 6a be 73 8d 1a 3f 7f 10 a9 bd
       0.37853268 -0.22858398 0.60372084 -0.082550995
000010 1a bb 05 bf bc 09 2d 3f 03 1c 89 3f de ed b8 be
       -0.5223862 0.6759298 1.0711673 -0.36118978
000020 3a 5e 06 bf
       -0.5248753

static_variable_selection.flattened_grn.fc2.bias f4 [3]
000000 56 9c 80 bd 37 b4 85 bd 26 f1 1f bd
       -0.06279819 -0.06528514 -0.039048336

static_variable_selection.flattened_grn.gate_norm.glu.fc.weight f4 [6, 3]
000000 45 66 0c be 32 32 24 bf 89 58 93 be 8f 20 a8 be
       -0.13710888 -0.6413909 -0.28778484 -0.3283734
000010 a6 43 e5 3e 62 60 5f 3e 08 56 9f bd fe 2e f6 be
       0.44778174 0.21814111 -0.07780081 -0.48082727
000020 64 9a 4a 3f 36 1a c5 3d 6e 34 ea 3c 10 fe 0d 3f
       0.7914183 0.0962414 0.028589454 0.55465794
000030 08 65 0b bf 8d e7 fc bc d0 12 2b 3e 6a 3c e1 be
       -0.54451036 -0.03087213 0.16706395 -0.43991405
000040 74 8d a7 3e ab e5 d3 3d
       0.32725108 0.1034654

static_variable_selection.flattened_grn.gate_norm.glu.fc.bias f4 [6]
000000 2c 4b ad 3d 00 a8 0f bd 5c 70 53 3d 19 13 97 be
       0.084616035 -0.035072327 0.051620826 -0.29506758
000010 bf 4b 99 be 9c a0 2a be
       -0.29940602 -0.1666283

static_variable_selection.flattened_grn.gate_norm.add_norm.norm.weight f4 [3]
000000 e3 45 13 3f 8c 6c 3f 3f 9f bd 73 3e
       0.57528514 0.74775004 0.23802803

static_variable_selection.flattened_grn.gate_norm.add_norm.norm.bias f4 [3]
000000 a1 a0 cb be 6a b5 c4 be 0a b3 33 3f
       -0.39770988 -0.38419658 0.70195067

static_variable_selection.single_variable_grns.TEAM_ID.mask f4 [16]
000000 58 24 b7 3e 2c e1 c4 bd 30 c5 80 bd cd 42 d5 3d
       0.35769916 -0.096132606 -0.062876105 0.10413132
000010 fa e4 3d 3d b6 3f a0 bc 8d 1c 7f 3d 9f 2c 05 bc
       0.046360947 -0.01956163 0.062283088 -0.008128314
000020 9a 90 45 3e 26 e0 d6 bd 51 b3 d8 bd 16 25 27 3d
       0.19293442 -0.10491972 -0.10581077 0.040806852
000030 a2 5f 05 3e 9c 4b 37 be 3f 5b 83 3c 75 dd ef 3b
       0.13024762 -0.17899936 0.01603472 0.007320101

static_variable_selection.single_variable_grns.TEAM_ID.norm.weight f4 [16]
000000 c8 87 a3 3f dd a2 13 3f a4 e9 2e 3f 7b d8 86 3f
       1.2775812 0.57670385 0.6832526 1.0534815
000010 c8 1e 5f 3f ac d0 71 3f 53 12 90 3f 4a cc 32 3f
       0.87156343 0.94459033 1.1255592 0.6984297
000020 af f5 52 3f 1b 52 0c 3f e5 55 97 3f 11 ae 7d 3f
       0.82406133 0.54812783 1.1823088 0.9909373
000030 62 25 80 3f 90 05 4d 3f 3c 5c 9b 3f 84 17 5f 3f
       1.0011408 0.8008661 1.2137523 0.87145257

static_variable_selection.single_variable_grns.TEAM_ID.norm.bias f4 [16]
000000 d7 26 e0 3e fd 2b 1d bf fa 17 34 bf 71 53 92 be
       0.43779632 -0.61395246 -0.70349085 -0.28579286
000010 c6 63 f8 3c 99 af be be dc b8 fa 3e 7e 87 84 3c
       0.030321013 -0.37243345 0.48969162 0.016177889
000020 1f 73 21 be f2 48 bc be 9b 0e 3e 3e e2 80 86 3e
       -0.15766571 -0.36774403 0.18560259 0.26270205
000030 b0 f7 b4 be e5 14 8e 3e f6 db 30 be 9b d5 01 be
       -0.3534522 0.27750316 -0.17271408 -0.1267914

static_variable_selection.single_variable_grns.OPPONENT_ID.mask f4 [16]
000000 dd 03 5a 3e 40 ce 26 be 88 2f 4c be 45 cd 01 bf
       0.21290536 -0.16289616 -0.19940007 -0.5070384
000010 4d 72 b5 bd 02 92 c1 3c 08 4f 5a 3f b9 2d a3 be
       -0.08859692 0.023629192 0.8527684 -0.3187082
000020 9e 0b b1 be 80 ab 29 be d0 f1 2a 3e 58 e2 a4 be
       -0.34579176 -0.16569328 0.16693807 -0.32203937
000030 7e 22 c6 3d a5 8c 7d 3d 3e 0a d1 3c 97 8d e8 3c
       0.096745476 0.061901707 0.02551758 0.028387828

static_variable_selection.single_variable_grns.OPPONENT_ID.norm.weight f4 [16]
000000 77 2e 85 3f c1 30 2f 3f 59 f6 0d 3f 8a 46 10 3f
       1.0404805 0.6843377 0.5545402 0.56357634
000010 c1 22 23 3f 34 76 36 3f 93 4c 02 40 e1 74 7d 3f
       0.63724905 0.71274114 2.0359237 0.9900647
000020 0f 2b 2d 3f ae db 5a 3f 93 6f 82 3f 4a ad d1 3e
       0.6764383 0.85491455 1.01903 0.40952522
000030 68 2f 95 3f a4 78 61 3f aa f4 5c 3f 53 23 2f 3e
       1.1655092 0.8807471 0.8631083 0.17103319

static_variable_selection.single_variable_grns.OPPONENT_ID.norm.bias f4 [16]
000000 2b 0d 52 3e be e8 f2 be 5f da cc be 27 70 42 be
       0.20512836 -0.47443193 -0.40010354 -0.18988095
000010 47 2a 41 bd cc 4f 93 be 73 b7 01 3f 0b b1 01 be
       -0.04715946 -0.28771818 0.50670546 -0.12665193
000020 c2 f9 74 be cb 80 07 bf 2d 34 a5 3e 5c dc 61 3e
       -0.239234 -0.529309 0.3226637 0.22056717
000030 48 ae 94 be 58 28 7a 3e c1 16 e9 bd 94 5c 9d 3d
       -0.29039216 0.24429452 -0.11381293 0.076836735

static_variable_selection.single_variable_grns.encoder_length.resample_norm.mask f4 [16]
000000 55 79 5c be d0 f2 53 3e 8d bc 8a 3e 4c 6f 3b bd
       -0.2153066 0.20698094 0.27096978 -0.045760438
000010 99 58 83 3c fb 2a aa b9 68 3c 35 3e 00 42 12 bd
       0.016033458 -0.0003245695 0.17698824 -0.035707474
000020 51 e2 e1 3c fa a9 c9 bb 68 96 8f bc 67 58 5d bc
       0.027573736 -0.006154296 -0.017527774 -0.013509846
000030 68 3e d4 3c 72 ab 55 be e2 40 e9 bd 07 de 86 bd
       0.025908664 -0.20866182 -0.113893285 -0.06585317

static_variable_selection.single_variable_grns.encoder_length.resample_norm.norm.weight f4 [16]
000000 e5 c0 49 3f 77 39 9d 3f 81 f0 a5 3f 65 76 73 3f
       0.7880996 1.2283162 1.2964021 0.9510253
000010 e5 48 83 3f 8f 73 6b 3f c8 a7 a6 3f e1 d3 70 3f
       1.0256621 0.91973203 1.3019953 0.940733
000020 23 bb 53 3f e8 e2 6e 3f 10 b8 77 3f 5b 83 75 3f
       0.8270742 0.9331498 0.9676523 0.9590356
000030 e9 75 62 3f 3e 48 43 3f 94 1e 5d 3f 5b cd 69 3f
       0.88461167 0.7628211 0.86374784 0.9132897

static_variable_selection.single_variable_grns.encoder_length.resample_norm.norm.bias f4 [16]
000000 85 ae b0 3e d3 43 81 be c2 af 82 be db 1d 26 3d
       0.34508148 -0.25247058 -0.25524718 0.040555816
000010 3a c1 be b9 25 62 0f be 2b dc a2 3e 10 74 4d bd
       -0.0003638359 -0.14002283 0.318086 -0.050159514
000020 38 8f a4 be 2b 52 c6 bd a0 65 8d bc 7f c4 c9 bc
       -0.32140517 -0.09683641 -0.017260373 -0.02462983
000030 02 6c 20 be 30 0c 68 3e f2 09 0d 3e 82 d5 45 3d
       -0.15666202 0.22660899 0.13773325 0.04829932

static_variable_selection.single_variable_grns.encoder_length.fc1.weight f4 [8, 8]
000000 0e ae 81 bf 88 a6 f7 3e 9c 89 0e 3f e1 74 d8 3d
       -1.0131242 0.4836924 0.55678725 0.10569168
000010 59 91 54 3e 8b 07 3c 3f 12 09 fa 3d c6 76 a5 3e
       0.2075857 0.7344901 0.12208761 0.3231718
000020 28 8e da 3e 2b fb af be ef d2 e3 be 5b b6 0b 3d
       0.42686582 -0.34371313 -0.44496867 0.034109455
000030 11 68 52 3e 31 8a 6c be 0b 43 a9 3d 4e c2 b5 3e
       0.2054751 -0.23099591 0.082647406 0.35499805
000040 ff 04 92 bd dc 23 57 3f d3 9c f0 be b2 0f b8 be
       -0.07129859 0.8403909 -0.46994647 -0.35949475
000050 ed 2f d2 3e bb 7a 85 bd 72 4d 69 3c d5 3e 54 bf
       0.4105219 -0.065175496 0.014239656 -0.82908374
000060 2a 60 4d 3e 9c b7 c7 be 5a 83 92 3f 17 33 fd be
       0.20056215 -0.3900727 1.1446335 -0.4945304
000070 2f 9c 2a 3d a0 d7 c2 be b9 e8 43 3f 58 0e 3a bf
       0.041652855 -0.38055134 0.7652698 -0.72678137
000080 63 93 dd 3e 6e 9d 29 bf c5 08 c1 3e e4 e6 c5 3e
       0.4327651 -0.66255844 0.37702003 0.38652718
000090 22 fc f0 be 90 3d 6d 3e 7e 70 b8 bd 9f 5d ba 3e
       -0.47067362 0.23168015 -0.09005831 0.36399552
0000a0 e4 46 b5 be c6 89 b2 3e 12 4f df 3e 54 92 94 3e
       -0.35405648 0.34870738 0.43615013 0.2901789
0000b0 7f 25 c4 bd 04 76 fa be ac 62 8d 3f c0 63 c3 3c
       -0.09577464 -0.48918164 1.1045737 0.023851275
0000c0 51 af c0 bd 42 68 28 bf 08 9c 99 bc 35 b6 41 bd
       -0.09408439 -0.65784085 -0.01875116 -0.047292907
0000d0 52 42 60 bd 56 8d 9d 3e 2c 85 89 3f 2a d5 a6 bd
       -0.054750748 0.30771893 1.0743766 -0.081461266
0000e0 aa 35 83 be a8 cd 52 be 9e 51 8e be ff 7b b0 be
       -0.2562688 -0.20586264 -0.27796644 -0.34469602
0000f0 a1 20 bb 3f 48 39 82 3d 9b b5 08 bf 86 1c 80 3f
       1.4619333 0.06358582 -0.5340211 1.0008705

static_variable_selection.single_variable_grns.encoder_length.fc1.bias f4 [8]
000000 a4 26 c5 bd 55 80 20 be 44 b0 d4 bd 27 ee fd bb
       -0.09626511 -0.15673955 -0.103851825 -0.0077493372
000010 a6 47 96 3d b8 3c 92 bd d6 2a e9 3b c4 90 b5 bd
       0.073378846 -0.071404874 0.007115702 -0.088655025

static_variable_selection.single_variable_grns.encoder_length.fc2.weight f4 [8, 8]
000000 76 80 79 be b4 ee 76 3d f8 04 72 3e 6c 22 01 be
       -0.2436541 0.06028624 0.23634708 -0.12610787
000010 42 78 18 3f ad 42 86 3e c9 36 96 3e 0b ff b4 be
       0.595585 0.26222745 0.29338673 -0.35350832
000020 a9 36 76 bf 46 bd c9 be e1 a0 a7 be e8 02 42 be
       -0.96177155 -0.39402217 -0.32739928 -0.18946421
000030 44 9f bd bd 78 a5 92 bf f2 ee 46 be d3 4a 34 3e
       -0.09258893 -1.1456747 -0.19427088 0.17606668
000040 35 20 6c 3e b2 d2 bb bd 36 5e a4 bd e5 70 87 3e
       0.23059161 -0.09171046 -0.08025782 0.2645332
000050 01 32 60 3f 30 f7 f4 be df 7d 60 3e 6a 1b 0a be
       0.875763 -0.4784484 0.21923016 -0.1348702
000060 53 b7 16 bf 2c 64 b5 bd 59 3c e8 be 72 9e 9e be
       -0.5887348 -0.08856997 -0.45358542 -0.3098026
000070 aa 8e ff bd ec 1e 1f 3f 34 a2 0f bf 7f d4 d3 be
       -0.12478383 0.6215656 -0.5610688 -0.4137306
000080 7c ea 84 bd 91 83 82 be 6f ac b7 be ea eb d9 bc
       -0.06490037 -0.25491002 -0.35873744 -0.02660175
000090 60 df 4a 3e 44 00 6d 3e ae bc b3 3e f5 cd c8 3b
       0.19811773 0.23144633 0.3510489 0.0061280676
0000a0 c5 e9 2c be 9d 31 fc 3e 47 ad a4 3e 08 ed 92 3e
       -0.16886051 0.49256602 0.3216345 0.28696465
0000b0 ce bd 4c 3e 06 8f ef 3e cd c7 05 3e 36 0a 0d 3f
       0.1999428 0.46788806 0.13064499 0.55093706
0000c0 76 0d 60 3e 26 06 eb 3e d4 49 4a bf 72 9b 2d bf
       0.21880135 0.45903128 -0.790189 -0.67815316
0000d0 c3 cf cf 3d d7 bc 9b be 9c 0c b8 bc 02 b3 34 3f
       0.10147049 -0.3041751 -0.02246695 0.70585644
0000e0 bf 46 1d 3d 28 4f 58 3e f1 b6 bb 3e 5b 7f 2d 3f
       0.038397547 0.21123946 0.3666301 0.67772454
0000f0 66 57 33 be c1 6c cd 3d 8f 9c e6 be 6d 6a 3c bf
       -0.17513809 0.10030509 -0.4504132 -0.7359989

static_variable_selection.single_variable_grns.encoder_length.fc2.bias f4 [8]
000000 53 80 20 bd 15 5b a9 3d 25 bc 9d 3e cd 86 8e 3c
       -0.03918488 0.08269326 0.30807605 0.017398262
000010 4c 2c c7 bd ab 17 26 be 62 9b fb bc 76 12 1a be
       -0.09725246 -0.16219966 -0.03071374 -0.15046105

static_variable_selection.single_variable_grns.encoder_length.gate_norm.glu.fc.weight f4 [32, 8]
000000 6c e0 8b be 88 32 5c 3d 28 cd 27 3f 90 84 f0 3d
       -0.27319658 0.053759128 0.6554742 0.11744034
000010 a8 e3 05 be df 93 f5 be 1f 6e e6 3b aa d8 66 bd
       -0.13075125 -0.4796438 0.0070321704 -0.05635897
000020 9f f0 1c 3e 34 10 8b be e4 29 b3 3d fc bb 13 bc
       0.15326165 -0.271608 0.087482244 -0.009016987
000030 03 c3 6b be 04 dc 4a 3e aa cc d0 be 73 10 e0 3e
       -0.2302361 0.19810492 -0.40781146 0.4376255
000040 f1 7d 76 be 7d dc cc be 1d 10 e4 be 40 b1 91 3e
       -0.2407148 -0.4001197 -0.44543543 0.28455544
000050 54 15 e3 3c 78 35 9d 3e 9f 84 9e 3d df 32 c3 3e
       0.027720131 0.30704856 0.07740139 0.3812475
000060 16 c6 90 3d 3d 77 4e 3d 9e b4 30 bd 68 cf 74 3e
       0.07069032 0.050406683 -0.043141 0.23907244
000070 5a c8 5d 3e c2 ef f2 bd 91 2c 2e be 1c 07 a6 be
       0.2165846 -0.118621364 -0.17009188 -0.324273
000080 48 8b 86 3e b2 67 72 3e af 17 85 3e c0 55 7b be
       0.26278138 0.23672369 0.25994632 -0.2454443
000090 72 da a6 3e 0c 89 3a bd a3 5d 93 3e e7 42 a9 be
       0.32588536 -0.045540854 0.28782377 -0.33058855
0000a0 d3 25 ac be 77 8e 39 be ab 75 a3 be 9f b6 be 3e
       -0.33622608 -0.18120752 -0.3192571 0.37248704
0000b0 81 6f f0 bd ee 2c cb 3d 73 4e 08 be 57 38 6f bd
       -0.11740018 0.09920679 -0.13311176 -0.05840334
0000c0 1a d8 97 bd 05 23 aa 3d 5a 94 84 bc 11 c9 46 be
       -0.07414265 0.08307461 -0.01618402 -0.19412638
0000d0 e2 41 96 bd 9e 77 bc bd 5f 48 fb 3d 49 6d d4 be
       -0.07336785 -0.09202503 0.12269663 -0.41489628
0000e0 66 49 52 3e 1f 38 c7 bd 6f 5d 24 3d 61 a1 5a 3e
       0.20535812 -0.09727501 0.040128168 0.21350624
0000f0 35 e0 c8 3d e7 8f c8 3d b9 bb 9b be 66 61 90 be
       0.09808389 0.09793072 -0.3041666 -0.2819931
000100 9e a5 19 3e b9 b8 ab 3c 77 4b 7b be f5 74 95 3e
       0.15004584 0.020962106 -0.24540506 0.29190794
000110 57 b6 53 bd 3a fc 79 3e a9 35 9c bc 58 a0 1d be
       -0.051687565 0.24412623 -0.019068556 -0.15393198
000120 66 7c 5e 3c c9 b1 a4 be 63 c4 8c bd d0 7d e1 3e
       0.013579464 -0.3216689 -0.06873395 0.440413
000130 c8 7c 07 3b 3a 6a 0f 3d 2b a9 ce be a3 d6 f5 3d
       0.002067374 0.035013415 -0.4036344 0.12003829
000140 e0 c8 a7 bd 74 08 89 3e 7f 80 6e be e6 25 a0 be
       -0.08192611 0.26764262 -0.23291205 -0.31278914
000150 cc 7a ae 3e 5a eb cb be 6f 78 81 3e a1 e7 58 3e
       0.34078062 -0.39827996 0.25287196 0.2118211
000160 32 3b 97 3e 6e af 9a 3e 50 0f 87 39 12 c6 5f bd
       0.2953735 0.30211967 0.00025760615 -0.054632254
000170 4d b6 97 be 77 25 93 3e 8a ef e2 bd b1 0e 90 be
       -0.29631272 0.2873952 -0.11080845 -0.2813621
000180 a9 0e 14 3e 69 18 5d be 97 8a 91 be 1d 7d 96 be
       0.14458717 -0.21591343 -0.28426048 -0.2939233
000190 e0 93 96 be 56 1e ad 3e 2c d6 e4 3d 4a 70 6f 3b
       -0.29409695 0.33812207 0.111736625 0.0036535435
0001a0 51 e3 24 3d d3 27 f5 3d 32 b0 0f 3f 19 e5 fd bd
       0.04025585 0.119704865 0.5612823 -0.123972125
0001b0 17 d0 83 be 5e 39 a9 be c0 0a 09 3f 0e 7c 83 3c
       -0.25744697 -0.3305158 0.5353203 0.016050365
0001c0 84 b4 80 be 2b c3 47 3e 26 1a 8c 3d b8 5d 86 3e
       -0.25137722 0.19508044 0.06840925 0.26243377
0001d0 89 b1 be bd ce f7 03 be 18 09 f5 bd 79 8c 10 bc
       -0.09311206 -0.12887499 -0.11964625 -0.008822554
0001e0 76 2f a4 bd 73 68 03 3e 3c 33 ab be 0a ec 88 be
       -0.08016865 0.12832813 -0.33437526 -0.26742584
0001f0 41 be bb 3b 5d bc 1a be 27 e0 86 be 86 38 a9 3d
       0.005729467 -0.15110917 -0.2634289 0.08262734
000200 d7 5d 8e 3d 5a 40 55 be 28 13 24 3d 26 c5 c8 3c
       0.06951492 -0.2082533 0.04005733 0.02450807
000210 2f a2 c4 3d 57 1a f4 be c1 de a5 be 78 34 ab be
       0.096012466 -0.47676346 -0.3239651 -0.33438468
000220 94 bd b5 be 17 b2 82 3e aa 9a b3 3e 61 60 82 bd
       -0.354962 0.25526497 0.35078937 -0.06366039
000230 b1 84 62 be 0f 72 0e 3c 8e 52 74 be bd 10 35 3e
       -0.2212093 0.008694186 -0.23859617 0.17682166
000240 b4 72 e3 bd 86 e2 92 3e 7e 05 b0 3e e3 7d be 3b
       -0.11105862 0.2868845 0.3437919 0.0058133467
000250 d7 75 69 3e 30 bd c3 be 5d 58 21 be 07 79 48 be
       0.22798859 -0.38230276 -0.15756364 -0.19577418
000260 eb e1 15 bc 4f 19 bb be 6f d7 79 3e b8 e6 af 3e
       -0.009148101 -0.36542746 0.24398588 0.34355712
000270 fa 2e 8b be 50 17 13 be 91 a0 96 3e 69 7b 8c 3e
       -0.27184278 -0.14364362 0.29419377 0.27437904
000280 76 ac 7e be b0 6a 20 be c9 41 9d be 12 20 f8 3b
       -0.24870476 -0.15665698 -0.30714253 0.0075721825
000290 6f c7 95 3e 1a 30 95 3e e4 dd 3d bd 0a be b2 3e
       0.29253718 0.2913826 -0.04635419 0.34910613
0002a0 8b d1 11 3c 35 9b df 3d 19 e1 d5 bd f6 a0 76 be
       0.008900057 0.10918275 -0.104433246 -0.24084839
0002b0 9e 4a 74 be c1 b8 15 3e 2f 37 9b 3e de 33 93 be
       -0.23856589 0.1462126 0.3031554 -0.2875051
0002c0 a9 3c c0 be b3 92 85 be 14 8e 87 be 20 72 b4 be
       -0.3754628 -0.26088485 -0.26475585 -0.3524332
0002d0 14 2e 99 3e 94 c7 0a be 16 33 c2 3e 93 9f 12 3d
       0.29917967 -0.13552696 0.379296 0.035796713
0002e0 f4 02 a8 3e 03 73 5e be 94 af d5 bc 55 a3 81 3e
       0.32814753 -0.21723561 -0.026084699 0.25319925
0002f0 00 51 a8 be 7c 54 56 be af 36 80 be a5 1a 85 bc
       -0.32874298 -0.20930666 -0.2504172 -0.016248057
000300 6b d5 51 be ea 0c ae 3e 43 12 8b bd 4a f4 97 be
       -0.20491569 0.33994228 -0.067905925 -0.29678565
000310 56 79 8f be 6f e8 86 3e d4 d1 09 be f6 da 6c 3e
       -0.2802226 0.26349208 -0.1345895 0.23130402
000320 16 5a 76 be c5 62 a6 3e e4 57 22 3e 94 a3 ae 3e
       -0.24057803 0.3249723 0.1585384 0.34109175
000330 1b a6 3e bd 1a de 45 be cc bd d5 3e ce f3 0a be
       -0.04654513 -0.19323006 0.41746366 -0.13569567
000340 f6 e3 17 3e b0 0a 1e be 42 5a 07 bd 16 11 7d 3e
       0.14833054 -0.15433764 -0.03304506 0.24713549
000350 4b 2c 36 be a8 b2 59 3e 68 9a 38 3e c8 53 86 bd
       -0.17790334 0.21259558 0.18027651 -0.06558949
000360 2b 5e b1 3e 29 8b b5 3e e7 46 22 3e e4 c4 21 3e
       0.34642157 0.35457733 0.1584736 0.15797764
000370 bb 93 a4 3e d3 44 25 3e 74 7a 7f be d7 4c 58 3d
       0.3214396 0.16139536 -0.24949056 0.052807655
000380 03 d4 b1 3e 8b 17 94 3d 4f 22 00 3e dd 8b cf bd
       0.34732065 0.07231053 0.12513088 -0.10134099
000390 e3 d8 69 3d 60 d9 1f bd 18 93 b8 be f3 c4 90 bd
       0.057091605 -0.039025664 -0.36049724 -0.07068815
0003a0 06 cc 8b be 70 79 a9 3d 6a 0e 8a 3e 2d f9 98 be
       -0.27304095 0.082751155 0.26964122 -0.29877606
0003b0 87 f9 6e be e3 23 96 be fe 29 cc 3d 03 30 8b be
       -0.23337375 -0.29324254 0.09968947 -0.27185068
0003c0 1a 6b 76 bd 4c a0 c2 bd 15 e0 b9 be 6b c1 89 3d
       -0.060160734 -0.095032305 -0.36303774 0.06726345
0003d0 6a 50 a6 be d7 69 4f 3e 88 74 5a be dd 5e 53 be
       -0.32483226 0.20255218 -0.21333516 -0.20641656
0003e0 ae 0d 8b 3e 5f 42 d3 bd 7c b7 b0 be e3 c9 2f 3e
       0.27158874 -0.10315394 -0.34514987 0.17166857
0003f0 8e ba 1f be c2 3b 0a be 51 55 9e 3e 63 fe b0 3e
       -0.15598509 -0.13499358 0.30924466 0.34569082

static_variable_selection.single_variable_grns.encoder_length.gate_norm.glu.fc.bias f4 [32]
000000 3f 2d 7a 3e f3 90 33 be 71 65 66 be 2b 67 29 3d
       0.24431323 -0.17535762 -0.22499634 0.041358154
000010 c8 f9 15 3c e9 a4 9d bd 5e 01 56 3e cc 7c 2b bc
       0.009153791 -0.0769747 0.20898959 -0.010466766
000020 a4 d4 42 be 09 ca 80 bd cf 9e 8c bd 3e 4d e6 bc
       -0.19026428 -0.06288535 -0.06866228 -0.028113004
000030 27 2b 05 be db f1 3f 3e be 23 48 3d b3 73 34 3d
       -0.13004743 0.18744604 0.04886221 0.044055652
000040 61 75 43 3d 43 65 2f 3d 9d 04 3d 3d 23 8d 3f bd
       0.047719363 0.04282118 0.046146978 -0.046765458
000050 bb e3 47 bd 51 59 aa 3c 09 d0 c1 bb 09 66 cd bb
       -0.048801165 0.020794543 -0.0059146923 -0.006268267
000060 47 ed 8a bc ae 9b 9f 3c f3 24 e2 3b 1b 08 13 bd
       -0.016958846 0.019483414 0.0069013773 -0.0358964
000070 ec 90 45 bb 20 a3 bf 3d 59 d2 46 bc 26 44 4d bd
       -0.0030146195 0.093572855 -0.012135112 -0.05011382

static_variable_selection.single_variable_grns.encoder_length.gate_norm.add_norm.norm.weight f4 [16]
000000 a6 f1 80 3f 7a 43 b0 3f 76 57 df 3f 50 54 80 3f
       1.0073745 1.3770592 1.7448566 1.002573
000010 04 05 6e 3f 67 e9 68 3f 00 42 a4 3f bc d6 6c 3f
       0.92976403 0.90981144 1.2832642 0.9251516
000020 b5 cf 71 3f ca 15 7f 3f 33 2a 97 3f 05 09 a0 3f
       0.9445756 0.9964262 1.1809753 1.2502753
000030 05 4b 70 3f c3 ac 60 3f 0d c1 83 3f 6e 22 80 3f
       0.9386447 0.87763613 1.029329 1.0010507

static_variable_selection.single_variable_grns.encoder_length.gate_norm.add_norm.norm.bias f4 [16]
000000 23 f4 d5 3e 26 13 d3 be f0 2c f5 be 17 c0 c4 bd
       0.41787824 -0.41225547 -0.47885847 -0.09606951
000010 76 ed 9c bd cc 3c 96 be 28 86 b0 3e c0 27 1d bd
       -0.076624796 -0.2934326 0.34477353 -0.038367987
000020 7e 23 ed be bc 1c 4d be a9 fa 57 3e c3 d1 58 3e
       -0.4631614 -0.20030493 0.21091713 0.21173768
000030 65 d3 84 be 2a 2e 34 3e 45 26 17 bc 63 56 18 be
       -0.2594253 0.17595735 -0.009225433 -0.14876704

static_variable_selection.prescalers.encoder_length.weight f4 [8, 1]
000000 40 24 34 bd c0 0c df bd 6c 37 42 bf 5c fa 10 3f
       -0.043979883 -0.10891104 -0.7586582 0.5663202
000010 5c f6 bc 3e 40 2f 40 3f 34 02 d9 be 7c 80 36 bf
       0.36906707 0.750721 -0.42384493 -0.712898

static_variable_selection.prescalers.encoder_length.bias f4 [8]
000000 de 72 b3 be 3f 59 92 bf a0 c3 c6 3e de 4e 6d 3d
       -0.35048574 -1.1433486 0.38821125 0.05793654
000010 65 26 78 bf c7 95 f2 3e fc 2c 06 bf c8 06 8d be
       -0.96933585 0.47379896 -0.5241239 -0.27544236

encoder_variable_selection.flattened_grn.resample_norm.mask f4 [6]
000000 72 41 0d be 5b a1 2e bd 70 b7 ce bd 14 43 e5 3c
       -0.13794497 -0.04263435 -0.10093582 0.027986087
000010 33 c4 86 3e 85 7e 57 bd
       0.26321563 -0.052610893

encoder_variable_selection.flattened_grn.resample_norm.norm.weight f4 [6]
000000 38 0e 00 3f 7a fa 2d 3f aa ff 53 3f bb 12 86 3f
       0.50021696 0.6796032 0.8281199 1.0474466
000010 72 34 a2 3f ac 66 6c 3f
       1.2672255 0.92344165

encoder_variable_selection.flattened_grn.resample_norm.norm.bias f4 [6]
000000 93 92 b8 be 74 e6 67 3f 3e af 7a be 14 34 d0 bc
       -0.36049327 0.9058602 -0.24480912 -0.025415458
000010 f4 a8 87 be da 56 4f bd
       -0.26496089 -0.050619937

encoder_variable_selection.flattened_grn.fc1.weight f4 [6, 38]
000000 3c 98 b1 be 44 4b b6 3e a8 11 5b be 63 cd 69 be
       -0.34686458 0.35604298 -0.21393454 -0.22832255
000010 33 51 6c be c1 aa 00 bc 44 3b d7 3d e0 35 31 3e
       -0.2307785 -0.007853211 0.10509351 0.17305708
000020 16 a4 27 3b b1 0d aa be a4 ae 03 bd 26 71 3a bd
       0.002557998 -0.3321357 -0.032148972 -0.045518063
000030 51 19 02 3f 12 7a c8 3e 81 98 b5 be 16 86 83 bd
       0.5081988 0.39155632 -0.35467914 -0.06422059
000040 ee d0 32 bd 55 a5 41 3e d5 c8 85 3e 42 79 6b bd
       -0.043656282 0.18910725 0.26129785 -0.057488687
000050 75 86 28 3e fd a7 ef bd c0 9b 37 3e bf 57 01 be
       0.16457541 -0.11701963 0.17930508 -0.12631129
000060 dc fc 7b 3d 9f c8 8b bd 2e 0a c7 bd ca ef d4 bd
       0.061520442 -0.06825375 -0.097187385 -0.10397299
000070 ed 2d 33 be f7 1c c3 3e 2e 70 64 3d d7 42 88 3d
       -0.17497988 0.38108036 0.055771045 0.06653374
000080 4c 3b f2 3e a0 c9 16 be 6d ad 52 bb 56 25 86 be
       0.47310865 -0.14725351 -0.0032146827 -0.2620036
000090 9a 26 de 3e 4b ce d3 bc 64 ff 26 3e c8 1c 3a be
       0.43388826 -0.025855204 0.16308361 -0.18175042
0000a0 51 74 07 bc 7c 7f fb 3e 1c fc a1 3c e6 e5 9e 3d
       -0.008267478 0.491207 0.019773535 0.077586934
0000b0 7a 8a b2 bd 92 24 1c be a8 9e 09 be bb 93 d0 3e
       -0.087178186 -0.15248325 -0.13439429 0.4073771
0000c0 bd 3c b7 be 9f 6a d4 be 78 2d cd 3e b6 20 39 be
       -0.35788527 -0.41487595 0.40073752 -0.18078884
0000d0 29 76 34 bd 75 44 c3 bc aa ac 89 3d 8e a0 75 be
       -0.044058 -0.023836354 0.06722386 -0.23987028
0000e0 2d 31 9a bd 0f 50 90 3e 8a d5 56 be 6d f7 ad 3e
       -0.07528911 0.2818608 -0.20979896 0.33977833
0000f0 5b ef 99 3e 2b 4d 28 be 54 a7 4b 3e d6 30 ed 3d
       0.30065426 -0.16435687 0.1988805 0.1158158
000100 b3 a2 98 be e6 39 98 3e 42 dc 75 3e 29 42 15 be
       -0.2981163 0.29731673 0.24009803 -0.1457602
000110 7e 1c a2 be cc 0c 6d be e3 94 ab be 85 13 88 3e
       -0.31662363 -0.23149413 -0.3351203 0.26577392
000120 ba be 8e 3c 23 44 86 be ed 8c ff 3c e3 56 9a be
       0.01742493 -0.2622386 0.031195128 -0.30144414
000130 22 59 05 3e da 21 c4 be 18 4d f8 bc 78 e1 e3 3d
       0.13022283 -0.38307077 -0.030310199 0.11126989
000140 cc ff a3 be e8 13 e0 3e 3a a0 eb 3d e3 de ef 3e
       -0.32031095 0.43765187 0.1150517 0.46849737
000150 dd 24 0b 3d 91 66 ed 3e 71 70 6b 3e 23 4b be 3d
       0.033970702 0.46367314 0.22992112 0.09291675
000160 13 e6 7f 3e 25 b8 3c be ba 8d 57 bf 8a ab a9 bd
       0.2499011 -0.1842962 -0.8420063 -0.082846716
000170 88 5d 9b 3d 69 d6 5b bd 66 6d 14 bd 57 67 3e 3e
       0.07586199 -0.053671274 -0.036237143 0.18594109
000180 2d 31 20 3e d7 41 fe bd 7c 8c 8b be 73 5b 67 be
       0.15643759 -0.12414902 -0.2725562 -0.22593479
000190 95 a9 c3 be 10 31 8c 3e a5 3b 4e 3d 25 da 2f 3b
       -0.38215318 0.27381182 0.05034985 0.0026832905
0001a0 e3 23 84 bd 62 05 54 3f 48 25 95 3d 48 9e 0a bd
       -0.06452157 0.82820714 0.072825015 -0.033842355
0001b0 a0 f2 af bd 43 39 b4 3d 6d f5 44 be 05 ac b6 3c
       -0.08591199 0.08799984 -0.19234248 0.022298822
0001c0 b8 d4 4b be d6 c6 a2 be b0 36 1d 3c e3 ab 49 be
       -0.19905365 -0.31792325 0.009595558 -0.19694476
0001d0 73 9c 78 3e cd f0 28 bd f6 fa 36 be f1 d9 86 be
       0.2427843 -0.04124527 -0.17869172 -0.2633815
0001e0 98 73 b9 3e 5e f7 0a be f3 ca e9 bd 34 0b 72 3e
       0.36221004 -0.13570926 -0.114156626 0.23637086
0001f0 4b b6 c6 bb e5 07 85 bc af 9a 8a be d0 8a 9b 3e
       -0.0060642115 -0.016239116 -0.2707114 0.30379343
000200 58 96 37 be 3d 0d bd be c3 ba 22 be 4d 7e 87 3e
       -0.17928445 -0.36924163 -0.15891556 0.26463547
000210 04 a1 85 3e 65 82 7f be c8 89 04 3f 59 04 39 bd
       0.26099408 -0.24952085 0.5177274 -0.045170162
000220 0b d5 9a 3c 70 fa eb bd de 48 ff bc a8 26 59 be
       0.018900415 -0.115223765 -0.031162675 -0.21206152
000230 52 ca bb bd 47 ca b9 bd 60 c1 22 3e 3c 9c 6d be
       -0.09169449 -0.090717845 0.15894079 -0.2320413
000240 6f 60 b4 3e 49 1e b2 3b 12 fe 7e be 47 fa 43 be
       0.35229823 0.005435739 -0.24901608 -0.19138442
000250 2b fd 4a 3e 2e ca ac 3d c8 88 b1 3e a8 9a 45 be
       0.19823138 0.08437 0.34674668 -0.19297278
000260 42 fb 61 3e 1f 1a 93 be 11 81 8e 3d e3 de 25 3e
       0.22068503 -0.28730866 0.06958211 0.16198306
000270 f3 b8 bb bd 54 bc 22 3e 38 7b 49 3d b5 70 02 3e
       -0.09166136 0.15892154 0.049189776 0.12738307
000280 9a d5 da bc 8f ba 2b 3d 97 02 72 3e 06 20 8d 3d
       -0.026713181 0.041925963 0.236338 0.068908736
000290 cb a6 14 3f 3c dd 9d 3d b6 ef a3 3e 97 a1 a0 3e
       0.58067006 0.07708213 0.32018822 0.31373283
0002a0 12 65 3f 3d cc 25 18 be f9 f0 99 bd 7d 73 2b be
       0.046727248 -0.14858168 -0.07516665 -0.16743274
0002b0 03 03 f5 3e 80 37 41 bd 3a bb 54 3e 2b 93 be be
       0.4785386 -0.04717207 0.20774546 -0.37221655
0002c0 f9 bc e6 bd 55 b1 c3 3e d2 2c aa 3e 6e 8f 82 be
       -0.112665124 0.3822123 0.3323732 -0.25500053
0002d0 18 4b f1 3d e1 1b f8 3e 57 87 fe bd fb 55 a2 be
       0.11781901 0.4845877 -0.12428158 -0.31706223
0002e0 79 39 c0 be af 5a 2c be 0c b7 b4 be 02 5c 58 3e
       -0.37543848 -0.16831468 -0.35295904 0.21128848
0002f0 e3 a7 ad 3e d4 8f ff bc 1b 0e d3 be a0 8e 53 be
       0.3391715 -0.031196512 -0.412217 -0.20659876
000300 ff 38 2b bf 92 43 68 3e a4 58 33 3e 8f e1 bf bc
       -0.66883844 0.22682026 0.17514282 -0.023422984
000310 fc 03 e0 3e ab d2 ee 3d a5 44 73 3e 0f bc 3a 3e
       0.4375304 0.116612755 0.23756655 0.18235801
000320 53 dd a9 3e d2 f5 83 3e cf 1e 4d bd 0b d6 f2 bd
       0.3317667 0.25773484 -0.05007821 -0.11857232
000330 bd 71 b4 be 0f 64 05 be a8 49 a4 3e 94 72 d9 3b
       -0.35243025 -0.1302645 0.32087445 0.006635973
000340 87 1e 82 3c d3 d3 33 bd 51 9a ce bd 55 0c 2f be
       0.015883697 -0.043903183 -0.10088027 -0.17094548
000350 26 b2 1b bd 5a a1 3d be 63 14 81 3e 93 c1 1a bd
       -0.038011692 -0.18518582 0.25210866 -0.037782263
000360 49 f2 9b bd a1 74 45 3e 32 52 65 3d e4 b3 27 be
       -0.076145716 0.19282772 0.05598659 -0.16377217
000370 62 e6 b6 be e9 9d 9e 3d 47 3c bd be 73 b2 f2 3d
       -0.35722643 0.07744963 -0.3696005 0.11850443
000380 a8 4b 1c bc fe e0 ea 3d 08 49 84 be d8 30 e9 bd
       -0.009539522 0.11468695 -0.25836968 -0.11386269

encoder_variable_selection.flattened_grn.fc1.bias f4 [6]
000000 66 35 1a be a8 bd 03 3e 3b d0 55 bd 39 28 38 3d
       -0.15059432 0.12865317 -0.052200537 0.044960234
000010 e9 da e8 bd fe a8 bc 3c
       -0.11369879 0.0230298

encoder_variable_selection.flattened_grn.context.weight f4 [6, 16]
000000 7e 8e 16 bd d8 12 d2 3e f4 2c 9f 3e d2 9d 0c 3f
       -0.036756985 0.41030002 0.31088984 0.54928315
000010 76 4b 07 bf 1d 4b ea 3e 7d 1d 2f bf 7b 71 b7 bd
       -0.5284952 0.45760432 -0.6840437 -0.089571916
000020 8d 3a aa be 54 61 80 be 8d 79 d9 be 4b 07 fc be
       -0.33247796 -0.25074255 -0.42475548 -0.49224314
000030 18 0b 4b 3e 74 50 08 3e 72 33 56 be 18 5f ed bc
       0.1982845 0.1331194 -0.20918062 -0.028976008
000040 b1 a5 fb 3e 09 59 ba be c9 40 a0 be 74 ba 89 3e
       0.4914985 -0.36396053 -0.31299427 0.26900065
000050 f8 6f 5b 3c 35 46 79 be 4c 18 fa 3e 13 49 25 3e
       0.013393395 -0.24343188 0.48846662 0.16141157
000060 1a 60 b8 3c bc 48 c8 3d 53 d9 3b be b6 96 95 be
       0.022506762 0.09779498 -0.18344621 -0.29216546
000070 81 e3 16 3d 6a ce d4 3d f5 2e 88 3c 74 24 2f bd
       0.03683806 0.10390933 0.016623953 -0.042759374
000080 89 c0 13 3d fa b1 9b 3d 9e b6 3b bd 04 6d 59 3e
       0.036072288 0.07602306 -0.045828454 0.21232992
000090 bd c2 8e 3d e3 cc f2 3e 8d ae ad be 79 71 df bd
       0.06970737 0.4742194 -0.33922234 -0.10910315
0000a0 12 cd 1d be 61 b7 31 be ae 5b c3 3d f5 c6 2c be
       -0.1541026 -0.1735511 0.09538971 -0.16872771
0000b0 2f f0 79 be 15 c1 5d be f4 36 19 3e ef 47 a3 3e
       -0.24408029 -0.21655686 0.14962369 0.31890818
0000c0 c7 ef 59 3e 54 3d 2b be 25 59 7d 3e 1c 09 93 bc
       0.21282874 -0.16722614 0.24741037 -0.01794868
0000d0 33 00 a5 3e ef 82 47 3e d7 e0 b1 3e 3f ce 2e be
       0.32226714 0.19483541 0.34741852 -0.17070864
0000e0 1d 15 a0 be 34 32 e2 3d 9d 42 32 3d 47 cd 1e be
       -0.31266108 0.11044732 0.04352056 -0.15507995
0000f0 96 a2 5f be 75 73 35 be 12 62 9c 3d b3 40 2d bc
       -0.21839365 -0.17719825 0.07635893 -0.0105745075
000100 81 49 23 3e 0a 1e e4 3d 38 25 97 3d 5c 0d 76 bd
       0.15946008 0.11138542 0.07380146 -0.060071334
000110 2e d0 cd be 59 b8 ad be 2b ed c6 bd 41 36 4e be
       -0.4019789 -0.3392971 -0.09713205 -0.20137884
000120 b3 64 53 bc 13 67 01 bd 04 f0 cb bd 9f 88 bb 3d
       -0.0129024265 -0.03159244 -0.09957889 0.09156918
000130 e0 be 94 3e 5b 69 2a 3e 66 88 14 3f d6 c4 c3 be
       0.29051876 0.16641752 0.5802063 -0.3823611
000140 1b 55 c5 be 19 db 2f 3d db 64 a4 be 43 b3 38 be
       -0.38541493 0.042933557 -0.32108197 -0.18037133
000150 f9 41 00 be 84 20 1c 3c 1d ee 24 be 46 e1 04 be
       -0.12525167 0.009529237 -0.16106458 -0.1297656
000160 fd c1 fc be 5c 0a d3 3e 81 c6 d7 3e 23 d8 80 3e
       -0.4936675 0.4121884 0.42143634 0.251649
000170 a3 3a 6c be 58 24 07 3f d5 8c 39 be 69 30 f9 3e
       -0.23069243 0.5278983 -0.1812013 0.48669747

encoder_variable_selection.flattened_grn.fc2.weight f4 [6, 6]
000000 76 84 17 bf 34 19 be 3e 51 0e a7 be 1b 03 6a bf
       -0.59186494 0.37128603 -0.3262811 -0.9141099
000010 0c 11 76 3e b6 4f 1f 3d c3 30 ba 3e 10 87 ab 3f
       0.2402994 0.038894378 0.36365327 1.3400593
000020 de ed 41 3f 94 f5 66 bd e7 77 22 bf 5f d2 04 bf
       0.7575358 -0.056386545 -0.63464206 -0.518835
000030 a8 b1 9f 3f c7 44 02 bf 5f 29 36 3f bc 82 23 3f
       1.2476091 -0.50886196 0.7115688 0.6387136
000040 bb 3b 71 3e c0 9b 2d bf 3a 1b 54 3f 0f ab 5a bf
       0.23557942 -0.6781578 0.82854044 -0.85417265
000050 24 00 7d 3f 47 3f 88 bd 30 42 f8 3e 5a bb 68 be
       0.9882834 -0.06652694 0.48487997 -0.22727719
000060 71 60 85 bf 14 5d a7 3d 10 28 22 3e cd ad 22 3f
       -1.0420057 0.0817205 0.15835595 0.6354645
000070 99 77 0a bf 64 fd 2a bd 81 06 ef 3e dd d0 56 be
       -0.5408874 -0.04174556 0.4668465 -0.20978113
000080 dc 5a ea 3d 0a 59 ad bf d5 94 6f 3e c5 b4 da 3e
       0.11443111 -1.3542798 0.23396619 0.4271604

encoder_variable_selection.flattened_grn.fc2.bias f4 [6]
000000 85 2f ce 3c 9a 6f e5 3d 4b af 47 be 1f a4 85 be
       0.025169143 0.11202927 -0.19500463 -0.26101777
000010 0c 0f d8 3e 1d fe bf bd
       0.4219898 -0.0937464

encoder_variable_selection.flattened_grn.gate_norm.glu.fc.weight f4 [12, 6]
000000 5b 90 3f 3d 3a 4c 43 bf 9a 36 a8 bd 59 a0 a8 3e
       0.046768527 -0.7628819 -0.082135394 0.32934836
000010 ee 80 c4 be 8e d0 c3 bd 0e 1f eb 3e 55 b2 02 3f
       -0.38379616 -0.09561263 0.4592213 0.51053363
000020 51 90 49 bf 84 e1 53 bf be 79 c9 3e 9b 9e 58 bf
       -0.78735834 -0.82765985 0.39350694 -0.8461701
000030 a1 42 cb 3e bc a2 dd 3e ef fc 09 3e 52 c8 0b 3e
       0.3969927 0.4328822 0.13475393 0.13650635
000040 28 7b 94 be 85 84 4d 3e 28 ca 8c 3c 03 b2 2b bf
       -0.2900021 0.20070083 0.01718624 -0.670685
000050 94 b9 f5 3e 7b 4d 6f bd 29 73 b2 bd 18 4b 4a 3e
       0.47993147 -0.0584235 -0.08713371 0.19755208
000060 01 e4 42 3d 38 d0 81 be eb bf 04 3e 98 e6 ad 3d
       0.047580723 -0.2535417 0.12963836 0.08491248
000070 62 36 06 be cd 8b 9f be 2d bb f4 bd db de 89 be
       -0.13106683 -0.31161347 -0.119497634 -0.26927838
000080 a7 aa ee 3e 69 f9 33 3f 42 59 b8 3e 75 10 39 bd
       0.46614572 0.70302445 0.36005598 -0.04518171
000090 62 73 ef 3d 37 d3 0f 3f 4a 4c d2 be 86 5d ed 3d
       0.116919294 0.56181663 -0.4107383 0.11590104
0000a0 22 a9 51 be ce ed a0 be 01 13 15 3f c0 c5 c5 3e
       -0.20474675 -0.3143143 0.5823212 0.38627434
0000b0 8e 24 c4 bb a3 fb fe be 00 d0 10 3f 5f 31 1c bd
       -0.005985803 -0.4980136 0.5656738 -0.03813302
0000c0 df 88 10 3e fd 2a 0b bf c3 79 d2 3d c7 a1 be 3e
       0.14114712 -0.5436247 0.102771305 0.372328
0000d0 17 71 ae be 3f b3 25 3e 1b ec 33 3e c3 da bd 3e
       -0.34070656 0.16181658 0.17570536 0.37080964
0000e0 b7 0d 9b 3d e4 ba e7 bd a9 f4 1b 3d ba e7 01 bf
       0.07570975 -0.113149434 0.038075123 -0.5074421
0000f0 2b 83 9e 3d c6 22 fa bc fe 31 89 3e 0e e6 7c bc
       0.07739862 -0.03053416 0.26795954 -0.015435709
000100 ba a0 f0 3e a3 42 cd be f5 77 57 be e3 51 b2 3d
       0.46997625 -0.40089902 -0.21041854 0.08707025
000110 0f e0 f1 3e 96 4c f0 be 2f c1 31 3e 17 5c 2b be
       0.47241256 -0.4693343 0.1735885 -0.16734348
