ml/best_model/version_35/checkpoints/epoch=32-step=1650.ckpt (torch, 652488 bytes, 946 tensors)

input_embeddings.embeddings.TEAM_ID.weight f4 [30, 11]
0	0xb8ca2e40	-9.640725e-05
1	0x3d917b4c	0.07103595
2	0x3d1b3c5c	0.03789936
3	0x3eb2b48a	0.34903365
4	0xc01808e8	-2.3755436
5	0xbead3fa8	-0.33837628
6	0x3f0ce6a4	0.5503943
7	0xbf67239e	-0.9028872
8	0x3dbe4476	0.09290402
9	0x3f10a2ce	0.5649842
10	0xbe36c6d6	-0.17849287
11	0x3da29316	0.07938211
12	0xbe66174b	-0.22469823
13	0x3fd39b5c	1.6531787
14	0xbf00aeae	-0.5026654
15	0xbf62508e	-0.88404167
16	0x3dbe4e79	0.09292311
17	0xc023d98c	-2.560153
18	0x3f7bc983	0.9835436
19	0x3f6e2c8a	0.9303671
20	0x3dc5a9d0	0.0965153
21	0xbeb15437	-0.34634563
22	0xbebe0e6c	-0.37120378
23	0xbf86ca3c	-1.0530467
24	0x3f02e350	0.511281
25	0x3eae5dae	0.34055847
26	0x3f2e560f	0.68100065
27	0xbd4b1640	-0.049581766
28	0x3fee12bb	1.8599466
29	0x3fadcc12	1.3577902
30	0xbf047a3c	-0.51749015
31	0xbdef6e83	-0.11691
32	0xbf0db10d	-0.55348283
33	0x3f7e2e7b	0.99289674
34	0x3f121144	0.57057595
35	0x3e179ef8	0.14806736
36	0x3e928d46	0.28623408
37	0xbfbbdc1c	-1.4676547
38	0xbf191ee0	-0.59812737
39	0xbff3410e	-1.9004228
40	0x3e60aa2a	0.21939912
41	0xbf9277f4	-1.1442857
42	0xbfcf1166	-1.6177185
43	0x3f2d61fa	0.67727625
44	0xbf8bd91a	-1.0925629
45	0x3e458dc7	0.19292365
46	0xbface84f	-1.3508395
47	0x3f939916	1.1531093
48	0xbed12209	-0.4084628
49	0x3f8ceba8	1.1009417
50	0xbf548c6e	-0.8302678
51	0x3ed8219c	0.42213142
52	0xbeafbeaf	-0.34325168
53	0xbeff72fd	-0.49892417
54	0xbf0cf38f	-0.5505914
55	0xbf6566ae	-0.896098
56	0x3f0acc24	0.54217744
57	0x3f9b64ac	1.2140098
58	0xbe593ee1	-0.21215393
59	0xbe438607	-0.19094096
60	0x3f886f95	1.0659052
61	0x3e8057ac	0.25066888
62	0xbfc1cf66	-1.5141418
63	0x3ed99ef5	0.42504087
64	0xbe061691	-0.13094546
65	0x3fd35990	1.6511707
66	0x3f413d48	0.7548413
67	0x3f745257	0.9543814
68	0xbfc19106	-1.5122383
69	0xbe3d2b2b	-0.18473499
70	0xbeb8317c	-0.35975254
71	0xbf6c569e	-0.9231967
72	0xbe5f2bb4	-0.21794015
73	0xbfdd0f70	-1.7270336
74	0x3fa523b4	1.2901521
75	0xbf6c92a3	-0.9241125
76	0xbfdce876	-1.7258441
77	0xbfcfea04	-1.6243291
78	0xbf0625d0	-0.5240145
79	0x3e3edeca	0.18639675
80	0x3b862cc6	0.004094693
81	0xbea24892	-0.31695992
82	0x3f90603a	1.1279366
83	0x3fc454bf	1.5338362
84	0xbe3ce987	-0.18448459
85	0x3d0ed670	0.034872472
86	0xbe1156ca	-0.14193264
87	0xbf61d3ac	-0.8821361
88	0xbfb729b1	-1.4309598
89	0xba50bf08	-0.0007963036
90	0xbf8acea8	-1.0844316
91	0x3fd0d08f	1.6313647
92	0x3f0fbee7	0.5615067
93	0x3d856740	0.06513834
94	0xbbabec70	-0.0052466914
95	0xbf47637e	-0.7788619
96	0x400979ca	2.1480584
97	0x3f24f282	0.6443254
98	0x3e5ce44a	0.2157146
99	0x3f4d73a0	0.80254555
100	0x3f17b502	0.5926057
101	0x3fbedfab	1.4912008
102	0xbfb57248	-1.4175501
103	0xbe75bdb6	-0.2399815
104	0x400008ab	2.000529
105	0x3e9fb1be	0.31190294
106	0xbfb96d79	-1.4486533
107	0xbfb21e64	-1.3915524
108	0x3fbef498	1.4918394
109	0x3f6608be	0.8985709
110	0x3e8b0246	0.27150172
111	0xbe8ff08f	-0.2811322
112	0xbec36d26	-0.3816921
113	0xbea9b18a	-0.33143264
114	0xbf88df6a	-1.069318
115	0xbf3f3f44	-0.7470591
116	0xbee4b0c9	-0.44666126
117	0x3f075cce	0.52875984
118	0xbc9d6a0c	-0.019215606
119	0x3edbadd2	0.42906052
120	0xbedf2920	-0.43586063
121	0xbe4360c5	-0.19079883
122	0x3fb93abe	1.4471052
123	0xbef4bd4a	-0.47800666
124	0xbf68fdce	-0.91012275
125	0xbd02c5e0	-0.03192699
126	0x3f4874b2	0.7830306
127	0xbfbd7a04	-1.4802861
128	0x3f2c8c66	0.6740173
129	0x3fc1bd2e	1.5135858
130	0x3f8bf60c	1.0934463
131	0xbe3e24a0	-0.18568659
132	0xbdb57ff2	-0.08862294
133	0x3d6e18e0	0.05812919
134	0x3e600cfe	0.21879956
135	0xbfe1da0a	-1.7644665
136	0x3f50465e	0.8135737
137	0xbe8a375c	-0.2699536
138	0x3f8194a2	1.0123484
139	0xbf05388e	-0.5203942
140	0x3fae674c	1.3625274
141	0xbf8507c6	-1.0392997
142	0xbfa32d6a	-1.2748234
143	0x40140597	2.3128412
144	0xbf106a52	-0.5641223
145	0xbe83f87e	-0.25775522
146	0x3fbd3326	1.4781234
147	0xbf372818	-0.71545553
148	0x3f60a03b	0.8774449
149	0xbfa85bfc	-1.3153071
150	0x3e947ab0	0.28999853
151	0xbf71fd44	-0.9452708
152	0xbf5137f0	-0.8172598
153	0xbd03204e	-0.03201323
154	0x3f49ad58	0.78780127
155	0xbde01201	-0.10940934
156	0x3fdcccdf	1.7250022
157	0xbf6eeb2b	-0.9332759
158	0x3f239e60	0.63913536
159	0x3f4c566e	0.7981938
160	0xbf719b36	-0.9437746
161	0xbf0777c6	-0.52917135
162	0xbec19640	-0.37809944
163	0xbcc235a4	-0.023707218
164	0x3f53adf5	0.8268731
165	0x3f74352a	0.9539362
166	0x3f8ebdcd	1.1151673
167	0xbf4f3372	-0.80937874
168	0x3f19b4e8	0.60041666
169	0x3f18aade	0.5963572
170	0x3ee87156	0.45398968
171	0xbeaeb59e	-0.34122938
172	0xbedd4358	-0.43215442
173	0xbd73c72a	-0.05951611
174	0x3f7136c7	0.9422421
175	0x3f81ae96	1.0131404
176	0x3fb61328	1.4224596
177	0xbf54f62c	-0.8318813
178	0xbf3bd787	-0.73375744
179	0xbf860c14	-1.0472436
180	0x3f830334	1.0235353
181	0xbd802c6f	-0.06258475
182	0x403115c3	2.7669532
183	0x3bbce632	0.005764746
184	0xbf1474cf	-0.57990736
185	0x3fbce012	1.4755881
186	0x3d894180	0.06701946
187	0xbfbec7ac	-1.4904685
188	0xbe96508e	-0.29358333
189	0xbea32be8	-0.31869435
190	0xbdd01676	-0.10160534
191	0x3ee3fd9c	0.44529426
192	0x3f5ba8f4	0.85804677
193	0x3f29dc04	0.6635134
194	0x3f95ae95	1.1693903
195	0xbf9e1314	-1.2349572
196	0xbf9b9d74	-1.2157426
197	0x3ec60872	0.38678318
198	0xbe19b8ef	-0.15011953
199	0xc01f6678	-2.4906292
200	0x3ebf592c	0.3737272
201	0xbecab6a0	-0.39592457
202	0x3d65daa8	0.05611673
203	0xbef2123e	-0.47279543
204	0xbf944408	-1.1583261
205	0xbf37275f	-0.7154445
206	0x3f5886d2	0.8458072
207	0x3f394894	0.7237637
208	0xbf1565ee	-0.5835866
209	0x3e4e18e3	0.20126681
210	0x3d56d6c4	0.05245091
211	0xbf68993b	-0.9085881
212	0x3ec37a12	0.3817907
213	0x3fb1e85b	1.3899034
214	0x3f977c64	1.1834836
215	0x3f0f2d8c	0.55928874
216	0x3e5dca4c	0.21659201
217	0x3ff6339f	1.9234504
218	0xbd39ebd9	-0.045390937
219	0x3f2e9921	0.68202406
220	0xbdce8328	-0.1008361
221	0x3f39112e	0.7229184
222	0xbe5ae0c4	-0.21374804
223	0xbfdd970e	-1.7311723
224	0xbf012272	-0.50443184
225	0xbea5bb0e	-0.32369274
226	0x3dee8779	0.11646933
227	0x3dbab8cd	0.09117279
228	0xbf0c8ea1	-0.54905134
229	0xbefbc54a	-0.49173957
230	0x3f8fbad4	1.122889
231	0x3dbc1326	0.0918334
232	0xbf4cae27	-0.79953235
233	0xbe9891e1	-0.29798797
234	0xbfde2a9a	-1.7356751
235	0x3d2f1296	0.042742334
236	0xbeb2bc84	-0.3490945
237	0x3e7e1064	0.2481094
238	0x3fc9c5a8	1.5763445
239	0xbf362214	-0.7114575
240	0x3d3a4726	0.04547801
241	0xbefa7e77	-0.4892461
242	0x3ebf09c8	0.3731215
243	0xbed77c7e	-0.42087168
244	0xbfad927b	-1.3560327
245	0x3e497310	0.19672799
246	0x3f5889a8	0.84585047
247	0x3f98ca36	1.193671
248	0x3f55b372	0.83476937
249	0x3f9dc5ad	1.2325951
250	0xbf53a01f	-0.826662
251	0xbf05cfe2	-0.5227033
252	0xbf0235f7	-0.50863594
253	0xbf3305c0	-0.6993065
254	0xbf1af1b8	-0.60525084
255	0xbf0ddf6e	-0.5541905

input_embeddings.embeddings.SEASON_ID.weight f4 [42, 13]
0	0xbfdc54ea	-1.7213414
1	0x3ebffa60	0.37495708
2	0xbfaa4280	-1.3301544
3	0xbe840ee6	-0.25792617
4	0x3e78fa26	0.24314174
5	0xbce5a2b8	-0.028031692
6	0xbfe10ed7	-1.7582654
7	0x3e370561	0.17873146
8	0xbeb4965f	-0.35270974
9	0xbf0fcc0a	-0.56170714
10	0xbf3a4562	-0.7276212
11	0x3fb0e1d6	1.381892
12	0x3f1de6b4	0.6168015
13	0x3e467e80	0.19384193
14	0xbf758455	-0.9590505
15	0xbe5d3fcd	-0.2160637
16	0x3fe45330	1.7837887
17	0xbe8467e0	-0.258605
18	0xbfd03de5	-1.6268889
19	0xbed71e16	-0.4201514
20	0x3dbd73ba	0.09250589
21	0xbf274998	-0.6534667
22	0x3fdabe8c	1.70894
23	0x3e2e69d4	0.17032558
24	0x3f8fdab2	1.1238616
25	0x3f87aa89	1.0598918
26	0xbd153557	-0.036427822
27	0x3f623a94	0.88370633
28	0x3cfc1024	0.030769415
29	0xbf94c9d4	-1.1624093
30	0xbee0c757	-0.43902084
31	0x3e4f75af	0.20259736
32	0xbffadbda	-1.9598343
33	0xbf984a49	-1.189767
34	0x3ff56b8a	1.9173443
35	0x3fa5112a	1.2895863
36	0x3f1af13b	0.6052434
37	0x3f3a26b0	0.7271528
38	0x3ee0292d	0.43781415
39	0x3f134c2e	0.57538116
40	0x3f5e40f2	0.8681785
41	0xbe67a79c	-0.22622532
42	0xbf9810b7	-1.1880101
43	0xbf0cac14	-0.5495007
44	0x3f6e208a	0.930184
45	0xbef9949e	-0.48746198
46	0xbf59b55f	-0.85042375
47	0xbf9f99fa	-1.2468865
48	0x3f959b74	1.1688066
49	0x3e5bfcf8	0.21483219
50	0x3f1a67b8	0.6031451
51	0xbf9df59f	-1.2340583
52	0xbd244920	-0.0401088
53	0x3f44cbb8	0.7687335
54	0x3f8d8a44	1.105782
55	0x3ef13f6c	0.471187
56	0xbefbb8d2	-0.49164444
57	0x3ddc12f6	0.10745804
58	0xbeeec312	-0.46633202
59	0xbf3f1434	-0.746402
60	0xc01f482e	-2.4887805
61	0x3f091796	0.53551614
62	0xbed81736	-0.4220521
63	0x3fc44ab2	1.5335295
64	0xbdd50e6e	-0.10403143
65	0xbd0ea069	-0.034820948
66	0x3f818ba6	1.0120742
67	0xb9a06553	-0.0003059307
68	0x3fdcef29	1.7260486
69	0x3e137e3e	0.14403626
70	0x3e288420	0.16456652
71	0x3f3dc0fd	0.741226
72	0xbe80f4a6	-0.25186652
73	0xbf6c9d3a	-0.9242741
74	0x3fa1f366	1.2652404
75	0x3b39812a	0.0028305748
76	0x3f4a1a7e	0.78946674
77	0xbf343e54	-0.70407605
78	0x3f06be0e	0.5263375
79	0x3fee8488	1.8634195
80	0x3ee150fa	0.44007093
81	0xbfa27d6c	-1.2694526
82	0x402bd59e	2.6849132
83	0x3f6d21d2	0.9262973
84	0xbc788748	-0.015168972
85	0xbf379dea	-0.7172533
86	0xbf95bad2	-1.1697638
87	0x3f2f34b4	0.68439794
88	0x3ece2460	0.40262127
89	0x3fbc7b0e	1.4725053
90	0x3e9ef0f1	0.310432
91	0x3f9bf8f6	1.2185352
92	0xbe0fe9d3	-0.1405404
93	0x3fcff002	1.624512
94	0x3e8edb4a	0.2790168
95	0x3fb93e6a	1.4472172
96	0xbf39c012	-0.725587
97	0xbfc92a7a	-1.5716088
98	0xbf09afbe	-0.53783786
99	0xbf033cba	-0.51264536
100	0xbf8a39ee	-1.0798929
101	0x3ed907b6	0.42388695
102	0xbe72abda	-0.23698369
103	0x3f60636d	0.8765171
104	0xbdb4fc90	-0.08837235
105	0xbf6344f2	-0.8877708
106	0x3d957c3c	0.072990865
107	0xbf113e18	-0.5673537
108	0xbe803192	-0.2503782
109	0xbf34cc42	-0.7062417
110	0xbfe965d8	-1.8234205
111	0x3eed686d	0.46368733
112	0xbf0bdb0b	-0.5463111
113	0x3f8b69bc	1.0891643
114	0x3fc13dce	1.5096986
115	0xbf1b3959	-0.6063438
116	0xbdcc64b7	-0.09980147
117	0xbfa94024	-1.3222699
118	0xbee082b4	-0.4384972
119	0xbd26242e	-0.040561847
120	0xbddf67b0	-0.10908449
121	0x3dd7ab4e	0.10530721
122	0x3f20704c	0.6267135
123	0x3e0224cc	0.1270935
124	0x3e356b34	0.17716676
125	0xbe25de10	-0.16197991
126	0x3fa1e622	1.2648356
127	0xbebe1f19	-0.371331
128	0x3f935774	1.1511064
129	0xbf2b0f4a	-0.66820204
130	0x3fc6df5a	1.5536911
131	0xbeb12304	-0.34597027
132	0x3e5c0cc6	0.21489248
133	0xbfacff26	-1.3515365
134	0x3e49ba22	0.1969991
135	0x3fc1eafd	1.5149838
136	0x4042f96f	3.0464742
137	0xbf22ed22	-0.63643086
138	0xbf9bbe50	-1.2167454
139	0x3d24f0f6	0.04026886
140	0x3f1d303a	0.6140171
141	0xbe497606	-0.19673929
142	0x3d78650e	0.06064325
143	0x3f17da1a	0.5931717
144	0xba98dd32	-0.0011662601
145	0x3e83c248	0.25734162
146	0xbfbd9e0c	-1.4813857
147	0xbf3121cc	-0.69192195
148	0x3f37a7f2	0.7174064
149	0xbf141a56	-0.57852685
150	0xbf72e634	-0.9488251
151	0x3e91f8de	0.28510183
152	0x3f94b2f7	1.1617116
153	0xbe04c9e1	-0.12967636
154	0xbf43de84	-0.76511407
155	0xbf184b76	-0.59490144
156	0x3fb622ea	1.4229405
157	0x3fa089ac	1.2542014
158	0x4053f1ff	3.3116453
159	0xbdcec317	-0.10095804
160	0x3fccc605	1.5997931
161	0x3f3a12d1	0.7268496
162	0xbfca8688	-1.5822306
163	0xbe2f9512	-0.1714671
164	0x3fa4c464	1.2872434
165	0x3e421e74	0.1895693
166	0xbfe3f026	-1.7807662
167	0xbf6becfa	-0.9215847
168	0xbf250beb	-0.6447131
169	0xbe8f20e6	-0.27954787
170	0x3e82e8ba	0.2556818
171	0x3f72a18c	0.9477775
172	0xbff951d6	-1.9478099
173	0x3f8e3ec8	1.1112909
174	0xbe99bd4a	-0.3002723
175	0xbee95ae7	-0.45577165
176	0x3e5452f0	0.20734763
177	0x3eb9b8a4	0.36273682
178	0x3f42893c	0.75990653
179	0x3f4d60d8	0.80225897
180	0x3f3465d6	0.7046789
181	0x3f8ccedc	1.1000628
182	0xbeee087f	-0.46490857
183	0x3dd2187c	0.10258576
184	0xbf52e21d	-0.8237627
185	0x3ffe7170	1.9878368
186	0xc0056992	-2.0845685
187	0xbf06ce05	-0.5265811
188	0x3f5bcfc4	0.858639
189	0xbf6caef0	-0.92454433
190	0x3d0db23c	0.034593806
191	0xbffdd1da	-1.9829667
192	0xbf5b4e5b	-0.85666436
193	0x3fa3e005	1.280274
194	0x3b3922ff	0.002824962
195	0x3e837a36	0.25679177
196	0x3e0085ea	0.12551084
197	0x3f480b10	0.7814188
198	0x3fb2e630	1.3976498
199	0x3f113d59	0.56734234
200	0x3fb03338	1.3765631
201	0x3e067ee7	0.13134347
202	0x3e8ad930	0.27118826
203	0x3dd0c96a	0.10194667
204	0xbeb54015	-0.35400453
205	0xbf9e43e0	-1.2364464
206	0x3e097e73	0.13427143
207	0x3f2257e0	0.63415337
208	0x3f970272	1.1797621
209	0xbfadc810	-1.3576679
210	0x3eb065f3	0.3445278
211	0xbf8b96ca	-1.0905392
212	0x3e22f1bb	0.15912525
213	0xbe7a1b93	-0.24424581
214	0x3eee4405	0.4653627
215	0x3f7b8e39	0.9826389
216	0x3eca9b1f	0.39571473
217	0xbf8f6610	-1.1203022
218	0x3fd7916e	1.6841257
219	0x3e868c98	0.2627914
220	0xbe7f8fca	-0.24957195
221	0xbe0114a7	-0.12605534
222	0x3ecf82f0	0.40529585
223	0x3fe806d2	1.8127081
224	0x3fd430d8	1.6577406
225	0xbf7252c2	-0.9465753
226	0xbdb02180	-0.086001396
227	0xbf573747	-0.8406872
228	0x3e31bc00	0.17356873
229	0xbe97e0fa	-0.2966383
230	0x3d9d0e4e	0.07668744
231	0x3f8606ff	1.0470885
232	0xbe899716	-0.26873082
233	0xbfbb7b52	-1.4647009
234	0x3dfff8a0	0.12498593
235	0xbfc9c921	-1.5764505
236	0x3e98ca50	0.29841852
237	0xbf234dba	-0.63790476
238	0xbcf8ac00	-0.030355453
239	0x3e76a279	0.24085416
240	0xc013cb14	-2.30927
241	0xc03a399e	-2.9097667
242	0xbf4c0c38	-0.79706144
243	0x3eeb12c4	0.45912755
244	0xbeae9ad8	-0.3410251
245	0xbf5dc074	-0.86621785
246	0x3e84bc8c	0.259251
247	0x3f021e1c	0.50827193
248	0xbfa37f84	-1.277329
249	0x3f39c404	0.7256472
250	0xbf2dd90a	-0.679093
251	0xbfb4f7fd	-1.413818
252	0x3eeba15c	0.46021545
253	0xbf2e5436	-0.68097246
254	0xbf8213b2	-1.016226
255	0x3f6f175a	0.93395007

input_embeddings.embeddings.OPPONENT_ID.weight f4 [30, 11]
0	0xbf9700be	-1.1797101
1	0xbdb083e0	-0.08618903
2	0xbf5fb9a1	-0.8739262
3	0xbf381eb1	-0.7192183
4	0x3eb89b6d	0.3605608
5	0xbe5a88cc	-0.21341246
6	0x3f1d4592	0.6143428
7	0x3f093f49	0.5361219
8	0x3f22bc93	0.6356899
9	0xbf413439	-0.7547031
10	0xbed0ac9d	-0.40756693
11	0xbe0360d8	-0.12829912
12	0x3f2ab1c9	0.6667753
13	0x3d52e141	0.05148435
14	0xbf6fc52a	-0.93660223
15	0xbe0b6e63	-0.13616328
16	0xbf51bbd4	-0.8192723
17	0xbf874026	-1.0566452
18	0xbc5ea98a	-0.013590226
19	0xbf2629ef	-0.64907736
20	0xbfd660c2	-1.6748278
21	0x3f2fb58d	0.686364
22	0xbe3134c8	-0.1730529
23	0x3fdaaf72	1.7084792
24	0x3e9e531c	0.30922782
25	0xbeb4c9b8	-0.3531015
26	0xbf0609fe	-0.52358997
27	0xbe13964e	-0.14412805
28	0xbfb38394	-1.402453
29	0x3fceb45d	1.6148793
30	0xbfbe9c66	-1.4891479
31	0x3e16a647	0.14711867
32	0xbf005130	-0.5012388
33	0x3f838e00	1.027771
34	0xbf89692d	-1.0735222
35	0x3e9ee8b0	0.310369
36	0x3e83dff2	0.25756794
37	0x40143bbc	2.316146
38	0x3f84d7d8	1.037837
39	0x3c09cdb0	0.008410856
40	0x40188a7e	2.383453
41	0xbe95eccf	-0.29282233
42	0xbec62879	-0.38702753
43	0x3e8422cd	0.258078
44	0xbfdd0d99	-1.7269775
45	0x3f8773be	1.0582197
46	0xbf222eec	-0.6335285
47	0x3ff8ea4c	1.9446502
48	0x3fc2949f	1.5201606
49	0xbfb23e08	-1.392518
50	0xbe1959b4	-0.14975625
51	0xbfaf0e3e	-1.3676221
52	0x3ff439ce	1.908014
53	0xbecbc425	-0.39798084
54	0xbf8e596c	-1.1121039
55	0x3e5f717f	0.21820639
56	0xbe0d2778	-0.13784587
57	0x3ee1ab2a	0.440759
58	0xbf4db40b	-0.8035285
59	0xbea04593	-0.3130308
60	0xbf90b4fc	-1.1305232
61	0xc0387552	-2.8821607
62	0xbfaa9e39	-1.3329536
63	0x3bae1c6d	0.005313447
64	0x401b6693	2.4281356
65	0xbf5e6d2a	-0.8688532
66	0x3f52dda1	0.8236943
67	0x3ff46b31	1.9095212
68	0x3f67a11f	0.90480226
69	0x3f764cac	0.9621074
70	0xbf2ad036	-0.66723955
71	0x3f4f0c6e	0.8087834
72	0xbf16f7c7	-0.5897183
73	0x3fe34b51	1.775736
74	0x3f9b05d4	1.2111154
75	0xbf501f9b	-0.81298226
76	0x3e862cf4	0.26206172
77	0xbfa1e07c	-1.2646632
78	0xbe5603b3	-0.20899849
79	0xbe25f7a7	-0.16207753
80	0x3f18b0dd	0.5964487
81	0x3e9e20c7	0.30884382
82	0xbf5ef06e	-0.87085617
83	0x3fef8a82	1.8714144
84	0xbf3a0852	-0.72668946
85	0x3f00c6e1	0.50303465
86	0xbdbe5446	-0.09293418
87	0xbe31eebd	-0.17376228
88	0x3eda4b34	0.426355
89	0xbf225c58	-0.63422155
90	0xbec2e65a	-0.3806637
91	0xbfc2ffd3	-1.5234321
92	0x3ef05ef4	0.46947443
93	0xbfb4bfe4	-1.412106
94	0x3eba00de	0.36328787
95	0xbfc64614	-1.5490136
96	0xbf7f036a	-0.99614584
97	0x3f191356	0.5979513
98	0x3f107d6e	0.5644139
99	0xbf166f5a	-0.5876366
100	0xc0190241	-2.3907626
101	0xc0394841	-2.895035
102	0x3fadeb3c	1.3587413
103	0xbf549bdc	-0.8305032
104	0x3f81f924	1.0154157
105	0xbc7ef8c5	-0.015562241
106	0xbefb628a	-0.49098617
107	0x3fe0a278	1.7549582
108	0xbfdd546e	-1.7291391
109	0xbf463114	-0.7741864
110	0xbf2e0380	-0.6797409
111	0xbd9db679	-0.077008195
112	0xbfd26998	-1.6438475
113	0xbf828362	-1.0196345
114	0xbcad5844	-0.021160252
115	0x3e5e4406	0.21705636
116	0xbe3d8bba	-0.18510333
117	0x3fd63b1e	1.6736791
118	0x3f4b9968	0.79530954
119	0xbf0b9544	-0.54524636
120	0x3ea35722	0.31902415
121	0x3f9a4df7	1.2055043
122	0x3e58e22e	0.2118003
123	0xbfb25f48	-1.3935328
124	0x3f8cfbda	1.1014359
125	0x3f249e18	0.6430373
126	0xbf607cd4	-0.8769047
127	0x3f41fe3e	0.7577857
128	0x3fa25613	1.2682518
129	0xbf8180ae	-1.0117395
130	0xbfe9914f	-1.824747
131	0x3ec0376e	0.3754229
132	0xbf10510a	-0.56373656
133	0x3fad965f	1.3561515
134	0xbf179a38	-0.59219694
135	0x3d3dece2	0.046368487
136	0xbfbeea80	-1.4915314
137	0xbf7fa985	-0.9986804
138	0x3f6c4f9c	0.92308974
139	0x3dc67885	0.09690956
140	0xbea9377c	-0.33050144
141	0xc001b72c	-2.026805
142	0xbe4fc144	-0.20288569
143	0x3fe222f2	1.7666914
144	0x3e218982	0.15775111
145	0xc006eb7b	-2.1081226
146	0x3e29181d	0.16513105
147	0xbf12352e	-0.57112396
148	0xbef6ceae	-0.4820456
149	0x3f345bf0	0.70452785
150	0x3fb4d78a	1.4128277
151	0x3fc96e7d	1.5736843
152	0xbebeb2a6	-0.37245673
153	0xbf40e8e4	-0.7535536
154	0x3de7542d	0.11295352
155	0x400ecfe2	2.2314382
156	0x3f84ff34	1.0390382
157	0xbff33f35	-1.9003664
158	0xbef16ac1	-0.4715176
159	0xbe38d28a	-0.18049064
160	0x3f82b0c1	1.0210191
161	0x3f186f2a	0.5954462
162	0x3f649594	0.8929074
163	0x3f2a920e	0.6662911
164	0xbfaecc50	-1.3656101
165	0x3ffbf378	1.9683676
166	0x3db0c6ac	0.08631644
167	0xbf315472	-0.6926948
168	0xbee11e94	-0.43968642
169	0x3fed3f8e	1.853502
170	0xbedd9c7d	-0.43283454
171	0x3ffc9174	1.9731889
172	0x3a7efb1f	0.0009726751
173	0x3fbed2f4	1.4908128
174	0xbc138f1c	-0.009006288
175	0xbdea549e	-0.11441921
176	0xbe30c316	-0.1726192
177	0x3ed545a8	0.41654706
178	0x3f4953c3	0.78643435
179	0x3ede740c	0.43447912
180	0x3f7848e0	0.969862
181	0x3f04f931	0.51942736
182	0x3e9ee096	0.3103072
183	0xbff5fc4c	-1.921762
184	0x3fe01594	1.7506585
185	0x3eeef834	0.4667374
186	0x3ea7d8be	0.3278255
187	0xbfabdbdc	-1.3426471
188	0x3fa20e44	1.2660604
189	0x3f884f7d	1.0649258
190	0x40121c6c	2.2829847
191	0x3ed45a31	0.4147506
192	0x3fbd45d6	1.4786937
193	0xbcbae658	-0.022814915
194	0xbf9ff755	-1.2497355
195	0xbfd32e0c	-1.6498427
196	0xbdce971a	-0.10087414
197	0x3defa840	0.11702013
198	0x3e3e8e7e	0.18609044
199	0x3faa0f7c	1.3285975
200	0x3e5639a4	0.20920426
201	0x3fd615e2	1.6725428
202	0x3fd8e9df	1.6946372
203	0xbf77a69d	-0.96738607
204	0x3f851027	1.0395554
205	0xbf9fed49	-1.2494289
206	0xbf8daf98	-1.1069212
207	0xbfa37804	-1.2771001
208	0x40364cbc	2.8484335
209	0xbe3ab528	-0.18233168
210	0x3eb622e4	0.35573494
211	0x3ebb724e	0.36610645
212	0x3f56ab94	0.8385556
213	0xbfa12fde	-1.2592733
214	0xbf70f4e2	-0.9412366
215	0xbe792249	-0.24329485
216	0x3f367104	0.712662
217	0x3f507385	0.8142627
218	0xbc14ed3a	-0.009089762
219	0xc08b3b68	-4.3510017
220	0x3f26b184	0.6511462
221	0x3f8a8ce6	1.0824249
222	0xbf0a928d	-0.5412987
223	0x3e3524fb	0.17689888
224	0x3f87c046	1.0605552
225	0xbeb121b3	-0.34596023
226	0xbf3d5476	-0.73957
227	0xbece5608	-0.40300012
228	0x3e97e5b4	0.29667437
229	0x3f22902e	0.6350125
230	0x3fa7ca7e	1.3108671
231	0x3fc5c958	1.545207
232	0x3fcbc774	1.5920243
233	0xbfdca40c	-1.7237563
234	0xbd681a22	-0.056665547
235	0xbed68ffb	-0.41906723
236	0xbfe5baa6	-1.7947586
237	0xbd4ac366	-0.049502753
238	0xbbed7b3f	-0.007247358
239	0x3de4eda9	0.111781426
240	0xbf93e5ba	-1.1554482
241	0x3f3ecd18	0.745317
242	0x3eca7acc	0.39546812
243	0xbef712fe	-0.48256677
244	0xbf46968d	-0.7757347
245	0x3f4450be	0.766857
246	0x3e850f0f	0.2598805
247	0xbf43d7c3	-0.765011
248	0x3ec2448f	0.3794293
249	0xbe786deb	-0.2426068
250	0xbf1cf0b8	-0.6130481
251	0x3a049784	0.0005057978
252	0xbf84d8a4	-1.0378613
253	0xbf6c2df2	-0.92257607
254	0x3fceb310	1.6148396
255	0xbdcd0c0e	-0.10012065

input_embeddings.embeddings.is_home.weight f4 [2, 1]
0	0xbf499920	-0.78749275
1	0x3f507b4b	0.8143813

input_embeddings.embeddings.day_of_week.weight f4 [7, 5]
0	0xbec559fc	-0.38545215
1	0x3e234f50	0.15948224
2	0x3fa7a2ce	1.3096559
3	0x3f0c2d28	0.547564
4	0xbf76ca12	-0.96402085
5	0xbee30df6	-0.4434659
6	0x3d68797a	0.056756474
7	0x3f6dd61b	0.92904824
8	0xbd4c77f2	-0.049919076
9	0x3f756672	0.95859444
10	0xbf364762	-0.7120267
11	0xbd48bd50	-0.049008667
12	0x3ef1c0c0	0.4721737
13	0xbea8f024	-0.32995713
14	0x3ea47e9e	0.3212785
15	0xbf0cf944	-0.5506785
16	0xbf0bdff3	-0.54638594
17	0x3e2a2c6f	0.16618513
18	0xbf04896f	-0.5177221
19	0x3f457b54	0.7714131
20	0xbd97d6e7	-0.07414036
21	0x3f94e27a	1.1631615
22	0x3f5e4064	0.86817
23	0xbf38ed35	-0.7223695
24	0xc01d3248	-2.456194
25	0x3e73a232	0.23792341
26	0xbf874424	-1.056767
27	0x3f78e60e	0.97226036
28	0xbf43fa04	-0.7655337
29	0x3eba0686	0.36333102
30	0xbf45c33e	-0.7725104
31	0xbf3612e8	-0.711226
32	0x400155e4	2.0208673
33	0xbd323f18	-0.043517202
34	0x3fba3c1c	1.4549594

input_embeddings.embeddings.WL.weight f4 [2, 1]
0	0xbe01d7fd	-0.12680049
1	0x3f47547a	0.77863276

prescalers.encoder_length.weight f4 [8, 1]
0	0x3dc87a00	0.09788895
1	0xbf3b91e6	-0.732695
2	0xbf4f8e82	-0.81076825
3	0x3f6ce396	0.9253477
4	0x3f575a82	0.8412248
5	0x3f3439ac	0.704005
6	0x3f01f09a	0.50757754
7	0xbebc2af0	-0.3675151

prescalers.encoder_length.bias f4 [8]
0	0x3eea3375	0.45742384
1	0xbf71deba	-0.9448048
2	0xbf02a253	-0.5102894
3	0xbf5f713e	-0.8728217
4	0xbed9ee8b	-0.42564806
5	0x3e9b35d6	0.3031451
6	0xbdaf3871	-0.08555687
7	0x3f82265a	1.0167954

prescalers.time_idx.weight f4 [8, 1]
0	0xbf433a48	-0.76260805
1	0xbda6e340	-0.08148813
2	0x3f589be6	0.8461288
3	0x3eee0c5c	0.46493804
4	0x3f2de34c	0.6792495
5	0x3eaccfdc	0.33752334
6	0xbeb0b8ec	-0.34516084
7	0xbf0d74da	-0.55256426

prescalers.time_idx.bias f4 [8]
0	0xbf37f1b6	-0.71853197
1	0xbf46a191	-0.7759028
2	0xbf128cc0	-0.5724602
3	0x3f5a4c44	0.8527262
4	0x3f684630	0.907321
5	0x3f044962	0.51674473
6	0xbf74ff7c	-0.9570234
7	0xbf10e04c	-0.5659225

prescalers.opponent_WL_rolling_avg.weight f4 [8, 1]
0	0x3e67f950	0.22653699
1	0x3e366398	0.1781143
2	0x3f66d472	0.90167916
3	0xbf715ba0	-0.94280434
4	0xbef4cb30	-0.4781127
5	0x3f4857bc	0.7825887
6	0x3f7e9550	0.9944658
7	0xbf53123a	-0.82449687

prescalers.opponent_WL_rolling_avg.bias f4 [8]
0	0x3dbd1349	0.09232194
1	0x3ebbcba4	0.36678803
2	0xbf43f5a9	-0.7654672
3	0xbedefc15	-0.43551698
4	0x3f127446	0.5720867
5	0xbe219f47	-0.15783416
6	0xbea04994	-0.31306136
7	0x3e07fe84	0.13280684

prescalers.relative_time_idx.weight f4 [8, 1]
0	0xbf61307a	-0.87964594
1	0x3f06857a	0.5254742
2	0x3e902168	0.28150487
3	0xbe777f38	-0.24169624
4	0xbe545e50	-0.20739102
5	0x3f356d14	0.70869565
6	0xbd47bd00	-0.04876423
7	0x3eb43920	0.35199833

prescalers.relative_time_idx.bias f4 [8]
0	0x3e69416b	0.22778861
1	0xbe4294fe	-0.19002149
2	0x3e751559	0.23933925
3	0xbf2e18ed	-0.68006784
4	0xbeafa476	-0.3430516
5	0x3f7ff62b	0.99985
6	0xbf23a0bc	-0.63917136
7	0xbd87fc92	-0.06639971

static_variable_selection.flattened_grn.resample_norm.mask f4 [4]
0	0x3e61a716	0.22036394
1	0xbe44c31a	-0.1921505
2	0x3e850034	0.25976717
3	0x3d1d03fa	0.03833387

static_variable_selection.flattened_grn.resample_norm.norm.weight f4 [4]
0	0x3ffb7ac4	1.964684
1	0x3f6ae977	0.9176249
2	0x3f70ee6b	0.94113797
3	0x3f39c0cb	0.72559804

static_variable_selection.flattened_grn.resample_norm.norm.bias f4 [4]
0	0x3e168f48	0.14703095
1	0xbe8dbe66	-0.27684325
2	0xbe168c70	-0.1470201
3	0x3e437a2c	0.19089574

static_variable_selection.flattened_grn.fc1.weight f4 [4, 43]
0	0xbd88e0f6	-0.06683533
1	0xbe017025	-0.12640436
2	0xbdcedcda	-0.10100718
3	0xbe760fb2	-0.24029425
4	0x3d80ceae	0.06289421
5	0x3d0fabf2	0.03507609
6	0x3cf78703	0.030215746
7	0x3ea9a34e	0.33132404
8	0x3d9c0b9c	0.07619402
9	0x3dd9828c	0.10620603
10	0x3d57f541	0.052724127
11	0x3e503162	0.20331338
12	0x3dda7f02	0.10668756
13	0xbe6497c0	-0.22323513
14	0xbceda375	-0.029008606
15	0x3e200c08	0.1562959
16	0x3e55c68c	0.20876521
17	0x3ea75cf0	0.32688093
18	0x3d2c8181	0.042115692
19	0xbd94b6fa	-0.072614625
20	0x3edf578a	0.43621475
21	0xbce828ec	-0.028339826
22	0xbe2350b9	-0.15948762
23	0xbdfbb54c	-0.12290439
24	0xbcabeeea	-0.020987947
25	0xbd7e7adc	-0.062128887
26	0x3e18c6b4	0.14919549
27	0xbd6a5554	-0.05721028
28	0x3e79bdbd	0.24388786
29	0xbc38832a	-0.011261741
30	0xbdca911c	-0.09890959
31	0xbca860d6	-0.020553987
32	0x3f588bbc	0.8458822
33	0xbe04e4d2	-0.12977913
34	0xbed6ca17	-0.41951057
35	0xbe86eed8	-0.26354098
36	0x3ef0af00	0.47008514
37	0x3f03cc94	0.51484036
38	0xbdc282a7	-0.09497576
39	0xbe5214c0	-0.20515728
40	0x3c896089	0.016769664
41	0xbec00db3	-0.37510452
42	0xbee19ff7	-0.44067356
43	0xbed50bd9	-0.41610602
44	0x3c0a42eb	0.008438806
45	0xbeaa6a1a	-0.33284074
46	0x3ed66b8a	0.4187892
47	0x3da9cbc4	0.08290818
48	0x3ea3fb82	0.32027823
49	0xbde61f84	-0.1123648
50	0x3eb79352	0.35854584
51	0x3ea5ee0a	0.32408172
52	0x3e7669fe	0.2406387
53	0x3df846fa	0.12122913
54	0xbe8d12a3	-0.2755328
55	0x3eb99c40	0.36252022
56	0xbec760bc	-0.3894099
57	0xbccf89e6	-0.02533431
58	0x3ec8eef8	0.3924482
59	0xbe35e05c	-0.17761368
60	0xbdbcc71a	-0.09217663
61	0x3ce3919d	0.027779395
62	0xbe98fb54	-0.29879248
63	0x3ed38266	0.41310424
64	0x3db797ed	0.089645244
65	0x3d6bd060	0.05757177
66	0x3db73762	0.0894611
67	0xbe9a40f0	-0.30127668
68	0xbdee03a4	-0.11621788
69	0x3d816f18	0.063200176
70	0xbec19c96	-0.37814778
71	0x3b9b1f14	0.0047339294
72	0xbde2de70	-0.11077583
73	0x3dd02b55	0.10164515
74	0xbdd88708	-0.1057263
75	0xbd776a6f	-0.060404237
76	0xbe9f05f6	-0.31059235
77	0xbe091d2c	-0.13390034
78	0xbea13d04	-0.31491864
79	0x3ec84789	0.39117077
80	0x3f1f628f	0.62259763
81	0x3eb945fe	0.36186212
82	0xbec41b1c	-0.38301933
83	0xbee90964	-0.45514977
84	0xbe4782ab	-0.1948344
85	0xbe1b3184	-0.15155607
86	0x3c880132	0.016602132
87	0xbf9524ce	-1.1651857
88	0x3d9a273a	0.07527013
89	0x3efa7e19	0.4892433
90	0xbede1c9f	-0.4338121
91	0xbece5ee4	-0.4030677
92	0xbe6c2a84	-0.23063093
93	0x3e6c13b4	0.23054391
94	0xbd28b60e	-0.041189246
95	0xbe520fd5	-0.20513852
96	0xbdf12128	-0.11773902
97	0x3d4019a8	0.046899468
98	0xbccffd74	-0.02538941
99	0xbdf78034	-0.12085
100	0xbf5795cc	-0.84212947
101	0x3d29341a	0.041309454
102	0xbeba18e8	-0.36347127
103	0x3ef2f415	0.47451845
104	0x3eddfa06	0.43354815
105	0x3eb667ab	0.35625967
106	0xbe855981	-0.2604485
107	0x3f644319	0.8916488
108	0xbde9ea69	-0.11421663
109	0x3f556357	0.83354706
110	0x3e3ae309	0.1825067
111	0xbd755c08	-0.05990222
112	0x3e5bebae	0.21476623
113	0x3f03c13a	0.51466715
114	0x3e690447	0.22755538
115	0x3e3ce3e2	0.18446305
116	0xbf0f4184	-0.55959344
117	0xbdd9ebbc	-0.10640666
118	0x3efb2b76	0.49056596
119	0x3e88c5c2	0.26713377
120	0xbee97207	-0.45594808
121	0x3d909c69	0.07061083
122	0xbe2c8bf0	-0.16850257
123	0x3d8e04ef	0.06934535
124	0xbcce8b64	-0.025212951
125	0xbe0323c9	-0.1280662
126	0xbdcc9322	-0.09989001
127	0x3d349b64	0.044093505
128	0xbe6f42c0	-0.23365307
129	0xbd9e113b	-0.0771813
130	0x3d8fcf1e	0.07021926
131	0x3e9bff38	0.30468154
132	0x3eb03c06	0.34420794
133	0xbcf3f221	-0.029778542
134	0xbeb00538	-0.34378982
135	0xbe6e7d42	-0.2328997
136	0x3f052b13	0.5201885
137	0x3e282fda	0.16424504
138	0x3d61db26	0.055140637
139	0xbebd6287	-0.36989233
140	0xbd3aaaf2	-0.045573182
141	0x3e2634ba	0.16231051
142	0xbf05b548	-0.5222974
143	0xbe5c77fe	-0.21530148
144	0xbe8b074a	-0.27154
145	0xbed1e9c3	-0.4099866
146	0x3efb0238	0.4902513
147	0x3efcaf96	0.4935271
148	0x3eedf0c0	0.4647274
149	0xbe39ecbf	-0.18156718
150	0x3e42ce72	0.19024065
151	0x3eccf55c	0.40030944
152	0xbd3e90e6	-0.046524905
153	0x3d0c2094	0.034210756
154	0xbe670a88	-0.22562611
155	0xbee89657	-0.454272
156	0xbe3e77c6	-0.18600377
157	0x3f1b0d50	0.6056719
158	0x3f5a1829	0.85193115
159	0xbecdd8a3	-0.40204343
160	0x3f4e197a	0.80507624
161	0x3e73812a	0.23779741
162	0xbe76404e	-0.24047968
163	0xbe1aac39	-0.1510476
164	0xbe8bad84	-0.2728082
165	0x3f17c9e3	0.5929243
166	0xbd67cf14	-0.05659397
167	0x3e1b3a45	0.15158947
168	0xbeb0e9d0	-0.34553385
169	0x3d9c13af	0.07620942
170	0xbeaeb8d1	-0.3412538
171	0xbf05c5dc	-0.52255034

static_variable_selection.flattened_grn.fc1.bias f4 [4]
0	0xbebd2a8c	-0.36946523
1	0xbe5584ce	-0.20851442
2	0xbe010e2a	-0.1260306
3	0xbea78832	-0.32721096

static_variable_selection.flattened_grn.fc2.weight f4 [4, 4]
0	0x3eb465e8	0.35233998
1	0x3fa13e3e	1.259712
2	0x3e11eaec	0.14249772
3	0xbfa23e25	-1.2675215
4	0x3e068f94	0.13140708
5	0xbf267b0b	-0.650315
6	0x3f66a2d6	0.9009222
7	0x3e07d0c6	0.13263234
8	0x3f53d798	0.82750845
9	0xbfcc5a5f	-1.5965079
10	0xbf85901d	-1.0434605
11	0x3f733c7a	0.95014155
12	0xbf564321	-0.8369618
13	0xbf4bbef4	-0.79588246
14	0xbf035dbe	-0.51314914
15	0xbf969eec	-1.1767249

static_variable_selection.flattened_grn.fc2.bias f4 [4]
0	0xbd115866	-0.035484694
1	0x3dc07769	0.09397776
2	0xbd86e524	-0.06586674
3	0x3e981c42	0.2970906

static_variable_selection.flattened_grn.gate_norm.glu.fc.weight f4 [8, 4]
0	0x3e57c4df	0.21071194
1	0x3eeb6de5	0.4598228
2	0xbe25a223	-0.16175131
3	0x3ed4a1e0	0.4152975
4	0xbe4d89fd	-0.2007217
5	0x3f3ef17a	0.74587214
6	0x3dc20904	0.09474376
7	0xbef45160	-0.47718334
8	0xbe8b741c	-0.27237022
9	0xbe0d79b8	-0.13815963
10	0xbea9074c	-0.3301338
11	0xbebe9a1e	-0.37226957
12	0xbefc9bef	-0.49337718
13	0x3deff3bc	0.117164105
14	0x3ea89a97	0.32930443
15	0x3e98bdef	0.29832408
16	0x3f2bc310	0.67094517
17	0xbf484691	-0.78232676
18	0x3e877769	0.2645829
19	0xbecb19f2	-0.39668232
20	0xbf0c31a0	-0.5476322
21	0x3e687824	0.2270208
22	0xbf393f5c	-0.72362304
23	0xbf1029d8	-0.5631385
24	0x3ea9a83c	0.33136165
25	0xbebc1624	-0.36735642
26	0xbf09f79e	-0.5389346
27	0x3f0394dc	0.51399016
28	0xbd32280a	-0.043495215
29	0xbf334fee	-0.7004384
30	0x3f4bb8c0	0.7957878
31	0x3e62a8d7	0.2213472

static_variable_selection.flattened_grn.gate_norm.glu.fc.bias f4 [8]
0	0xbce4290f	-0.02785161
1	0xbdefb1dc	-0.11703846
2	0x3bace189	0.0052759093
3	0x3e963421	0.29336646
4	0xbea762b6	-0.32692498
5	0x3d9f0c1c	0.077659816
6	0xbe38dff8	-0.18054187
7	0x3d661c53	0.056179356

static_variable_selection.flattened_grn.gate_norm.add_norm.norm.weight f4 [4]
0	0x3fd3c2c9	1.6543819
1	0x3f174d08	0.59101915
2	0x3ecc6fd6	0.39929074
3	0x3f3191a5	0.6936286

static_variable_selection.flattened_grn.gate_norm.add_norm.norm.bias f4 [4]
0	0x3f251094	0.6447842
1	0xbeda748a	-0.42667037
2	0xbee73445	-0.45157066
3	0x3db5a73d	0.08869789

static_variable_selection.single_variable_grns.TEAM_ID.mask f4 [16]
0	0x3e862164	0.2619735
1	0xbe910504	-0.2832414
2	0xbdbbe38c	-0.091742605
3	0xbe7ced82	-0.24699977
4	0x3d36dbc2	0.04464317
5	0xbc91c2bc	-0.017793052
6	0x3e0cd29c	0.13752216
7	0x3ea1bf13	0.3159109
8	0x3d19b8ac	0.037529632
9	0xbe2afda8	-0.16698325
10	0x3ed2592a	0.41083652
11	0x3e1af322	0.1513181
12	0xbe73daef	-0.23813985
13	0x3d899f0b	0.06719788
14	0x3d7801ee	0.060548715
15	0xbedcec80	-0.43149185

static_variable_selection.single_variable_grns.TEAM_ID.norm.weight f4 [16]
0	0x3fbdd40b	1.4830335
1	0x3f510048	0.81641054
2	0x3f679b75	0.90471584
3	0x3f6ac3ca	0.91705
4	0x3f8ebd26	1.1151474
5	0x3f72aace	0.9479188
6	0x3f952f19	1.1654998
7	0x3fc09e86	1.5048378
8	0x3f9349e2	1.1506922
9	0x3f9f827e	1.2461698
10	0x3fcee64c	1.6164031
11	0x3fbcde24	1.4755292
12	0x3f6b150e	0.91829
13	0x3f8db716	1.1071498
14	0x3f9130cc	1.1343017
15	0x3f35a0ea	0.7094866

static_variable_selection.single_variable_grns.TEAM_ID.norm.bias f4 [16]
0	0x3e734c6e	0.23759624
1	0xbe416510	-0.18886209
2	0x3e049fc2	0.12951568
3	0xbe6fc67f	-0.23415564
4	0xbe95488a	-0.29156905
5	0x3dd71c4c	0.10503444
6	0x3e8a8a8c	0.27058828
7	0x3eda081e	0.42584318
8	0x3d870e92	0.06594576
9	0xbeb2703b	-0.3485125
10	0xbee537a3	-0.4476901
11	0xbe851570	-0.25992918
12	0xbb407b8c	-0.0029370515
13	0x3f0aeb42	0.54265225
14	0x3ecdf4c7	0.40225813
15	0xbde1a0db	-0.11017009

static_variable_selection.single_variable_grns.SEASON_ID.mask f4 [16]
0	0x3d4754b2	0.048664756
1	0x3da3e545	0.08002714
2	0x3d127e13	0.035764765
3	0xbe10a250	-0.14124417
4	0x3d805798	0.06266707
5	0x3e4c30e6	0.19940528
6	0xbe7ebc68	-0.24876559
7	0x3e2cc768	0.16872942
8	0x3e82af2d	0.25524274
9	0xbd8d1dda	-0.06890459
10	0xbe170a92	-0.14750126
11	0xbdd97128	-0.10617286
12	0xbd4fe305	-0.050753612
13	0x3cec58b0	0.028850883
14	0x3c8105fd	0.015749926
15	0x3c014a0c	0.007891189

static_variable_selection.single_variable_grns.SEASON_ID.norm.weight f4 [16]
0	0x3f4198af	0.756236
1	0x3f79c742	0.9756967
2	0x3f818802	1.0119631
3	0x3f6df15c	0.9294641
4	0x3f70d888	0.940804
5	0x3f66b9d0	0.9012728
6	0x3f19a1fc	0.60012794
7	0x3f99042b	1.1954397
8	0x3fa0e053	1.2568458
9	0x3f2ef9f0	0.68350124
10	0x3f4fe672	0.81211007
11	0x3f7060d6	0.9389776
12	0x3f834f56	1.0258586
13	0x3f84848a	1.0352948
14	0x3f763a02	0.9618226
15	0x3f7d39bc	0.9891622

static_variable_selection.single_variable_grns.SEASON_ID.norm.bias f4 [16]
0	0x3e8610f0	0.26184797
1	0xbdcb8caa	-0.09938939
2	0xbe5596fe	-0.2085838
3	0xbebf8166	-0.3740341
4	0xbcfc8f87	-0.030830158
5	0x3e145096	0.14483866
6	0xbec38826	-0.3818981
7	0xbd916588	-0.07099444
8	0xbda15a57	-0.07878559
9	0x3d85561c	0.06510565
10	0xbdf40086	-0.11914162
11	0x3e899763	0.2687331
12	0x3e87794d	0.26459733
13	0x3eb0f718	0.34563518
14	0x3eb3d89a	0.3512619
15	0x3e532b23	0.20621924

static_variable_selection.single_variable_grns.OPPONENT_ID.mask f4 [16]
0	0xbe1f9010	-0.15582299
1	0x3d86cba3	0.06581809
2	0xbdfdea68	-0.12398225
3	0xbe1ea39d	-0.15492101
4	0xbd92f9c0	-0.07176542
5	0x3e870ce4	0.26377022
6	0xbc7e23bd	-0.01551145
7	0xbd9162d8	-0.07098931
8	0x3d07d4c4	0.033161893
9	0x3e2d2e3a	0.16912165
10	0x3d015672	0.03157658
11	0x3e007380	0.1254406
12	0xbda277a4	-0.07932976
13	0xbcbe2758	-0.02321212
14	0xbdcf8808	-0.10133368
15	0x3db009de	0.08595632

static_variable_selection.single_variable_grns.OPPONENT_ID.norm.weight f4 [16]
0	0x3f3f1387	0.7463917
1	0x3f89eccc	1.077539
2	0x3f6d8df6	0.9279474
3	0x3f834780	1.0256195
4	0x3f66135e	0.898733
5	0x3fa69af0	1.3016033
6	0x3f55531c	0.8332994
7	0x3f516c3e	0.8180579
8	0x3f897cec	1.0741248
9	0x3f84e6f6	1.0382984
10	0x3f7b8a48	0.98257875
11	0x3f8c3606	1.0953987
12	0x3f392f32	0.7233764
13	0x3f4cfef8	0.8007655
14	0x3f4278a0	0.7596531
15	0x3f5ef772	0.8709632

static_variable_selection.single_variable_grns.OPPONENT_ID.norm.bias f4 [16]
0	0xbe1801c8	-0.1484443
1	0xbd527eb2	-0.051390357
2	0xbe30b8d6	-0.1725801
3	0xbe834182	-0.25635916
4	0xbe2c9f62	-0.16857675
5	0xbcc481ba	-0.02398764
6	0xbe5c0e9e	-0.21489951
7	0xbcc636ec	-0.02419611
8	0xbe298db2	-0.16557959
9	0x3e46f06a	0.19427648
10	0x3cd0fcb6	0.025511127
11	0x3dabb329	0.083837815
12	0x3e973491	0.29532292
13	0x3e867742	0.26262861
14	0x3e9b0bd5	0.30282465
15	0x3d00c391	0.031436507

static_variable_selection.single_variable_grns.encoder_length.resample_norm.mask f4 [16]
0	0xbceadafd	-0.028668875
1	0xbc4ed311	-0.012623564
2	0x3da6e44c	0.08149013
3	0x3e3960fe	0.18103406
4	0xbd5e4610	-0.054266036
5	0xbd49683c	-0.04917167
6	0x3b577014	0.00328732
7	0x3d424875	0.04743238
8	0x3c8ce8c4	0.017200835
9	0xbdd72313	-0.10504737
10	0xbdc777a8	-0.097396195
11	0xbdb0e33e	-0.08637093
12	0x3dbd8876	0.092545435
13	0x3db64cb4	0.08901349
14	0x3d14435a	0.036197044
15	0xbb23bb75	-0.002498356

static_variable_selection.single_variable_grns.encoder_length.resample_norm.norm.weight f4 [16]
0	0x3f7b06f6	0.98057497
1	0x3f85282b	1.0402883
2	0x3f9db30a	1.2320263
3	0x3fa8f5e5	1.3200041
4	0x3f8d2998	1.1028318
5	0x3f8353d4	1.0259957
6	0x3f80fcaa	1.0077107
7	0x3f878767	1.0588197
8	0x3f824223	1.0176433
9	0x3f733724	0.9500601
10	0x3f6c77fc	0.9237058
11	0x3f8219f5	1.0164171
12	0x3f9d1460	1.2271843
13	0x3f9588c0	1.1682358
14	0x3f8c5d17	1.0965909
15	0x3f89f79c	1.0778689

static_variable_selection.single_variable_grns.encoder_length.resample_norm.norm.bias f4 [16]
0	0x3d8cb37a	0.0687017
1	0xbc70fc55	-0.014708598
2	0xbe63a1f5	-0.2222975
3	0xbe8c6f7e	-0.27428812
4	0xbdac4b0c	-0.084127516
5	0xbce67875	-0.02813361
6	0xbd16f557	-0.036855068
7	0x3bb0121a	0.0053732516
8	0x3bacec68	0.0052772053
9	0x3ce50b1b	0.027959397
10	0xbdafc8a6	-0.085831925
11	0x3cee6ac4	0.029103644
12	0x3e8cc95d	0.27497378
13	0x3e6f25c5	0.23354252
14	0x3e035c76	0.1282824
15	0x3d1a6f60	0.03770387

static_variable_selection.single_variable_grns.encoder_length.fc1.weight f4 [8, 8]
0	0xbe66cf41	-0.22539999
1	0x3e844b4a	0.2583869
2	0xbe7ca986	-0.24674043
3	0x3f4dad38	0.80342436
4	0x3e6ab960	0.22922277
5	0xbf23244b	-0.63727254
6	0x3f004f8e	0.5012139
7	0xbf8df9aa	-1.1091816
8	0xbd1e3eae	-0.038633995
9	0x3f1ee6a4	0.6207068
10	0xbe3419a4	-0.17587906
11	0xbe93abd2	-0.28842026
12	0x3ec31fff	0.3811035
13	0x3eb9b665	0.36271968
14	0x3dbe53c5	0.092933215
15	0x3e4e6782	0.20156673
16	0x3e9590e1	0.29212096
17	0xbf175a04	-0.5912173
18	0x3de254dd	0.11051343
19	0x3d2e597c	0.042565808
20	0x3f427219	0.7595535
21	0x3e8ad57f	0.2711601
22	0x3ebc5884	0.36786282
23	0xbd0d52c4	-0.03450276
24	0x3f150724	0.5821402
25	0x3ec67865	0.3876373
26	0x3dd1dac4	0.10246804
27	0x3eb1c2ee	0.34719032
28	0xbf116e80	-0.56809235
29	0x3d9eecd2	0.07760014
30	0xbe30954f	-0.17244457
31	0xbd052306	-0.032504104
32	0x3ef8e607	0.48612997
33	0xbe84bacc	-0.25923765
34	0x3dbf551e	0.09342407
35	0xbe55f4a4	-0.20894104
36	0xbf8ebcac	-1.1151328
37	0x3e824a67	0.2544739
38	0x3f2023a4	0.62554383
39	0xbf74990e	-0.9554604
40	0xbe22b1ab	-0.15888087
41	0xbe278583	-0.16359524
42	0x3e1ffcb4	0.15623742
43	0x3c83fcf4	0.016111828
44	0xbea9021e	-0.33009428
45	0xbf437dfa	-0.763641
46	0xbc3c3bae	-0.011488838
47	0xbea50da2	-0.32236964
48	0x3d8a5c86	0.06755929
49	0x3ec00d6a	0.37510234
50	0xbf2b21ff	-0.6684875
51	0xbec98ac9	-0.39363697
52	0x3e4caba2	0.19987348
53	0xbeb46fe8	-0.35241628
54	0xbf26da61	-0.6517697
55	0x3e8e8a88	0.27840066
56	0x3d9bf64c	0.07615337
57	0xbddd22e9	-0.10797674
58	0xbcf3655d	-0.02971142
59	0x3e8008b8	0.25006652
60	0xbd302056	-0.042999588
61	0x3ec75b51	0.38936856
62	0x3eb503d2	0.35354477
63	0x3e239e32	0.15978315

static_variable_selection.single_variable_grns.encoder_length.fc1.bias f4 [8]
0	0xbc5009b9	-0.012697631
1	0xbe1b46ef	-0.15163778
2	0x3dad710e	0.08468829
3	0x3de32776	0.11091511
4	0xbe02a598	-0.12758482
5	0xbd2c6f39	-0.042098258
6	0xbd992f34	-0.074797064
7	0x3e36bf24	0.17846352

static_variable_selection.single_variable_grns.encoder_length.fc2.weight f4 [8, 8]
0	0xbc1481e4	-0.009064171
1	0x3e77557a	0.241537
2	0xbe1127e8	-0.1417538
3	0x3f924273	1.1426529
4	0xbecec92e	-0.40387863
5	0x3f9b42d6	1.2129772
6	0xbe596f02	-0.21233752
7	0xbe498a2b	-0.19681613
8	0xbf198926	-0.59974897
9	0xbe3509d1	-0.17679526
10	0x3e69da72	0.22837237
11	0x3f375864	0.7161925
12	0x3f13be42	0.57712185
13	0xbe8f1c48	-0.27951264
14	0xbd5c16e8	-0.053732783
15	0x3f6ba052	0.92041504
16	0x3ea34d35	0.31894842
17	0xbec786d3	-0.3897005
18	0xbf0fa188	-0.5610585
19	0x3e8eb4da	0.27872354
20	0x3e4df2a2	0.20112088
21	0x3ed7088c	0.41998708
22	0xbeec0659	-0.46098593
23	0xbdaf9b83	-0.085745834
24	0x3f1f1ece	0.6215638
25	0x3f00879c	0.50206923
26	0xbe352f90	-0.17693925
27	0x3ea2200a	0.3166507
28	0x3f76819e	0.9629153
29	0xbe74fa2c	-0.23923558
30	0x3ec00178	0.3750112
31	0xbf1d1b8c	-0.6137016
32	0x3eac5880	0.3366127
33	0x3bf2ca10	0.0074093416
34	0xbe8b2d90	-0.271832
35	0xbdd1e010	-0.10247815
36	0xbf99c981	-1.2014619
37	0xbe907316	-0.28212804
38	0xbf3be5ec	-0.7339771
39	0x3e8e441a	0.27786332
40	0x3f88ca66	1.0686767
41	0x3e88b407	0.2669985
42	0x3f252f0d	0.6452492
43	0x3f189820	0.59607124
44	0xbdcf0475	-0.10108272
45	0xbf1ff174	-0.62477803
46	0x3e843803	0.25823984
47	0xbeccaecb	-0.39977106
48	0xbe27edc6	-0.16399297
49	0xbf260304	-0.6484835
50	0xbdd24c3c	-0.10268447
51	0x3ef48b94	0.4776274
52	0x3e0e4de4	0.138969
53	0x3e0edd97	0.13951717
54	0xbf277785	-0.6541675
55	0xbded13c6	-0.11576037
56	0x3ddee96c	0.108843654
57	0x3eba2922	0.36359507
58	0x3eee98ac	0.46600854
59	0x3e433163	0.19061808
60	0xbf5f55d6	-0.8724035
61	0xbf589dad	-0.84615594
62	0x3f55ef50	0.83568287
63	0xbf06d92e	-0.5267514

static_variable_selection.single_variable_grns.encoder_length.fc2.bias f4 [8]
0	0x3dbb9e03	0.09160998
1	0x3e74d06e	0.23907635
2	0xbe00520b	-0.12531297
3	0xbda0335c	-0.07822296
4	0x3b95b219	0.00456835
5	0x3d811787	0.063033156
6	0x3c36191c	0.011114385
7	0x3dcb4959	0.09926099

static_variable_selection.single_variable_grns.encoder_length.gate_norm.glu.fc.weight f4 [32, 8]
0	0x3e36205e	0.17785785
1	0x3e90ec16	0.2830512
2	0xbe54639a	-0.2074112
3	0xbdda228c	-0.106511205
4	0x3e15614f	0.14587902
5	0xbcad7211	-0.021172555
6	0xbe6a8fd2	-0.22906426
7	0x3c97dd20	0.018538058
8	0xbeefc047	-0.46826383
9	0xbe91bcbe	-0.2846431
10	0xbe3bd5c0	-0.18343258
11	0xbe9b0d06	-0.30283374
12	0xbce538f8	-0.027981266
13	0xbe8500dc	-0.25977218
14	0x3e9deeb6	0.30846184
15	0xbecfba42	-0.4057179
16	0xbe9d17da	-0.3068226
17	0xbe88f782	-0.26751333
18	0xbb83565c	-0.0040080976
19	0xbeec04a4	-0.4609729
20	0x3d4f32b8	0.05058548
21	0x3cf3f38c	0.029779218
22	0x3ee6462e	0.44975418
23	0x3ddaaa56	0.1067702
24	0xbe09e257	-0.13465248
25	0x3d910bd0	0.07082331
26	0x3e8f9c22	0.28048807
27	0x3e3c15e3	0.18367724
28	0x3e53eca3	0.20695738
29	0xbe091a61	-0.13388969
30	0xbdea8739	-0.11451573
31	0x3d645b02	0.055750854
32	0x3da1aa24	0.0789378
33	0xbe9af0ba	-0.30261785
34	0xbdb7224e	-0.0894209
35	0xbc320b6b	-0.01086698
36	0xbcde3f24	-0.027129717
37	0x3e8253d2	0.25454575
38	0x3e9293ec	0.2862848
39	0xbdd252d2	-0.10269703
40	0xbe924e57	-0.28575394
41	0xbe8c7dd6	-0.27439755
42	0x3e8d6e0c	0.27623022
43	0x3dfb1c70	0.122612834
44	0xbe4e5830	-0.20150828
45	0xbe02e938	-0.12784278
46	0xbdf47358	-0.119360626
47	0xbd14ed6e	-0.036359243
48	0x3ed80b32	0.4219604
49	0x3ecb9fb0	0.3977027
50	0x3d9b54e6	0.075845525
51	0x3e0db710	0.13839364
52	0xbb82dd4c	-0.003993666
53	0x3edb25b2	0.42802197
54	0xbe31bb3a	-0.17356578
55	0x3ed49eb6	0.41527337
56	0x3e91b118	0.28455424
57	0x3e8e8244	0.2783376
58	0xbe9abf89	-0.30224255
59	0x3e93c585	0.28861633
60	0xbe27184f	-0.16317867
61	0xbe13e662	-0.14443353
62	0x3e503d28	0.2033583
63	0x3e45fa48	0.19333756
64	0x3c248e6d	0.010043723
65	0xbea62da6	-0.32456702
66	0xbd55d658	-0.052206367
67	0x3e7946f1	0.24343468
68	0xbe99c99f	-0.30036637
69	0x3d20c34e	0.039248757
70	0xbeab71be	-0.33485216
71	0xbec652fb	-0.38735184
72	0x3e4d68b7	0.20059477
73	0xbe695fcd	-0.22790451
74	0x3d4581e6	0.048219584
75	0x3e50c375	0.20387061
76	0x3e2cd9e8	0.1688
77	0xbe394656	-0.18093237
78	0xbde8aa1a	-0.11360569
79	0x3e5f869f	0.21828698
80	0xbcb04d28	-0.021521166
81	0xbd629944	-0.055321947
82	0x3d944474	0.07239619
83	0xbdd38a36	-0.10329096
84	0x3e78937c	0.24275011
85	0x3e812400	0.25222778
86	0x3d17faa8	0.03710428
87	0xbe9d7eb5	-0.30760732
88	0xbda2ecf2	-0.0795535
89	0x3bf45b90	0.007457204
90	0x3e922386	0.28542727
91	0xbd883c5c	-0.06652138
92	0x3d6344fa	0.055485703
93	0xbe23ba1e	-0.15988967
94	0xbde6800d	-0.112548925
95	0xbe38481b	-0.17996256
96	0xbe55fc5a	-0.20897046
97	0x3e42fec8	0.19042504
98	0x3e1cda99	0.15317763
99	0x3f19565e	0.5989741
100	0xbee5d962	-0.44892412
101	0x3e02533c	0.12727064
102	0xbf1316fc	-0.57456946
103	0x3f212292	0.62943375
104	0xbda8b26f	-0.082371585
105	0x3ee1ee6b	0.4412721
106	0xbf24fff6	-0.64453065
107	0x3ec60242	0.38673598
108	0xbecfcb70	-0.40584898
109	0x3dd89048	0.105743945
110	0xbe0b8f0b	-0.13628785
111	0x3f179f50	0.59227467
112	0x3ddeccdf	0.1087892
113	0xbe8876dc	-0.26653183
114	0xbd808485	-0.06275276
115	0x3e65d8e0	0.22446012
116	0xbe5ca064	-0.21545559
117	0x3e2ee4fa	0.17079535
118	0x3d7cf55c	0.06175743
119	0xbd5d4b48	-0.054026872
120	0xbdbd760a	-0.0925103
121	0xbe9cc524	-0.30619156
122	0xbbb6a081	-0.005573333
123	0x3e47175a	0.19442502
124	0xbd11ff3a	-0.035643794
125	0xbe6e92f2	-0.23298243
126	0x3e94df4c	0.29076612
127	0xbcd5c2c3	-0.026093846
128	0x3eacd8ca	0.33759147
129	0x3e122bb2	0.14274481
130	0x3e917424	0.2840892
131	0xbe37ce1a	-0.17949715
132	0x3e036d98	0.12834775
133	0x3cab9ea2	0.020949665
134	0x3e7bea58	0.24601114
135	0xbf0601ca	-0.5234648
136	0x3ef52c44	0.47885334
137	0xbdef08d0	-0.11671603
138	0x3d3cac06	0.04606249
139	0x3e6837b0	0.22677493
140	0xbc89b0d2	-0.016807947
141	0x3eb00585	0.3437921
142	0xbe96071a	-0.29302293
143	0x3db3dbc2	0.0878215
144	0x3e73c3d4	0.23805171
145	0x3c118586	0.008881932
146	0x3eae9b08	0.34102654
147	0xbea586de	-0.32329458
148	0xbe88ad55	-0.26694742
149	0xbdb9633b	-0.0905213
150	0x3e899d3e	0.2687778
151	0x3cdb4e24	0.026770659
152	0x3dca63c6	0.098823115
153	0xbe8a6d08	-0.2703631
154	0xbe8eed8e	-0.27915615
155	0x3d35fe42	0.044431932
156	0x3ed305ea	0.4121545
157	0xbea328b6	-0.31866997
158	0x3e8d8f83	0.27648553
159	0xbe00e63c	-0.12587827
160	0xbe0e2f5b	-0.13885252
161	0x3d4c54b4	0.049885467
162	0xbdf7f5c9	-0.12107427
163	0xbec3d308	-0.38246942
164	0x3dee6eaa	0.11642201
165	0xbc1de706	-0.0096376
166	0xbd6c628c	-0.05771117
167	0xbefabad5	-0.48970667
168	0xbd8b9605	-0.06815723
169	0xbe4f1143	-0.20221429
170	0x3d3535e4	0.044240847
171	0xbe26dbee	-0.16294834
172	0x3ecd400d	0.4008793
173	0x3dd5343c	0.104103535
174	0xbc15ac2a	-0.009135285
175	0xbec8816f	-0.3916125
176	0x3dd2ddee	0.10296236
177	0xbeb6988c	-0.3566326
178	0x3b98bcd6	0.004661183
179	0x3b9a025d	0.0046999888
180	0xbe930748	-0.28716493
181	0x3e5d3cea	0.21605268
182	0x3dcdf508	0.100565016
183	0x3e3fa35d	0.18714662
184	0xbd9222c7	-0.071355395
185	0x3e1758e8	0.14780009
186	0x3dfbfeff	0.12304496
187	0x3e47c1f2	0.19507578
188	0x3e5517a0	0.20809793
189	0xbec678ce	-0.38764042
190	0x3d86156b	0.06547054
191	0x3e6caf23	0.23113684
192	0x3e3d0d3e	0.18462083
193	0xbe359856	-0.17733893
194	0x3ec452ba	0.38344365
195	0x3e76830c	0.24073428
196	0x3e8f1922	0.27948862
197	0xbd1c1f9c	-0.038116083
198	0x3e8e5f84	0.27807248
199	0xbe70588e	-0.23471281
200	0xbe5eb2c6	-0.21747884
201	0xbe8f25da	-0.27958566
202	0x3e589397	0.21150051
203	0xbd57c562	-0.052678473
204	0x3ceb0a4a	0.02869143
205	0xbe881910	-0.2658162
206	0x3efda03a	0.49536306
207	0xbe299f6b	-0.1656472
208	0x3ec4ad6f	0.3841357
209	0xbe7d5c03	-0.24742131
210	0x3e3ff709	0.1874658
211	0x3e8432fd	0.2582015
212	0x3e8425cc	0.25810087
213	0x3e3ce282	0.18445781
214	0xbcc3b0a5	-0.023887942
215	0xbe4ebed1	-0.20189978
216	0x3db316c0	0.087445736
217	0xbec2afd0	-0.3802476
218	0x3e90826e	0.2822451
219	0x3cfac3d7	0.030610962
220	0x3ead9850	0.33905268
221	0xbe41d3a8	-0.18928397
222	0xbe4f790f	-0.20261024
223	0xbe3bcc2e	-0.18339607
224	0xbea56050	-0.32300043
225	0x3dbd5c9c	0.092461795
226	0x3e813abd	0.25240126
227	0x3e1a2556	0.15053305
228	0xbec9e4c2	-0.3943234
229	0xbe148dbc	-0.14507192
230	0xbe8063d2	-0.25076157
231	0x3e2b67cd	0.16738816
232	0xbe987192	-0.29774147
233	0xbd991af4	-0.07475844
234	0x3ca84afb	0.020543566
235	0x3f01309e	0.5046481
236	0xbecc814a	-0.3994239
237	0x3d7e70a6	0.06211915
238	0xbe20b05a	-0.15692273
239	0x3ef29eac	0.47386682
240	0x3e38089a	0.17972031
241	0xbeaaa372	-0.33327824
242	0xbc1c6e9a	-0.009547854
243	0x3e8c8cd6	0.274512
244	0xbe660dcb	-0.22466199
245	0x3e1a0836	0.15042195
246	0xbd2f851e	-0.04285156
247	0x3d892486	0.066964194
248	0xbe878eaa	-0.26476032
249	0xbe1d5d84	-0.15367705
250	0xbda4d48c	-0.080483526
251	0xbdd4c9c7	-0.103900485
252	0x3ecbf9ff	0.3983917
253	0xbec819d2	-0.390822
254	0x3e660d00	0.22465897
255	0x3e9c55f0	0.30534315

static_variable_selection.single_variable_grns.encoder_length.gate_norm.glu.fc.bias f4 [32]
0	0x3d6088fa	0.05481813
1	0xbccd920a	-0.02509405
2	0xbdaf1633	-0.08549156
3	0xbe37730a	-0.17914978
4	0xbd6dc600	-0.058050156
5	0xbcbee1b4	-0.023300983
6	0x3ca6f8e8	0.02038236
7	0x3c9f41cd	0.019440556
8	0xbcaa0189	-0.020752685
9	0x3c6f388e	0.014600886
10	0xbda2a6ff	-0.07942008
11	0xbcb75650	-0.022380024
12	0x3e666411	0.2249911
13	0x3e64149a	0.22273484
14	0x3dd66b70	0.10469711
15	0x3baa0294	0.0051882956
16	0xbddaa2e7	-0.106756024
17	0xbddefe76	-0.10888378
18	0xbbcf2d69	-0.006322552
19	0xbd8e4df3	-0.069484614
20	0xbd63fd52	-0.055661507
21	0xbda88d18	-0.082300365
22	0xbcaf0896	-0.021366399
23	0xbdda0e64	-0.10647276
24	0xbd69b068	-0.057053
25	0xbdfaec85	-0.12252144
26	0x3c61e335	0.0137870805
27	0xbe1d7586	-0.15376863
28	0x3dd62e68	0.1045807
29	0x3dbf9090	0.09353745
30	0xbd6e331a	-0.058154203
31	0xbd580a7a	-0.052744366

static_variable_selection.single_variable_grns.encoder_length.gate_norm.add_norm.norm.weight f4 [16]
0	0x3f175da1	0.5912724
1	0x3f66867e	0.9004897
2	0x3fa1f992	1.2654288
3	0x3fa87e12	1.3163474
4	0x3f7e8fe6	0.9943832
5	0x3f62691a	0.8844162
6	0x3f989092	1.1919119
7	0x3f57c248	0.84280825
8	0x3f640c84	0.890816
9	0x3f57a0f4	0.8422997
10	0x3f6ed9a0	0.9330082
11	0x3f81f8f0	1.0154095
12	0x3fa2df74	1.2724442
13	0x3f94de4b	1.1630338
14	0x3f716a5d	0.9430292
15	0x3f7ce0bc	0.9878042

static_variable_selection.single_variable_grns.encoder_length.gate_norm.add_norm.norm.bias f4 [16]
0	0x3dd9e52e	0.10639416
1	0xbcdf9f72	-0.02729771
2	0xbec0de6a	-0.37669688
3	0xbeb8c294	-0.3608595
4	0xbe050616	-0.12990603
5	0xbd102566	-0.035191916
6	0xbe0a7918	-0.13522756
7	0xbd5c2800	-0.053749084
8	0x3cae1084	0.02124811
9	0x3c99e904	0.018787868
10	0xbe0b8fa4	-0.13629013
11	0x3d306258	0.043062538
12	0x3e8f41d3	0.27979907
13	0x3ea39ff2	0.31957966
14	0x3e43d20d	0.19123097
15	0x3db1c562	0.08680226

static_variable_selection.prescalers.encoder_length.weight f4 [8, 1]
0	0x3dc87a00	0.09788895
1	0xbf3b91e6	-0.732695
2	0xbf4f8e82	-0.81076825
3	0x3f6ce396	0.9253477
4	0x3f575a82	0.8412248
5	0x3f3439ac	0.704005
6	0x3f01f09a	0.50757754
7	0xbebc2af0	-0.3675151

static_variable_selection.prescalers.encoder_length.bias f4 [8]
0	0x3eea3375	0.45742384
1	0xbf71deba	-0.9448048
2	0xbf02a253	-0.5102894
3	0xbf5f713e	-0.8728217
4	0xbed9ee8b	-0.42564806
5	0x3e9b35d6	0.3031451
6	0xbdaf3871	-0.08555687
7	0x3f82265a	1.0167954

encoder_variable_selection.flattened_grn.resample_norm.mask f4 [6]
0	0xbe0a9f6e	-0.1353738
1	0xbbfeedfa	-0.007779834
2	0x3e8c60ff	0.27417752
3	0xbe8801c2	-0.2656384
4	0x3e15e313	0.14637403
5	0x3df268b7	0.11836379

encoder_variable_selection.flattened_grn.resample_norm.norm.weight f4 [6]
0	0x3f81bb4c	1.0135283
1	0x3f91154d	1.1334625
2	0x3f9687f1	1.1760236
3	0x3f7291e8	0.94753885
4	0x3f8ed672	1.1159194
5	0x3f832812	1.0246603

encoder_variable_selection.flattened_grn.resample_norm.norm.bias f4 [6]
0	0xbed6b150	-0.41932154
1	0x3bf938f6	0.007605667
2	0x3f63886e	0.8888005
3	0xbf169301	-0.5881806
4	0xbe2aebbc	-0.16691488
5	0xbe852720	-0.26006413
