lightning_logs/lightning_logs/version_1/checkpoints/epoch=1-step=100.ckpt (torch, 561396 bytes, 820 tensors)

input_embeddings.embeddings.TEAM_ID.weight f4 [30, 11]
00000000: a739 76bf 55bb 1940 d620 1cbf 7c94 883f
00000010: 3610 d13f 5837 9e3f e8ed 86be 6218 3d3d
00000020: a853 283d 168c 22bf 90ea 623f 5bfb cd3f
00000030: 7dd2 69be 96f5 713f 7ae6 43bd 0cc5 e8be
00000040: 6d07 fc3e fddd 5ebf 4c29 e13f 1b81 ab3e
00000050: 1175 633e cad9 1540 5d0c 9e3f 28d5 8c3e
00000060: 1a8d 4fbe 3270 e4bf a638 2140 e58e 4dbe
00000070: e23e b73f 8440 44ba 4d3f 92bf 312d fdbe
00000080: 7993 b0be bcc4 b83e 297e 0840 a5ca 5c3e
00000090: 2da3 d13f ffb1 53c0 ff0e 17bf 1cc1 a1be
000000a0: 5d88 82bf ff5f a7bf b610 d8bf b461 debf
000000b0: d996 22c0 cded cf3f d595 b8bf e58d 7b3e
000000c0: 6b8b 913f ed68 f3bf fd26 13bf ddb0 853e
000000d0: 02c7 613f 84d7 273f b583 29c0 9584 cc3e
000000e0: fb88 85bf d8c9 373e 8eef 073f 08e7 cfbe
000000f0: de45 8e3f d689 5e3d 50fa 1d3f 4eee 74bf
00000100: adee 743e 151c 9cbf 59d4 c3bf 3570 c9be
00000110: 1b39 173e d21f b93e c223 db3f 3415 8fbf
00000120: 907d 22c0 8d82 a53e 51bb b3be fc64 14c0
00000130: 8043 2f3f c72a 2d3f f34f 35be 3df4 a2bf
00000140: 5966 a33e cf64 c03f 0b58 8d3e 7164 2cc0
00000150: 0333 733f cbdb d83f 5e9a 5f3f e0cc 9ebe
00000160: 5faa 8cbe c851 69be b41f eb3e 9a2e 30be
00000170: 79b4 2ebe ced8 63bf 2d18 19bf 45b5 f83e
00000180: 927f b83f b716 943f 086e b23f e3a8 683f
00000190: 851c 833e 6926 97bf 6548 7bbf 83d3 413f
000001a0: 13fc 2b3e bcc7 a83d 68da d1bd 117b 4f3f
000001b0: d703 a03f 3cc8 78bf eacb f7bf 12fb 43c0
000001c0: 260b 67be 371d 1e3e bdd5 0bbf f287 e8be
000001d0: 800e 593f 74c6 573f 7022 e53d ca2b 0fbf
000001e0: 5bcb c63d 9470 b23e ddf0 ed3f d324 9abf
000001f0: d016 f13f 80eb f8bf 8aed 1a3f 3eb4 553e
00000200: 13d2 0c3e 7d24 a0bf 0e9e b33f b3c3 d53e
00000210: 3d79 793f 8331 ea3e bfdd e43f 872d 24bf
00000220: 0850 bb3d 20de 9c3e d38c 9ebf d8d7 6d3e
00000230: 901c 853f df86 0840 a0b8 573f 21c0 ec3d
00000240: 23a7 85bf 4f9e 36be dfae 893f 53fb b33e
00000250: 83f5 923e 7514 2c3f 2e9d 99bd 6a16 913f
00000260: 0220 5bbf 067b b0be f6eb 8bbe 4a96 d43d
00000270: cb4c a13f b972 d5bf 2356 41bf fbd0 353f
00000280: 3155 9f3f 1d03 bcbe 57aa fdbe f7ae edbe
00000290: 6343 2b3f 0eb8 be3f 4416 343f 2ddd 813f
000002a0: 53f5 e33d 9cf9 c0be 14ef f1bd ccd3 ce3e
000002b0: 0669 f4be b5ed bebe b5a9 9dbe 11ec ba3e
000002c0: bc28 b93d 364a 653f 3d99 013e 0c66 28bf
000002d0: 6dc8 0440 6ded 9f3f 7cb5 963f c70c bf3e
000002e0: 7b72 9dbf 4473 403f 2c1a 573e 082c 86bc
000002f0: 176a 6a3e 85d8 55be 2362 2e40 0678 053f
00000300: 01cf 89bf a7b1 d03c 8963 8c3f 626c b9be
00000310: f031 903f a12e 9a3f 8b78 e2bf a951 9abf
00000320: f28d dabd 0ff0 953f 7910 94bf 4462 85bf
00000330: 6fbe f3bf 52cd fc3e 41fd f2be 7b61 1e40
00000340: b06e b83f 76c0 a53f 8d20 733f 7bbc b0bf
00000350: b707 183f ef5f c0bd f652 23bf b9e4 53bf
00000360: bf15 82be 32eb 03bf 020b a8bf 999f 9c3f
00000370: b87a aa3f 6daa d4bf 616f 173f 1ef4 dabf
00000380: ca46 c63f 7127 98bc 1bb7 ea3d e91a 0cbe
00000390: d2b7 72bf 41f9 87bf a175 31bf e2a2 54bf
000003a0: 8c11 c33e 701b 9a3f 399e 14c0 c677 513f
000003b0: 607a 67be 9366 1ebe 6c1c 373f e7ed f2be
000003c0: daf2 453e dcfe d0be 9998 84be b51d debf
000003d0: 29fc 81bf 94e6 1e3e 16f4 17bf c995 ab3e
000003e0: 83bc c4bf be88 da3e c72e aebd bfb6 95bf
000003f0: ab22 f5be 8289 c6bf 32bf d13e 2b38 723e
-0.9618172 2.4020588 -0.60987604 1.0670314 1.6333072 1.236064 -0.26353383 0.04616583
0.041095406 -0.63495004 0.88639164 1.6092333 -0.22834201 0.9451536 -0.04782722 -0.45462835
0.49224415 -0.8705748 1.7590728 0.33496937 0.22212626 2.3414178 1.2347523 0.27506375
-0.2026867 -1.7846739 2.5190825 -0.20074041 1.4316065 -0.000748642 -1.1425568 -0.4944854
-0.34487513 0.36087596 2.1327002 0.21561678 1.6377922 -3.307739 -0.5900726 -0.31592643
-1.0197865 -1.3076171 -1.68801 -1.7373567 -2.540457 1.6244446 -1.4420725 0.24565847
1.1370672 -1.9016396 -0.57481366 0.26111498 0.88194287 0.65563226 -2.6486638 0.39944902
-1.0432428 0.17948091 0.53099906 -0.4060595 1.1115072 0.05433067 0.6171007 -0.95676124
0.23919173 -1.219607 -1.5299178 -0.3934342 0.14767878 0.3615709 1.7120287 -1.1178346
-2.5389137 0.32326165 -0.3510385 -2.3186636 0.6846237 0.676434 -0.1770628 -1.2730786
0.31914023 1.5030764 0.27606234 -2.6936305 0.9499971 1.6942075 0.8734492 -0.31015682
-0.27473733 -0.22785103 0.45922625 -0.17205277 -0.17061032 -0.8900269 -0.59802514 0.48575798
1.4413931 1.1569432 1.3939829 0.908827 0.25607696 -1.1808597 -0.9815734 0.75713366
0.16795377 0.08241221 -0.10246736 0.8104716 1.2501172 -0.97180533 -1.9359105 -3.062199
-0.22562847 0.15440832 -0.54623014 -0.45416218 0.8478775 0.8428719 0.11188209 -0.5592619
0.09706756 0.34851515 1.8589131 -1.2042488 1.8835087 -1.9446869 0.60518706 0.20869538
0.13752012 -1.2511135 1.403261 0.4175087 0.9745062 0.457409 1.7880172 -0.6413197
0.09146124 0.30638218 -1.2386726 0.23226869 1.0399342 2.1332319 0.8426609 0.11560083
-1.0441631 -0.17833827 1.0756491 0.35152683 0.28702936 0.67218715 -0.07500683 1.1334965
-0.85595715 -0.3446886 -0.2732846 0.10380228 1.260156 -1.6675636 -0.7552206 0.71022004
1.2447873 -0.36721125 -0.4954402 -0.4642255 0.668997 1.4899919 0.70346475 1.0145622
0.11130776 -0.37690437 -0.11813179 0.40395963 -0.47736377 -0.3729073 -0.3079354 0.3650823
0.090409726 0.8956636 0.12656112 -0.6578071 2.074733 1.2494332 1.1774135 0.37314436
-1.2300562 0.7517588 0.21006078 -0.016378418 0.22892033 -0.20883377 2.7247398 0.52136266
-1.0766298 0.025475336 1.0967876 -0.36215502 1.126524 1.204548 -1.7693037 -1.2056171
-0.10671605 1.1713885 -1.1567527 -1.0420613 -1.9042491 0.49375397 -0.47458842 2.4746997
1.4408779 1.294936 0.94971544 -1.380752 0.5938677 -0.09393298 -0.63798463 -0.8277088
-0.25407216 -0.51530755 -1.3128359 1.2236205 1.3318701 -1.661451 0.59154326 -1.7105749
1.5490353 -0.018573495 0.11460706 -0.1368214 -0.9481174 -1.0622941 -0.6932011 -0.8306104
0.38099325 1.2039623 -2.3221571 0.81823385 -0.22605276 -0.15468816 0.71527743 -0.4744713
0.19330922 -0.40819442 -0.25897673 -1.7352816 -1.0155078 0.15517646 -0.5935682 0.33512715
-1.5370029 0.4268245 -0.08505016 -1.1696395 -0.47878012 -1.5510714 0.40966183 0.23654239

prescalers.encoder_length.weight f4 [8, 1]
00000000: 6003 14be 7e91 783f 00cc c9bb 7811 df3e
00000010: dc41 05bf 808a 21bd 26ef 763f 90a3 2f3f
-0.14454412 0.97097003 -0.006158352 0.43568015 -0.5205362 -0.039438725 0.9645866 0.6860895

prescalers.encoder_length.bias f4 [8]
00000000: 0616 5a3e 4594 2dbf 7501 e3bd 171c 1c3f
00000010: 00fd c7bc 6546 6fbf 7868 423f 7472 233f
0.21297464 -0.67804366 -0.11084262 0.6098036 -0.024412632 -0.9346679 0.75940657 0.63846517

prescalers.time_idx.weight f4 [8, 1]
00000000: c872 11bf 8001 da3d f489 bb3e c858 74be
00000010: b0e4 0e3f d299 6cbf b0aa 3abf 5cfa 81be
-0.5681577 0.10644817 0.36628687 -0.23861992 0.558177 -0.9242221 -0.729167 -0.25386322

prescalers.time_idx.bias f4 [8]
00000000: bdcf 17be 95b3 78bf 3e96 663e 71af 0fbf
00000010: 70b8 153f 6467 f03e e419 db3e f358 4abf
-0.1482534 -0.9714902 0.2251825 -0.5612708 0.58484554 0.4695388 0.4279319 -0.79041976

prescalers.relative_time_idx.weight f4 [8, 1]
00000000: 080b d23e 6440 443f f842 c8be d826 783e
00000010: d801 4f3f c8a9 543f 86e0 45bf 36e7 6dbf
0.4102404 0.7666075 -0.39113593 0.24233568 0.8086219 0.83071566 -0.7729572 -0.92930925

prescalers.relative_time_idx.bias f4 [8]
00000000: 1b6f 563f be1e 06bf afba d7bd 866e 123f
00000010: 943e 17bf d59f 0d3c 36e2 033f 3b37 c63d
0.83763283 -0.5239066 -0.10533654 0.57199895 -0.5907986 0.008644064 0.51517045 0.09678503

prescalers.PTS.weight f4 [8, 1]
00000000: 80bc 91bd 8071 23be c092 f0bc 42dd 5fbf
00000010: 3e2d 2ebf 5cc2 50bf d832 50bf 30ac 523f
-0.07116032 -0.15961266 -0.02936685 -0.8744699 -0.68037784 -0.8154657 -0.8132758 0.8229399

prescalers.PTS.bias f4 [8]
00000000: d3e6 673f edbb 97be 47eb 193f 83c5 773e
00000010: bea1 c73e 6d37 7a3f db04 acbe 8a63 9dbe
0.90586585 -0.29635563 0.6012463 0.24196438 0.38990587 0.97740823 -0.33597454 -0.30740005

static_variable_selection.flattened_grn.resample_norm.mask f4 [2]
00000000: 0249 f83c 4129 f8bc
0.03030825 -0.030293109

static_variable_selection.flattened_grn.resample_norm.norm.weight f4 [2]
00000000: 990c 803f 990c 803f
1.0003844 1.0003844

static_variable_selection.flattened_grn.resample_norm.norm.bias f4 [2]
00000000: f846 1b3b 6742 1bbb
0.0023693424 -0.0023690702

static_variable_selection.flattened_grn.fc1.weight f4 [2, 19]
00000000: 6619 29be c327 acbe 12c8 6dbe b73b 19bd
00000010: 8345 153f 40ca 4a3c e28b 27be edde 8a3d
00000020: f908 7cbc 9184 f0bd 7770 2a3d 2bfa 01bc
00000030: 500e 4dbe 1767 27be e4c7 ed3d f271 a1bc
00000040: 8c14 febc 64af 6cbe 0db5 7e3e 174d aa3d
00000050: 832d 82be c00e 8dbe 4208 33be 2367 8f3e
00000060: 82bd 4abd ba69 8a3e b9ff b93d ee9e 64bf
00000070: 53e0 053f d57d a33c 67c7 1fbf c2e7 3dbe
00000080: e0a8 8bbe ce78 c9be 31d2 913e a715 c33e
00000090: 6b5f 04be 3f01 c73e
-0.16513595 -0.33624086 -0.23220852 -0.037410464 0.5830919 0.012377322 -0.16361955 0.06780801
-0.015382999 -0.11744035 0.04161116 -0.00793318 -0.20024991 -0.1634792 0.11610392 -0.019707654
-0.031015657 -0.23113781 0.24873753 0.08315485 -0.25425348 -0.27550316 -0.17483619 0.28008375
-0.049497135 0.27033788 0.09081978 -0.8930501 0.52295417 0.019957462 -0.6241364 -0.1854544
-0.2727728 -0.3934998 0.28480676 0.38102457 -0.12927024 0.38868138

static_variable_selection.flattened_grn.fc1.bias f4 [2]
00000000: 7620 deb9 ab03 ae3a
-0.00042367325 0.001327624

static_variable_selection.flattened_grn.fc2.weight f4 [2, 2]
00000000: e073 91bf e81b 6c3f c45c b73f 8477 05be
-1.1363487 0.9223008 1.4325185 -0.13033873

static_variable_selection.flattened_grn.fc2.bias f4 [2]
00000000: 4d8f f43a 1ac4 a13a
0.001865843 0.0012341768

static_variable_selection.flattened_grn.gate_norm.glu.fc.weight f4 [4, 2]
00000000: 7807 773f 7842 5abe 9ff1 81be fe58 40bf
00000010: 7e95 aabe 4af0 5fbe 2129 0fbf 894c 0f3e
0.9649577 -0.21314418 -0.25379655 -0.7513579 -0.33317178 -0.21869007 -0.5592213 0.1399404

static_variable_selection.flattened_grn.gate_norm.glu.fc.bias f4 [4]
00000000: fb25 a83a 24b4 cdba aafd 25ba 7bf8 8539
0.0012828702 -0.0015693945 -0.00063320494 0.0002555287

static_variable_selection.flattened_grn.gate_norm.add_norm.norm.weight f4 [2]
00000000: 03ec 7a3f 03ec 7a3f
0.98016375 0.98016375

static_variable_selection.flattened_grn.gate_norm.add_norm.norm.bias f4 [2]
00000000: 0862 81bd 0862 813d
-0.06317526 0.06317526

static_variable_selection.single_variable_grns.TEAM_ID.mask f4 [16]
00000000: 4722 4fbd 3c0e 51bd be70 613c 498f e9bc
00000010: 4b59 673d 53a6 2b3b f42f 8d3b fa37 ae3c
00000020: ff32 a73b f720 5fbd 1b21 0e3d 35fb 24bd
00000030: 1fc3 e53c b14d 673c 9bdd 273d 961b 2b3d
-0.0505698 -0.051038966 0.01375979 -0.028510706 0.05648164 0.0026191666 0.004308695 0.021266926
0.0051025148 -0.054474797 0.03469954 -0.040278632 0.028047143 0.014117644 0.040982824 0.041774355

static_variable_selection.single_variable_grns.TEAM_ID.norm.weight f4 [16]
00000000: 3654 6f3f d077 6f3f 2508 873f f9dc 763f
00000010: 5a35 8b3f ced5 833f 3ab4 843f 0946 803f
00000020: 4196 743f 309a 693f 02a0 863f bed7 7a3f
00000030: c61b 853f c0a6 773f 3b99 7d3f 3adf 833f
0.9348787 0.93542194 1.054936 0.9643093 1.0875657 1.0299623 1.0367501 1.0021373
0.9554177 0.91250896 1.051758 0.97985446 1.0399101 0.96738815 0.99061936 1.0302498

static_variable_selection.single_variable_grns.TEAM_ID.norm.bias f4 [16]
00000000: 4dc5 58bd 386d 29bd 8591 bdbc 0a11 54bd
00000010: 917d f7bb 32a7 a3bb 28bc 9f3c f2b6 473d
00000020: c2a7 afba 2518 713d 0676 aebd f579 d4bd
00000030: ea62 65bd 132a 983d 8863 813d a210 b73c
-0.052922536 -0.041363925 -0.023140678 -0.051774062 -0.0075528105 -0.0049942965 0.0194989 0.048758455
-0.0013401436 0.058860917 -0.08518605 -0.10374824 -0.056002535 0.074299 0.06317812 0.022346798

static_variable_selection.single_variable_grns.encoder_length.resample_norm.mask f4 [16]
00000000: 1b44 873c 9ee2 0a3c 081c 46bd 30de 4f3d
00000010: 2d26 70bd 7822 f63c d7b2 a4bc f85e ae3d
00000020: 5fa2 a53c ebfb 67bd 3d4f 3f3d 012b 993d
00000030: 54f9 92bd 2544 eb3d e633 d2bc 2e68 20bd
0.016511967 0.008476881 -0.048366576 0.050749004 -0.058630157 0.030045733 -0.020104809 0.085142076
0.020219026 -0.056636732 0.046706427 0.074789055 -0.07176462 0.11487607 -0.025659513 -0.039161853

static_variable_selection.single_variable_grns.encoder_length.resample_norm.norm.weight f4 [16]
00000000: 7f4a 783f 1779 753f bdf2 723f 2d41 873f
00000010: 5950 703f 6733 7c3f fc07 7c3f eb0c 8b3f
00000020: 61a9 883f ca6b 743f cc10 883f fe15 8d3f
00000030: f3e3 6c3f 879c 8c3f 4496 7c3f 29e5 783f
0.9698867 0.95887893 0.9490164 1.0566765 0.938726 0.98515934 0.98449683 1.0863317
1.067669 0.95476973 1.0630126 1.1022336 0.9253532 1.0985268 0.9866679 0.9722467

static_variable_selection.single_variable_grns.encoder_length.resample_norm.norm.bias f4 [16]
00000000: 4ccd 3f3d 215e 6e3d f86f cd3c 60a9 4bbd
00000010: 0b78 7e3d 4cfb 453d da1f 3dbc 29e8 cb3d
00000020: a002 bdbd 59e7 4f3d e11f 7fbd 1dca cabd
00000030: b121 a7bd bdbe c33d cf11 40bc 5ebe ddbc
0.046826646 0.058195237 0.025077805 -0.049722075 0.0621262 0.04833536 -0.011543239 0.099563904
-0.09229016 0.05075774 -0.06228626 -0.09901831 -0.08160723 0.09557865 -0.011722996 -0.027068313

static_variable_selection.single_variable_grns.encoder_length.fc1.weight f4 [8, 8]
00000000: 1715 713e 6418 a03d eb14 21be 9419 c23e
00000010: eacb 9ebe 0b03 923f 1722 90be 6319 733e
00000020: c047 38bc 7193 d4bc 6e91 a03e ad3d 47bf
00000030: a61c e0be f741 29bf 1f06 303f 5805 35bc
00000040: e430 8abe 146a 8c3d aefa f93e 027d a4bd
00000050: 925a 23bf deae 483f e9cf 413e 0b45 423e
00000060: cab1 8c3f 3522 0dbf 396a 2dbf 31e0 8a3e
00000070: 5280 d5be f268 bd3e 26f8 0cbf 37ca 14bf
00000080: 8fa5 293f 8abf a63e 975e dc3e 2637 06bf
00000090: ad28 39be 6f12 793e 83c3 01bd ba27 1bbf
000000a0: ade4 7ebe 62ce 1e3e b44d 403e aa51 7dbf
000000b0: 15f3 12bb 5c7a 4abf fe35 2bbf b171 c9be
000000c0: f902 9b3e a5ba 57be 5a32 abbd 9ec0 1cbe
000000d0: 845b 42be 1c33 133f 7c76 13bf b943 0cbe
000000e0: 93b7 19be f9da 6dbc 7055 00bf 9ec9 84be
000000f0: 2a9d 6b3f f17a 5fbe b3a4 3dbe e41d 763f
0.23543201 0.07817152 -0.15730636 0.3791014 -0.3101495 1.1407179 -0.28151008 0.23740153
-0.011247575 -0.025949212 0.31360954 -0.77828485 -0.43771857 -0.6611628 0.6875934 -0.011048637
-0.26990426 0.0685617 0.48824066 -0.08031656 -0.63810074 0.78391826 0.18926968 0.1897165
1.0991757 -0.5513032 -0.6774021 0.2712417 -0.41699463 0.3699413 -0.55066144 -0.58121055
0.6626825 0.32568008 0.43040916 -0.524279 -0.18081923 0.24323438 -0.031680595 -0.6060749
-0.2489192 0.15508416 0.18779641 -0.98952734 -0.002242272 -0.79092956 -0.6687926 -0.39344552
0.30275705 -0.21067293 -0.08359213 -0.15307853 -0.18980223 0.5749986 -0.5760267 -0.13697709
-0.15011434 -0.014517539 -0.5013037 -0.25935072 0.9203669 -0.21824242 -0.18519859 0.9613936

static_variable_selection.single_variable_grns.encoder_length.fc1.bias f4 [8]
00000000: 364a 91bc 29bd 62bc a250 8ebb c0a6 44bd
00000010: 1e27 983c 1983 453d c707 833d 3d23 c13d
-0.017735582 -0.013839045 -0.0043431083 -0.048010588 0.01857334 0.048220728 0.06397968 0.09430549

static_variable_selection.single_variable_grns.encoder_length.fc2.weight f4 [8, 8]
00000000: 1d41 99be d746 173e 9395 c63e 3569 5fbe
00000010: 7ec5 283e 1d7a 673d a4c4 a13e 81fc cf3e
00000020: efbf 3f3e 6b29 6ebf 0e8c 25bf 2794 ed3e
00000030: 9ba8 6e3e f1f8 e13c 2899 0d3e 8402 183f
00000040: 5a4a 413f fb4c 863e 9ab5 cebe e69e a33e
00000050: 7159 a13e 8d6b d6be debd 32bf afa6 19bf
00000060: 05cb 573d 87b5 b23c bed6 ed3d 8ca4 f03d
00000070: 41f1 973d 5cdf 943d f2ea 8cbe a835 0abf
00000080: 1535 543f 704b 3bbe 0b43 5ebf 6797 22be
00000090: a781 c73d 7d1f e3bd 8895 e43e aaab 773e
000000a0: 3612 293f 02ff e43e 2d6c a3be 0c79 89bf
000000b0: bc6a 22be 1d3d 8bbe a1d1 053f d94f 303f
000000c0: b317 f23d c7fa 1dbe 1400 08bf ce43 44bf
000000d0: c5d7 763e 776e 273e c532 c03e 3eba 3fbe
000000e0: 7bf1 44bf e556 203f 99f6 2bbc f01d e7be
000000f0: 97f9 4d3f fb8b 093f cb7f d6be 1cef 05bc
-0.2993249 0.14773117 0.3878599 -0.21817477 0.16481587 0.05651294 0.31595337 0.40622333
0.1872556 -0.9303195 -0.6466683 0.46402094 0.23306505 0.027584525 0.13827956 0.5937884
0.75504076 0.26230606 -0.40372926 0.31957167 0.3151355 -0.4187893 -0.69820964 -0.60019964
0.05268385 0.021815075 0.116132244 0.11750135 0.074190624 0.07269165 -0.27523 -0.5398812
0.82893497 -0.18290496 -0.8682105 -0.15878068 0.09741526 -0.1108999 0.44645333 0.24186578
0.6604341 0.44725806 -0.3191847 -1.0740066 -0.15861028 -0.27195063 0.52272993 0.6887184
0.118209265 -0.15427695 -0.5312512 -0.7666596 0.24105747 0.16350733 0.37538734 -0.1872339
-0.7693097 0.6263259 -0.010495805 -0.45140028 0.8045897 0.5372922 -0.41894373 -0.008174684

static_variable_selection.single_variable_grns.encoder_length.fc2.bias f4 [8]
00000000: e5df 043e ab9d f43a dbc2 b8bc d71b 523b
00000010: a46e dabb 17b1 9b3c 81be b73d 56de a2bc
0.12976034 0.0018662711 -0.022553852 0.003206005 -0.0066660214 0.019005341 0.089718826 -0.019881409

static_variable_selection.single_variable_grns.encoder_length.gate_norm.glu.fc.weight f4 [32, 8]
00000000: 4bc9 5dbd f7db ad3c ffef a13e e20b 96bc
00000010: 2ddc 0b3e 2ebf 123e 48a2 48be a94d 1abe
00000020: 83a4 9d3e 29e7 d5be 794a b93c 1a77 833e
00000030: 83cc 46be 43e3 a6be 9348 84bb c09f 61be
00000040: 4a79 0bbe 81ed cebc 3bd2 753e 80d5 98bd
00000050: e50c 5a3d cf2c 95be 82cf a1bd 58d4 a9be
00000060: 4030 9abe 0acf 243e 5d1b 5a3e 269b 6abe
00000070: ca29 573d e146 babe d4fe 18be d21b f93c
00000080: ca8a 4dbe ae2b cfbe 4076 5fbd 5887 f7bd
00000090: 3ab6 03be 8b27 aa3e e314 9c3d d06b 3e3e
000000a0: 7606 84bd b803 ab3e 374a a13e 9683 5a3e
000000b0: c80e 0f3e 803c 65be 0493 9f3d a399 cd3d
000000c0: 89c9 c3be b0e3 a63e 1fcb 8b3c 32f9 2f3e
000000d0: d674 2cbe 84f5 9e3d e41f 033d 323e b83e
000000e0: c48a 993e 436b 85bd d3da c23d 2dec 963e
000000f0: b538 0e3e 0285 7fbe 391d 3f3d 447e d83e
00000100: 58c3 a2be 678e 5fbe edae b0be 51b8 1bbe
00000110: 9f4e 253e 422a 90be eb86 4ebe 4afc 073e
00000120: 4cce f03d a95e 49be 957b 83be e0ee 61be
00000130: b1da 9cbe d9c7 8e3e 133e a5bd 2f53 70bd
00000140: 2a9a 83be 7639 2abc 3f26 983e 8ae7 763e
00000150: cddc af3e f0ea 89be 8325 15be 38da 19bd
00000160: cb0e b1bd e276 c43e de13 b0bd 13fc 65be
00000170: 7326 67be 2827 1b3e 7332 7f3e 9ee3 733e
00000180: e3da 5dbe bd30 46be 9935 bdbe e04d 62be
00000190: 7af2 a2bc 9ab3 ccbd 771c 3abe 8e8a f9bd
000001a0: e087 813e 9f67 44bc b856 64be 8303 36bd
000001b0: 74da f5bc fd9c c53d 395e 99bd eecd 3f3e
000001c0: ef53 c1be fa39 053e 2eec bbbe c06e b33d
000001d0: e351 b9bc 85b8 7fbd 9137 54be 26f2 0dbe
000001e0: f1df 613e 10f8 ae3e 1b86 9e3d 72d4 063e
000001f0: de09 503e 82eb 67be a825 743d ece6 003e
00000200: 6743 97be de56 ce3d d826 6fbd 30d0 923e
00000210: 8231 4ebe 0cca 0abd ce02 a1bd d7ed 7bbe
00000220: 7f4b 00be 5d04 f83c 0897 8b3e fb7a 943e
00000230: 5c70 9ebe 7e9a 263e 7ade 86be 24cc 183d
00000240: ae0d 153e eee6 11be aa27 c03b e1d8 edbd
00000250: 2600 60bd 893b b2be ad66 bfbe 13fa ecbd
00000260: 0fb7 d63c 4f6c 32be 79da a13e 7149 ac3e
00000270: 648b 96be 4a56 f9bd 45ea 0fbe 14fb b23e
00000280: 3406 d2bc 17f2 abbe 3fad 38be aecf a9be
00000290: 7fff 96be 4647 51be 5cb7 1d3e 1363 c83d
000002a0: e600 b5be b539 9dbe abf9 afbe 2c59 0a3e
000002b0: 8071 b9be b2e5 4e3d 297f c43e c0bd b8be
000002c0: 0d2a 203e 3377 8e3e eef3 c1be 50a0 ae3e
000002d0: 1807 5abe 2c37 aa3d 20c6 99be 0a00 d2bc
000002e0: b064 85be e8fd db3d 5120 113e 58e8 263e
000002f0: 0918 39be 0e2e 8a3e 5ebd f0bd 8097 95be
00000300: a61a 6fbd 0a88 7dbe aad7 c93d fb56 25bd
00000310: ba1b 40be 95de 3c3e a01c afbe 7f23 713d
00000320: e5dd 4e3d 048d 90be f5b4 e1bd 8c66 9f3e
00000330: c44c afbe c75e f53d 8dc8 bc3e 0faf 8d3d
00000340: 74ba 263e 8e59 e4bd c440 273e b1d4 013e
00000350: 92cd bc3d ea8e cdbe e83d 36be 9b40 87be
00000360: 0ecb 46be 1f51 5bbe 8f10 aabd eaf2 bd3e
00000370: 7fdf 27be f1a1 9bbd d5ff 9e3d 12f5 9b3e
00000380: 3789 793e 1240 a3be ca55 963e fc54 593e
00000390: 0462 6f3e 35b8 a83e 46e6 273e f6d6 813e
000003a0: d7cb a5be 887c 63be 3c22 af3b 08fa 3cbe
000003b0: 7c5a 11be b1d7 e1bc c837 f5bd 9f9f 05be
000003c0: 2528 8fbe 0750 a93e 5e58 bbbd 0455 7ebe
000003d0: d20d 813e c89c 353e 41e2 a3be 2f28 91be
000003e0: 7711 bfbe 64b1 98be d779 f63d ecd6 d1bd
000003f0: f245 763e e0c5 dcbd 7536 b93e de28 c73d
-0.054147046 0.021223051 0.31628415 -0.018316213 0.13658209 0.14330742 -0.19593155 -0.15068687
0.30789575 -0.41777924 0.02261852 0.25676805 -0.19413953 -0.32595262 -0.004036972 -0.22033596
-0.13620487 -0.025259735 0.24005978 -0.07462597 0.053234953 -0.2913575 -0.07900907 -0.33169818
-0.30114937 0.16094604 0.21299501 -0.22910747 0.052530088 -0.363822 -0.14940959 0.030408774
-0.20072475 -0.40463012 -0.05455613 -0.12086362 -0.12862483 0.33233294 0.07621171 0.18595815
-0.06446545 0.33401275 0.31501934 0.21339259 0.13970482 -0.2238636 0.07791713 0.100390695
-0.38239697 0.32595587 0.01706463 0.17184904 -0.16841444 0.07761672 0.032012835 0.3598495
0.29988682 -0.06514599 0.09514394 0.29477063 0.1388882 -0.24953082 0.04665873 0.42283833
-0.3178966 -0.21831666 -0.34508458 -0.1520703 0.16143273 -0.2815724 -0.20168655 0.13279834
0.11758098 -0.19665016 -0.25680223 -0.2206378 -0.30635598 0.27886847 -0.0806848 -0.05867308
-0.25703555 -0.010389676 0.2971668 0.24111763 0.34348145 -0.26937056 -0.14565091 -0.037561625
-0.086454 0.3837195 -0.08597539 -0.2245944 -0.22573261 0.15151656 0.24921589 0.23817298
-0.2166553 -0.1935453 -0.36954954 -0.2210002 -0.019891012 -0.09995194 -0.18174921 -0.1218463
0.25298977 -0.011987596 -0.22298706 -0.044436943 -0.030011393 0.09649084 -0.07488675 0.187309
-0.3775935 0.13010398 -0.36703628 0.08761358 -0.022622054 -0.06243183 -0.20724322 -0.13861904
0.22058083 0.34173632 0.07740422 0.13166979 0.20316264 -0.22648433 0.059606224 0.1258809
-0.2954361 0.10075162 -0.058386654 0.2867446 -0.20136073 -0.033884093 -0.07861863 -0.24602447
-0.125288 0.030275518 0.27263665 0.29000077 -0.30945098 0.16269872 -0.2634161 0.03730406
0.14556 -0.14248249 0.0058641033 -0.11613632 -0.05468764 -0.34811047 -0.37383023 -0.11571135
0.026210336 -0.17424129 0.31611994 0.3364978 -0.29403222 -0.121746615 -0.1405421 0.34957182
-0.025637724 -0.33583137 -0.18034838 -0.3316626 -0.29491803 -0.20437345 0.15401977 0.09784522
-0.35352248 -0.3070809 -0.3437017 0.13510579 -0.36219406 0.050512023 0.38378266 -0.36082268
0.15641041 0.27825317 -0.37881416 0.34106684 -0.21291769 0.083113045 -0.3003397 -0.025634784
-0.2605338 0.10741788 0.14172484 0.1629957 -0.18075575 0.26988262 -0.11754869 -0.29217148
-0.058375023 -0.24758926 0.09855588 -0.040366154 -0.18760577 0.18444283 -0.34201527 0.058871742
0.050504584 -0.28232586 -0.11020843 0.31132925 -0.34238255 0.11980968 0.36871758 0.069181554
0.16282064 -0.11149894 0.163333 0.12678792 0.09218897 -0.40148097 -0.17797053 -0.26416478
-0.19413397 -0.21417664 -0.083039396 0.3709939 -0.1639385 -0.07599247 0.0776364 0.3046041
0.2436875 -0.3188482 0.29362327 0.21223825 0.23377234 0.3295304 0.16396436 0.25359315
-0.3238208 -0.22215474 0.005344657 -0.18454754 -0.14194673 -0.02756867 -0.1197353 -0.13049172
-0.27960315 0.3306887 -0.09147714 -0.24837118 0.25205857 0.17735589 -0.32008556 -0.2835097
-0.37318012 -0.29822838 0.12034958 -0.10246071 0.2405012 -0.10779929 0.3617436 0.09724592

static_variable_selection.single_variable_grns.encoder_length.gate_norm.glu.fc.bias f4 [32]
00000000: 687c 1f3d 8b72 5b3d 7dab c63c 6f13 37bd
00000010: cf17 5e3d 0949 333d 28ff 4cbc 6cc7 c33d
00000020: b780 b3bd 2aad 2f3d 8ce6 76bd 831c b9bd
00000030: cb69 a0bd a29f b73d 7fc8 a4bb 7116 afbc
00000040: 5740 973a 0209 0b3c 795c 90bb db94 01bd
00000050: b791 023d 1794 f6bc 9dbd 52bc 3637 6ebd
00000060: 743f 2bbd 96a1 6c3c bfed 30bd 4fe2 433c
00000070: 8679 66bd bb9f 41bd a20f a9ba 9f3f 883b
0.038937002 0.053576034 0.024251694 -0.044696268 0.054221924 0.043770824 -0.012512006 0.09559521
-0.08764785 0.04288975 -0.06027846 -0.09038641 -0.078326784 0.089659944 -0.005028784 -0.021373006
0.001153956 0.008486034 -0.004405555 -0.0316361 0.031877246 -0.030099912 -0.01286259 -0.058158122
-0.04180856 0.014442822 -0.043195482 0.011955812 -0.056268238 -0.04727147 -0.0012898336 0.004157975

static_variable_selection.single_variable_grns.encoder_length.gate_norm.add_norm.norm.weight f4 [16]
00000000: 3eea 783f db7e 793f a948 763f 8dc1 863f
00000010: 5a39 683f 004c 763f 680d 7b3f 9705 883f
00000020: c621 823f a7e0 723f b375 883f ff6a 8d3f
00000030: 5b57 6f3f c1bf 903f 5e33 7e3f ac1f 743f
0.97232425 0.9745919 0.9620462 1.0527817 0.9071251 0.96209717 0.9806733 1.0626706
1.0166557 0.9487404 1.0660919 1.1048278 0.9349267 1.1308519 0.9929713 0.9536083

static_variable_selection.single_variable_grns.encoder_length.gate_norm.add_norm.norm.bias f4 [16]
00000000: 1a98 753d 248a 4c3d 4f66 b03c 5c20 67bd
00000010: 1acc 653d f0d9 4b3d b5fe 5dbc a705 b23d
00000020: 385d acbd 8f5d 463d 0b7e 8bbd 29cc cabd
00000030: 7b63 8cbd 3f5d fa3d cae4 21bb a81a 00bd
0.05995951 0.04993643 0.02153316 -0.056427345 0.05610285 0.04976839 -0.013549496 0.08692484
-0.084162176 0.04842907 -0.0681115 -0.09902222 -0.06854912 0.122248165 -0.002470302 -0.03127542

static_variable_selection.prescalers.encoder_length.weight f4 [8, 1]
00000000: 6003 14be 7e91 783f 00cc c9bb 7811 df3e
00000010: dc41 05bf 808a 21bd 26ef 763f 90a3 2f3f
-0.14454412 0.97097003 -0.006158352 0.43568015 -0.5205362 -0.039438725 0.9645866 0.6860895

static_variable_selection.prescalers.encoder_length.bias f4 [8]
00000000: 0616 5a3e 4594 2dbf 7501 e3bd 171c 1c3f
00000010: 00fd c7bc 6546 6fbf 7868 423f 7472 233f
0.21297464 -0.67804366 -0.11084262 0.6098036 -0.024412632 -0.9346679 0.75940657 0.63846517

encoder_variable_selection.flattened_grn.resample_norm.mask f4 [4]
00000000: 698c d5bc 2b9a a83d a9f0 afbd ba30 373d
-0.02606793 0.0823253 -0.08590824 0.044724204

encoder_variable_selection.flattened_grn.resample_norm.norm.weight f4 [4]
00000000: 8c04 643f 687d 893f 4d4f 723f ad11 773f
0.8906944 1.0741396 0.94652253 0.96511346

encoder_variable_selection.flattened_grn.resample_norm.norm.bias f4 [4]
00000000: 5bdf afbd d8e0 b6bd f221 053e f55f bebd
-0.085875235 -0.08929604 0.1300123 -0.09295646

encoder_variable_selection.flattened_grn.fc1.weight f4 [4, 35]
00000000: 7a37 74be dcd3 55be 253c e43b c5a2 b13d
00000010: de4c 893e e113 453e efe5 a5be 6048 093e
00000020: dd06 983e ec8b 743e fa2c 02be 9c18 c3bc
00000030: 6bd6 07bf 8577 05bd 0b09 8d3d 2ce9 da3e
00000040: cc7e 65be ef29 a6bd 1b5a 663e bf2b 82be
00000050: 26bd 7abe 5fa9 bfba 5b1f ddbc 6960 3dbe
00000060: 6ab1 adbd 22b4 35be b8ce acbd d8a3 19bc
00000070: f763 db3e 34b2 9e3e d18c 09bd a5ed 413d
00000080: d3a1 17be 71a7 1abd 50e5 173e 1ee9 96be
00000090: 032c 0b3d 8945 77be 24d0 96bd 8abd b43d
000000a0: 5959 4c3e 7f9f 8e3e 554d 93bc eb57 453e
000000b0: e06c 98be ef28 fabd 87f7 d6bd 0d3a b0be
000000c0: 154c c3be 32bc 2bbf 30e9 41be 9de9 87be
000000d0: b504 8dbc c774 8bbe 0d5a c03d b497 36bd
000000e0: a834 73be 6bf0 753e 063e 0d3e d181 9abe
000000f0: 46cd d23d 1fb1 77be 37b6 96be 6f18 22be
00000100: 1454 14be 50ac f53e bd87 8fbe bde1 a23e
00000110: 7b13 923e f3b3 383d fa12 753e 0006 e2bd
00000120: 790c af3e dffa 8ebd 41ee f1be 2ab4 0ebe
00000130: b579 293f f931 083e 2d84 9cbe 93f8 9abe
00000140: e8f8 03bf afef f33d 07e1 61be e484 b7be
00000150: ba8f 97bd 039d c8bd 0234 18be b30d 3abd
00000160: c328 823e ab35 ef3d 4061 ee3d 4464 2f3e
00000170: 100d 9abd d3d3 92bd 1b4d f3bd a4e0 563e
00000180: 84a5 753c 4669 91be feee f4bd e27d 053e
00000190: d207 323d 8e7d 883e f52b e63e 262a 89be
000001a0: f9ac f9bd 73a5 a43c 8748 163e b5aa 6e3c
000001b0: e13f d23d c639 883d bda2 883e 13b0 003e
000001c0: 5bad 083e f9c8 7cbd 4dbe 303e d964 8d3e
000001d0: 81da c73d 5ae0 97be 4e98 9e3e 625c 10bc
000001e0: 8954 653d fe1a b63d 0fe8 313e 259e ad3e
000001f0: 8478 953c 31f4 e63d f7b0 a53d a4ba 1bbd
00000200: c8e7 103e 1f4c 84be ee70 2b3e ef81 f7bd
00000210: 5022 aa3d 5efa e3bc 5524 193c 93eb 3a3e
00000220: fb54 763e ed87 5cbc a698 9b3b 9adf 32be
-0.23849288 -0.20881599 0.0069651776 0.08673624 0.26816458 0.19245864 -0.32401988 0.13406515
0.29692736 0.23881501 -0.1271247 -0.023815446 -0.5306155 -0.032584686 0.068864904 0.4275602
-0.2241165 -0.08113467 0.2249531 -0.25424 -0.24486217 -0.001462262 -0.02699249 -0.18493809
-0.08481105 -0.17744496 -0.08437866 -0.009377442 0.42849705 0.30995333 -0.03358156 0.047345776
-0.14807825 -0.03775734 0.1483357 -0.2947473 0.03397752 -0.2414762 -0.073639184 0.08825214
0.19955958 0.2785606 -0.01798121 0.1927182 -0.29770565 -0.12214839 -0.10496431 -0.3441929
-0.38143983 -0.6708404 -0.1893661 -0.2654542 -0.017214159 -0.27237532 0.09392176 -0.04457827
-0.23750556 0.24017493 0.13793191 -0.30177167 0.10293059 -0.2418866 -0.29435894 -0.15829633
-0.14485198 0.47983027 -0.28033248 0.3181285 0.28530487 0.045093488 0.2393302 -0.11036301
0.34189203 -0.069814436 -0.47252086 -0.13935915 0.66201335 0.13300313 -0.30569592 -0.30267772
-0.51551676 0.119109504 -0.22058497 -0.35843575 -0.074004605 -0.097955726 -0.1486359 -0.04542322
0.25421724 0.11680158 0.11639643 0.17128092 -0.07522023 -0.071693085 -0.11879941 0.20984131
0.014993075 -0.2840063 -0.11959647 0.13036302 0.04346449 0.2665829 0.44955412 -0.2678997
-0.12191195 0.020098424 0.14676104 0.014567067 0.1026609 0.066516444 0.2668666 0.12567167
0.1334738 -0.0617151 0.17260094 0.27616003 0.09758473 -0.29663354 0.30975574 -0.008811088
0.055988822 0.08891867 0.1737368 0.33909717 0.018245943 0.112770446 0.08090394 -0.03801979
0.14150918 -0.25839326 0.16742298 -0.1208533 0.08307326 -0.027829345 0.009347041 0.18253927
0.24055855 -0.013460142 0.0047484217 -0.1746811

encoder_variable_selection.flattened_grn.fc1.bias f4 [4]
00000000: 46f7 1cbc f222 c63d 8066 b93d 3d08 af3d
-0.009580439 0.09674634 0.090527534 0.08546493

encoder_variable_selection.flattened_grn.context.weight f4 [4, 16]
00000000: 3ab8 35be 3701 8c3c 8d45 54be 40c4 dbbe
00000010: 2cd0 a43d e5cb 89be c403 9dbe b3f5 1c3b
00000020: d345 a73e bc01 b33e c3b4 6b3e 8618 d2be
00000030: 3cbe 8e3e 991c af3e a223 70be 0854 5b3e
00000040: 5a0a 773e cb75 9ebe fe2b fe3d 5fec f5be
00000050: 9cb4 403e e8fd 3ebe 82b9 1c3e 34c0 b3be
00000060: f3e3 7fbe 54e2 b8be 2cf9 0fbe 03e0 debe
00000070: 5586 cebe f4c2 003f b97f 063f ebe1 7c3d
00000080: 0b06 8d3e e98b 033f 5b52 86be cc1f cbbd
00000090: d292 febe 295a 643e 7248 db3d fe0c 953d
000000a0: 7aea a43e 145c a3be 57aa 223e 41b3 b5bc
000000b0: f828 0f3d 2812 c03e 869e af3e 194e 73be
000000c0: 323b 06be 782a 9a3e 85bf cd3e 31a6 b3be
000000d0: 2aa8 1d3e 3777 17bf 767b 8fbe 76d6 f13e
000000e0: d1dd d8be fab1 ce3e 7176 07bf 0c6b cabe
000000f0: e6f3 2cbd 368e ff3e ab9d c43d aacf 953e
-0.17746058 0.017090423 -0.20729657 -0.42923164 0.08047518 -0.26913372 -0.30666935 0.002395016
0.3267046 0.3496226 0.23018174 -0.41034335 0.27879512 0.34201506 -0.23451093 0.21418774
0.24125043 -0.30949244 0.124107346 -0.480319 0.18818897 -0.18651545 0.1530514 -0.35107577
-0.249893 -0.36110175 -0.14059895 -0.43530282 -0.40336862 0.50297475 0.5253864 0.06173889
0.27543673 0.5138536 -0.26234707 -0.09918174 -0.4972139 0.22300018 0.10707177 0.07277869
0.3221014 -0.31906188 0.15885292 -0.022180201 0.03495118 0.37513852 0.3430063 -0.2376026
-0.13108519 0.30110526 0.4018518 -0.3508773 0.15396181 -0.5916628 -0.2802388 0.47233933
-0.42356732 0.4037016 -0.529151 -0.39534795 -0.042224787 0.49913186 0.09600385 0.29259998

encoder_variable_selection.flattened_grn.fc2.weight f4 [4, 4]
00000000: c038 bf3d 86cb 77bf da3d 4ebf e096 2fbf
00000010: 99a2 75bf b956 c8be ef1b 12be 8944 083f
00000020: 717c 0abf 31a4 0440 cfe7 f5bd 6273 303e
00000030: 6078 1e3e cec5 103f fae8 7ebf 98b6 afbd
0.09336996 -0.9679493 -0.8056313 -0.6858959 -0.9595123 -0.39128664 -0.14268468 0.53229576
-0.5409613 2.0725214 -0.120071046 0.17231515 0.15475607 0.56551826 -0.99574244 -0.08579749

encoder_variable_selection.flattened_grn.fc2.bias f4 [4]
00000000: d3be e1bd 502b 49bc 783f 8bbb 1f09 c6bc
-0.11022725 -0.012278393 -0.0042495094 -0.024174271

encoder_variable_selection.flattened_grn.gate_norm.glu.fc.weight f4 [8, 4]
00000000: 1a47 463f bea9 0cbf 6b55 013d 8c0f 173f
00000010: 4cdc 213f e7f6 1abf ab9c bc3e 4a9a 933e
00000020: 29d9 4cbf b4ed debd 6a83 c6bd 4fc8 ba3e
00000030: eb69 113e cc74 363f ad64 21bf a5e6 bc3e
00000040: 6d45 073f 6888 0a3e ffa0 3b3f 7ea3 b23e
00000050: 4f47 04bf eac0 423f 65ac d83e 518e 39be
00000060: c865 fcbd c885 b0be 2e06 df3e be5c b4be
00000070: 566a 55be 613c b03e db9e 8abd 6ef6 43be
0.7745224 -0.54946506 0.0315756 0.590081 0.6322677 -0.60532993 0.36838278 0.2882865
-0.8001886 -0.10885182 -0.09693034 0.36480948 0.14200561 0.7127197 -0.63044244 0.36894718
0.5284031 0.13528597 0.73292536 0.3489036 -0.5167131 0.76075613 0.42319027 -0.18120696
-0.12324101 -0.34477067 0.43559402 -0.35227007 -0.20841345 0.34421065 -0.067685805 -0.19136974

encoder_variable_selection.flattened_grn.gate_norm.glu.fc.bias f4 [8]
00000000: 0425 72bd f919 7cbd 9e06 e53d 9ea3 7cbd
00000010: da7a 3e3d 1f35 f6bc f2ee 673d abb4 483b
-0.059117332 -0.061548207 0.11182903 -0.061679475 0.04650388 -0.030054627 0.05662436 0.0030625265

encoder_variable_selection.flattened_grn.gate_norm.add_norm.norm.weight f4 [4]
00000000: 4d1d 663f 512f 823f 46a2 8b3f f5df 793f
0.8988846 1.017069 1.0908897 0.97607356

encoder_variable_selection.flattened_grn.gate_norm.add_norm.norm.bias f4 [4]
00000000: 037d d2bd 3cfa afbd e12e 103e 133e c0bd
-0.1027775 -0.0859265 0.14080383 -0.0938684

encoder_variable_selection.single_variable_grns.TEAM_ID.mask f4 [16]
00000000: d241 fb3c 749d e33c 6e65 86bd 4c08 a5bc
00000010: f53d 4cbd 292c 6cbd 6b7c aa3c 77b7 15bc
00000020: 4bf5 90bc eb36 87bc 3373 1b3d f9dc 023d
00000030: 20e4 21bb 4345 11bd e239 743d 35c4 943d
0.030671034 0.02778504 -0.06562315 -0.020145558 -0.049863774 -0.057659302 0.02081128 -0.00913798
-0.01769509 -0.01650568 0.03795166 0.031949017 -0.0024702623 -0.035466444 0.059625514 0.07263986

encoder_variable_selection.single_variable_grns.TEAM_ID.norm.weight f4 [16]
00000000: 034e 863f f04b 873f 5b73 753f 139d 7b3f
00000010: fde7 6f3f 14c5 6a3f 1a47 7a3f a610 743f
00000020: d857 6a3f cbc4 833f 3510 873f d1c5 843f
00000030: a245 783f 3880 6d3f 9187 853f 76f5 8c3f
1.0492557 1.0570049 0.95879143 0.9828655 0.9371336 0.9170697 0.9776474 0.95337903
0.9154029 1.0294431 1.0551821 1.0372869 0.9698125 0.9277377 1.0431997 1.1012409

encoder_variable_selection.single_variable_grns.TEAM_ID.norm.bias f4 [16]
00000000: 9833 bb3d c74f 76bd baed 24bd c21f 4fbd
00000010: 615c 85bd 59e5 05bd 4070 933d 3324 43bd
00000020: 4b35 f83d db5a 01be f1c1 593d aaf5 b53d
00000030: eb9e a03d b25d 8b3d 5ddd fd3d 80ea 053d
0.091407 -0.060134675 -0.040265776 -0.050567396 -0.065117605 -0.032689426 0.07199144 -0.047641944
0.1211954 -0.12632315 0.053163473 0.08884747 0.07842811 0.0680498 0.12395737 0.03269434

encoder_variable_selection.single_variable_grns.time_idx.resample_norm.mask f4 [16]
00000000: 9cd5 883c ac55 573d 198a 2d3b 365f 9c3c
00000010: 0c47 f5bc a15e 9d3c 8010 43bd 854c e53c
00000020: 58c6 483d 748d 81bd 7298 1f3d 975c b1bc
00000030: ce9c cabc 8f73 07bd ed97 9cbb ea7a 6e3c
0.01670342 0.052571937 0.0026480018 0.019088369 -0.029941104 0.019210162 -0.047623158 0.027990589
0.04901728 -0.06325808 0.038963743 -0.021650596 -0.024732973 -0.03306919 -0.004778853 0.014555672

encoder_variable_selection.single_variable_grns.time_idx.resample_norm.norm.weight f4 [16]
00000000: eb4a 823f 0ae3 883f 494c 813f 91e1 833f
00000010: 303a 6f3f 192a 843f b039 6f3f 49e3 813f
00000020: 08a1 893f 5a58 6a3f a37b 873f 5242 803f
00000030: 76e6 7b3f a32f 763f bfaa 7e3f 0aec 833f
1.0179113 1.0694287 1.0101405 1.0303212 0.9344816 1.0325347 0.934474 1.0147487
1.0752268 0.91541064 1.0584606 1.0020239 0.9839853 0.9616644 0.9947929 1.0306408

encoder_variable_selection.single_variable_grns.time_idx.resample_norm.norm.bias f4 [16]
00000000: 71f6 a63c 9042 98bd c006 2dbc a574 40bd
00000010: 5615 19bd 20f6 83bd 57c7 903d 6f4a 50bd
00000020: 8e0d ba3d a64f a6bd 16f9 763d 8115 843d
00000030: ac2a f53c c2ec abbc 2ad5 913d b940 0cbd
0.020381184 -0.07434571 -0.010560691 -0.04698624 -0.037373863 -0.06443429 0.07069271 -0.050852235
0.090846166 -0.081206605 0.06029614 0.06449414 0.029927574 -0.020986918 0.07120736 -0.03424141

encoder_variable_selection.single_variable_grns.time_idx.fc1.weight f4 [8, 8]
00000000: 5703 ecbd aa18 cdbd 18cb 42be 958b d1be
00000010: e96c 16bf e80e ea3e 200f 873f a457 733f
00000020: 2016 0f3f 782f acbd 2ec3 353f 7a18 813e
00000030: 6db6 6c3e 6307 2fbf dd8e d1be 9d45 893f
00000040: 1a75 dd3e 8ead a53e f05e fbbe a5eb 0ebe
00000050: e503 2ebf 6c0a 53be 9f5a 9c3c e1b6 983e
00000060: 4442 353e c4ef 173e b4b5 563e 6b6c 703e
00000070: b7a4 80bd ceec 85be cc09 46be ccfe 9bbd
00000080: 1be3 7abc 9693 a3bd 5df5 1c3f 68e5 c23d
00000090: a389 5cbd 7cd9 ee3d 9328 a1bf 072b 22bd
000000a0: fb17 72be 4533 e1be 029d a43d 5fbb 63be
000000b0: fa3b 5e3c 7c2b 2b3f e387 1ebf d3b6 4bbd
000000c0: 6570 0ebf c77e 3a3f 91be 763e 900f 4fbf
000000d0: 7a94 f0be 4863 973e 121e 33bd f3f3 a4be
000000e0: ae58 a5bd 04af 9bbe 2c6b 12bf 918a 8ebf
000000f0: 21a8 02bf 81ee 18bf 0a76 1e3f 30cc 623f
-0.115240745 -0.1001447 -0.19022787 -0.40926805 -0.58759934 0.45714498 1.0551491 0.95055604
0.55893135 -0.084074914 0.71000946 0.25213987 0.23116465 -0.68370646 -0.4092931 1.0724369
0.43253404 0.32358974 -0.4909587 -0.13957079 -0.6797469 -0.20609444 0.01908618 0.29827026
0.1770106 0.14837557 0.20967752 0.23478858 -0.06281417 -0.2615723 -0.19339675 -0.07616958
-0.015312935 -0.07987134 0.61311895 0.09516412 -0.053842198 0.116625756 -1.2590507 -0.039591815
-0.2364196 -0.43984428 0.08037759 -0.22239445 0.013564104 0.66863227 -0.61926097 -0.0497349
-0.5564025 0.72849697 0.24096133 -0.8088312 -0.4698828 0.29567933 -0.04372985 -0.32217368
-0.08073555 -0.30406964 -0.5719478 -1.1136037 -0.51037794 -0.5973893 0.61898863 0.88592815

encoder_variable_selection.single_variable_grns.time_idx.fc1.bias f4 [8]
00000000: 09d0 4a3c 7a2f 213c 1025 eebc 0bf0 163d
00000010: 7a0a 873d f7a5 27bd 6638 44bd 624a 9f3d
0.012378701 0.009837979 -0.029070407 0.036850017 0.06593795 -0.04092976 -0.04790535 0.07777859

encoder_variable_selection.single_variable_grns.time_idx.fc2.weight f4 [8, 8]
00000000: ac9e 003f 1d13 a7bb 2821 7abe 8981 0d3f
00000010: b781 1f3e d06a f6bd f9e0 5f3e 2f8f 753c
00000020: 0e80 0d3e bbf8 b33d 467e 173f 7ff0 f4be
00000030: 3ef5 05bf 5f74 043d ebca 603e b6c1 1ebf
00000040: 1192 83bf 5647 38bf d9b5 513d 2ebd 3f3f
00000050: ba3f 173f 4e06 c13e 2238 243e d40a 2e3e
00000060: 9891 73bd f950 b5be 4f2d fe3e ef06 8abe
00000070: be59 43bf e7d9 acbe 4b10 8dbe 9e7e 2bbf
00000080: 9282 df3e b82a 11be cb9e 97be 9a00 8e3f
00000090: 26bc 85bf d951 613f 15b7 663f 28d7 84bf
000000a0: 3432 d4be 3226 cdbe d22f 08bf a67a f73d
000000b0: 545d 11bf 81bc 61bd b121 dbbe 3872 e4be
000000c0: a8fd 3b3f 2e00 f3be 625b 4dbe 0db6 163f
000000d0: f94a f93d 9c0a 10bf 1cce 6cbe 83c5 a33c
000000e0: cb91 6d3e a0de 9a3e 7c32 abbe edd2 3bbe
000000f0: 1cf7 92be 5eaa 29bf 3e26 5b3e 506c cbbe
0.50242114 -0.005098714 -0.2442671 0.5527578 0.15576826 -0.120320916 0.21863164 0.014987751
0.1381838 0.08787676 0.5917705 -0.47839734 -0.52327335 0.032337543 0.21952407 -0.6201433
-1.0278951 -0.7198385 0.051198814 0.7489804 0.59081614 0.37700123 0.16037038 0.16996318
-0.05946502 -0.3541334 0.49643943 -0.26958415 -0.7630881 -0.33759996 -0.27551493 -0.6699008
0.43654305 -0.14176452 -0.29613337 1.1093934 -1.0448043 0.88015515 0.9012311 -1.037816
-0.41444552 -0.40068203 -0.5319797 0.1208394 -0.5678303 -0.055111412 -0.42799142 -0.44618392
0.73433924 -0.47461075 -0.20054391 0.5887154 0.12172503 -0.5626619 -0.231255 0.019991642
0.23200147 0.30247974 -0.33436954 -0.1834218 -0.28704154 -0.66275585 0.21401307 -0.39731073

encoder_variable_selection.single_variable_grns.time_idx.fc2.bias f4 [8]
00000000: 256f ca3b a42b a4bd d6ae 85bb 83ef e8bc
00000010: 08c0 1dbd 6b0c 2fbd c5e2 d03c f9eb cabc
0.0061778002 -0.08016136 -0.00407968 -0.02843452 -0.038513213 -0.042736452 0.025498757 -0.024770724

encoder_variable_selection.single_variable_grns.time_idx.gate_norm.glu.fc.weight f4 [32, 8]
00000000: 33a2 79be f99a 83be 52bc a83d 1319 1d3e
00000010: 734f b5be 7aae b53d 8062 fabd 163b ef3d
00000020: aeec dc3d bedd 233e 6666 473e 661d 693e
00000030: df5d 5abe dc83 a83c 1852 5bbe 450f 563e
00000040: d971 30be 7942 953e 7f85 0cbe 319f a9be
00000050: 71e8 dfbd df85 b33e 1215 21be cffb 90bd
00000060: 4372 7b3e 4ee9 823e dbbd 87be 83a3 80be
00000070: 8f6d 7f3e 5952 69be aaf3 ad3e 24a7 c23e
00000080: 2daf 443e 118a 723e 704b 523e 2fb9 85bd
00000090: ce03 9a3b 612f 96bc f609 9e3d ba38 bcbe
000000a0: 990e abbd 443e 1a3e 96f4 60be c22b b33e
000000b0: d30e abbe ab67 31be 066c 2a3d 77ae 2ebe
000000c0: 80a8 a23e e201 88be 74c1 8ebe fd8a e73d
000000d0: d7d5 68be 0605 6cbe 7c17 1bbe 5428 afbe
000000e0: bbcb 3b3d 374c 443e fb1d 40be f9a6 333e
000000f0: 857d 25be 6cdb 263e e6dc a63e 5957 b63d
00000100: ab88 fbbd 8bed 82be fec2 b0bc 7038 c4bd
00000110: d389 a5bd 1be6 41be 0e5e 483e 4858 ccbc
00000120: 414a 263e f845 443c 3405 833e 3dc7 8c3d
00000130: 2ede 7a3d a902 f63d c774 a9be 890b 9cbe
00000140: f71e 53be 33c9 76be 9411 2c3d e958 98bd
00000150: 0227 8dbe 8f43 5e3e e31d 163e c8fb cebd
00000160: 1770 84bd 6f4d b7be 4ff5 da3e 1c1c a2bb
00000170: 61db 173e b39a 97be 7b2c b7be ff4f 053d
00000180: 692b 5abe 5851 f93d f649 0e3d 2129 4b3e
00000190: e77c d7bd b143 803d 364b 583e 8d4f a03e
000001a0: f702 95be 97c8 cabe e857 af3c 38b6 c2bd
000001b0: 9d93 9cbe 4b1f 7cbe d652 9abe a346 9e3e
000001c0: 0289 283e ef50 d0bd 13ec aebe f370 5f3d
000001d0: be5f 1b3e 116f be3d 36de c2bd 304e bbbe
000001e0: 170b d13a e2d9 b13e cd63 4bbe 6f81 62bd
000001f0: 4c11 bebc 6f62 c43e 4051 b1be 4b4f 63bd
00000200: ffb3 f5bd 2ca0 873e 3678 333c 72a8 8e3e
00000210: 1696 ba3e 6b75 4cbe 0721 ad3d 8d62 b4bd
00000220: 40a6 a9bc 38a9 b9be fcff 9b3d 831b 16bd
00000230: 10a7 52be 4677 853e 267f 973e cfc8 183d
00000240: 2c29 fbbd ca95 903e cea8 6c3e 5e68 5dbe
00000250: 9476 83be b899 8c3e ceec e5bc 12e0 a13e
00000260: 9b81 b9be 3f15 943e d20a 083e afbd a03e
00000270: 1a7e 083d 43ef 7dbd cf4e 203d 298f 513d
00000280: 7097 2d3e 84e0 423e cf1b 2bbc f29e 613d
00000290: 9666 94be 9243 0dbd e91e b03e d651 a4bd
000002a0: a0ed a23e 35c9 e9bd c948 623e fcb7 04bd
000002b0: 1319 01be daba a53e 997f c2be 7c45 a2be
000002c0: 176c 2bbe 0edd 853e 1d01 be3d c31e 8bbe
000002d0: d9bb e13d c5cb c13d 94ce aa3d 2686 893e
000002e0: d212 813e 89c8 60be 7363 a7bc b60a a33b
000002f0: 4837 973e ad3b adbd 49aa 5abe 84bf 1d3d
00000300: 8a94 cdbb 8f22 bdbe 9b4e 8e3e 48ef 3f3e
00000310: 1a57 d4bd 8054 95bd a8ed 6dbe f055 163e
00000320: 32ca 273e dff3 b33e 1dd8 c0be 65e8 6f3d
00000330: 344a b2be ddeb 473e 588d bbbc f909 82be
00000340: 13ac b63d 7a86 463e afc0 47be b323 b43e
00000350: 33bf 653c 59d5 f43d 8968 243c e983 dabb
00000360: 1e44 aabd 7c48 41be 4897 bf3e 5854 91be
00000370: 0f07 37be f78b a9bd 5be8 3cbe 8b73 593e
00000380: 9459 2d3e b662 b0be fe01 a2be 629d 973e
00000390: de98 973e cc65 823e ddde 92be ef3e 843c
000003a0: 99e4 a13e 372f aebe 0b84 abbe 91c1 363e
000003b0: 8f1c b8be f84a 1f3e da6f b93e 4384 1ebd
000003c0: 2f46 bb3e b362 14be cc63 16bc 5d06 5b3e
000003d0: 8476 39be e94e 4e3e ac39 9a3e c5fe 4f3e
000003e0: cd3a 77be 435d d43d 5aff b83d a07d 11be
000003f0: 05ae 92bd b32a 8f3e e503 85be ab86 6abe
-0.2437828 -0.25704172 0.08239044 0.15341596 -0.35412177 0.088711694 -0.12225819 0.116811916
0.107873306 0.16002557 0.19472656 0.22765121 -0.21324871 0.020570688 -0.21418035 0.20904262
-0.1723093 0.29152277 -0.137228 -0.33129266 -0.109330066 0.35063073 -0.15730694 -0.07079279
0.24555306 0.25568622 -0.26512036 -0.2512475 0.24944137 -0.2278532 0.33974963 0.38018143
0.1920745 0.2368548 0.2053659 -0.065294616 0.0047001606 -0.018333139 0.07716744 -0.3676203
-0.08352394 0.15062815 -0.21968302 0.34994322 -0.33409747 -0.17324702 0.041606925 -0.1705874
0.3176918 -0.26563936 -0.27881968 0.11305807 -0.22737823 -0.23048791 -0.15145677 -0.34210455
0.04584859 0.19169699 -0.18761437 0.17544164 -0.16161163 0.1629464 0.32590407 0.08903379
-0.12281927 -0.25571856 -0.021577355 -0.09581077 -0.080829285 -0.18935435 0.19567129 -0.02494444
0.16239263 0.0119795725 0.25589907 0.06873939 0.061247043 0.12012226 -0.33096907 -0.3047755
-0.20617281 -0.24100189 0.04200895 -0.07438833 -0.27568823 0.21705459 0.14659838 -0.10106617
-0.06466692 -0.35801265 0.4276528 -0.0049471986 0.1482978 -0.29610214 -0.35776123 0.032546993
-0.21305622 0.12173718 0.034738503 0.19839908 -0.1052187 0.06262911 0.2112244 0.31310692
-0.29103824 -0.39606163 0.021404222 -0.09507412 -0.3058137 -0.24621312 -0.30141324 0.30913267
0.16458514 -0.10171687 -0.34164485 0.054551076 0.15173241 0.09298528 -0.095150396 -0.3658309
0.001594874 0.34736544 -0.1986229 -0.05529922 -0.023201607 0.3835635 -0.346323 -0.05549554
-0.11997222 0.2648939 0.0109539535 0.2786289 0.3644263 -0.19966666 0.08453565 -0.088078596
-0.020709157 -0.36261916 0.076171845 -0.03664733 -0.20571542 0.2606756 0.29589194 0.03730088
-0.12263712 0.2823928 0.23111269 -0.21621844 -0.25676405 0.27461028 -0.028067019 0.31616265
-0.36231694 0.2892246 0.13285378 0.31394717 0.033323385 -0.061995756 0.039137658 0.05116192
0.169523 0.19030958 -0.010443642 0.055083223 -0.28984517 -0.03448827 0.34398583 -0.080234215
0.31821918 -0.1141533 0.22098078 -0.032402024 -0.12607221 0.3236912 -0.37987974 -0.31693637
-0.16740452 0.26145214 0.09277556 -0.27171907 0.11022157 0.09462694 0.08340183 0.2686016
0.2520967 -0.21951498 -0.020433163 0.004975642 0.29534364 -0.08458648 -0.21354021 0.03851272
-0.0062738108 -0.3694043 0.27794346 0.18743622 -0.10368176 -0.07291508 -0.2323519 0.1468122
0.16385725 0.35146996 -0.3766488 0.058571238 -0.34822237 0.19523568 -0.022894546 -0.25398234
0.08919539 0.19387236 -0.19507097 0.35183486 0.014022636 0.11954755 0.010034689 -0.006668557
-0.083137736 -0.18875307 0.37420106 -0.28384662 -0.17873786 -0.08278649 -0.18448012 0.21235482
0.16928703 -0.3445031 -0.31642145 0.2961226 0.29608816 0.2546829 -0.28685656 0.01614329
0.3161972 -0.34020397 -0.33499178 0.17847277 -0.35959288 0.15555942 0.36218148 -0.038700353
0.36576983 -0.14490776 -0.009179067 0.21389146 -0.18111616 0.2014729 0.30122125 0.2031203
-0.24143524 0.10369351 0.090330794 -0.14208078 -0.07162098 0.27962264 -0.25979534 -0.22902934

encoder_variable_selection.single_variable_grns.time_idx.gate_norm.glu.fc.bias f4 [32]
00000000: bd93 a43c adc3 4abd 001b c2bb c0c3 00bd
00000010: 357c 96bc d6b2 3cbd a032 683d 004b 18bd
00000020: 1e92 813d 28eb 77bd a6ee 463d 3e5f 4b3d
00000030: 0c1d 883c cd31 60bc 9584 4d3d f569 97bc
00000040: 1c64 17bc 1706 d53b d966 8738 1245 a9bb
00000050: db41 efbb 63a3 0e3c de60 b2bc 7d50 623c
00000060: 4939 99bc d4a6 14bc 3908 81bc 1bf4 2d3c
00000070: 3356 9dbb 4efc 413c 27bc 5e3c bd6c 0ebc
0.020089978 -0.049503017 -0.005923629 -0.03143668 -0.018369773 -0.04606899 0.056688905 -0.0371809
0.06326698 -0.060526997 0.048567437 0.049651377 0.016615413 -0.013683748 0.05017527 -0.018483141
-0.0092401765 0.00650097 6.4564585e-05 -0.0051657045 -0.0073015518 0.008705947 -0.021774705 0.013813135
-0.018704074 -0.009072978 -0.015750991 0.010617281 -0.0048015355 0.011839939 0.013594664 -0.008692917

encoder_variable_selection.single_variable_grns.time_idx.gate_norm.add_norm.norm.weight f4 [16]
00000000: dd1c 783f 274a 873f 1ae2 7f3f f0df 803f
00000010: 3764 6e3f 82ef 843f c27e 6c3f 8340 833f
00000020: 3a39 893f 8bae 693f c07e 873f 4682 853f
00000030: c07b 7f3f c75d 7b3f db83 813f 42dc 7c3f
0.9691904 1.0569504 0.9995438 1.006834 0.93121666 1.0385592 0.9238092 1.0254062
1.0720589 0.91281956 1.0585556 1.0430381 0.997982 0.9818997 1.0118364 0.98773587

encoder_variable_selection.single_variable_grns.time_idx.gate_norm.add_norm.norm.bias f4 [16]
00000000: 4709 353d bc4a 7fbd 9333 c53b a3ea e0bc
00000010: aaaf 0dbd fbce 69bd 7114 9b3d 223c 16bd
00000020: fc65 b83d d4f5 a2bd 55a2 873d dc3a 9a3d
00000030: 10d3 763d 5a6f 2d3c c3f6 a23d 9c5a f6bb
0.0441983 -0.06232713 0.006018111 -0.027455634 -0.034591354 -0.057082158 0.07572258 -0.03667844
0.09003827 -0.07957044 0.06622759 0.07530758 0.06025988 0.01058563 0.07957222 -0.0075181257

encoder_variable_selection.single_variable_grns.relative_time_idx.resample_norm.mask f4 [16]
00000000: 2e84 5fbc fd40 cb3c 0407 09bd 8b10 253d
00000010: 7bdc 713d 2d3a 36bc f7e9 913c 8fb0 6ebd
00000020: c4f7 96bd b6c7 813d 109a 4ebd c529 7abc
00000030: e118 213d 399e 16bd d837 593d 849d b5bc
-0.013642354 0.024811262 -0.033453956 0.04029898 0.059048157 -0.011122269 0.017811758 -0.05827385
-0.07371476 0.0633692 -0.050439894 -0.015268748 0.039330367 -0.036771987 0.053031772 -0.022169836

encoder_variable_selection.single_variable_grns.relative_time_idx.resample_norm.norm.weight f4 [16]
00000000: 1d6d 7a3f c282 843f f243 743f 375a 863f
00000010: f6f0 8a3f d692 7a3f fcc9 833f be96 6a3f
00000020: fdaa 653f 45b2 893f 6c93 6e3f a5e6 763f
00000030: 738e 873f 7cc2 703f 3bae 883f b88f 733f
0.97822744 1.0352404 0.95416176 1.0496281 1.0854785 0.97880304 1.0296016 0.91636264
0.8971403 1.0757529 0.931937 0.96445686 1.0590347 0.9404676 1.0678171 0.9514117

encoder_variable_selection.single_variable_grns.relative_time_idx.resample_norm.norm.bias f4 [16]
00000000: ac61 e03b c5d1 92bd d6ca 253d 2ede 3abd
00000010: c8c2 c1bd 1cc9 75bd 0cb6 2e3d 8784 e8bd
00000020: 8387 dd3d a481 8cbd 857e 933d 6cd1 bb3d
00000030: 1469 843d 0e2b 3cbd aba8 813d 6051 0e3d
0.006847581 -0.071689166 0.040476643 -0.045622043 -0.0946098 -0.060006246 0.042654082 -0.113534026
0.108168624 -0.068606645 0.07201866 0.091708034 0.064653546 -0.045939498 0.06330999 0.034745574

encoder_variable_selection.single_variable_grns.relative_time_idx.fc1.weight f4 [8, 8]
00000000: 208c fb3e 2dc3 743e d364 813e fc74 2b3f
00000010: b4e3 6a3f 5da2 a4bd 38a2 183e d9c3 51be
00000020: eade 513f 017d 0f3f 35ee 913e af10 9bbc
00000030: 3fef 8abd 8ce0 aebe bb4a bebe cc06 27bf
00000040: b77e f13e ef57 ed3d 0aed 89bd b781 863f
00000050: 187f c43e a395 3b3e 3589 97be 89e8 a83d
00000060: fdd1 5c3e 5bc1 44be 6d7c 9b3e 539a 433e
00000070: 4593 abbe 40d6 abbe 663f 893e a3e2 f23e
00000080: 5123 94be 1de3 e53d 7ce3 1b3e 45ac 6ebf
00000090: e852 6fbe 087e 883f 1b80 433f 8989 4b3d
000000a0: 8c50 8c3e 3c7b 6ebf ebc7 f73d ab37 c9be
000000b0: c079 313f 6e26 29bf b3f2 05be d882 c4bd
000000c0: 302d 6cbe 0bb6 193f 2932 193f 366f e8be
000000d0: a628 933f 5065 4f3e c5b4 0cbf be8b 1abe
000000e0: dd8a 17bf 18f3 8ebe e330 a2bd c4a4 693e
000000f0: e643 1d3f 3b8d b53f a270 3dbf 893b 37be
0.49130344 0.23902579 0.25272235 0.6697538 0.917537 -0.08038781 0.14905632 -0.20484866
0.81980765 0.56050116 0.2850205 -0.018928854 -0.06783914 -0.3415569 -0.3716639 -0.65244746
0.47166988 0.115890376 -0.06734665 1.0508336 0.38378215 0.183188 -0.29596868 0.082474776
0.21564479 -0.19214384 0.30368367 0.19101839 -0.33510795 -0.33561897 0.26806182 0.47438535
-0.28933194 0.11224959 0.15223497 -0.9323161 -0.2337147 1.0663462 0.7636735 0.04969171
0.27405202 -0.9315679 0.12098678 -0.39300284 0.693264 -0.66074264 -0.13080864 -0.09595269
-0.23064113 0.600434 0.59842163 -0.45397347 1.149678 0.20253491 -0.5496333 -0.1509237
-0.59196264 -0.2791984 -0.07919481 0.2281676 0.6143173 1.4183725 -0.7399999 -0.17893805

encoder_variable_selection.single_variable_grns.relative_time_idx.fc1.bias f4 [8]
00000000: 3e67 21bd e29d babc 22e5 ccbd 2c3f 7e3d
00000010: aa3b 2d3d 88f2 79bd b4a5 0abd 833b 2cbb
-0.0394051 -0.022780363 -0.10004641 0.062071964 0.04229323 -0.06102231 -0.033849433 -0.002628059

encoder_variable_selection.single_variable_grns.relative_time_idx.fc2.weight f4 [8, 8]
00000000: 7773 803e f840 d13e 3975 84be 784c 30bf
00000010: 45c9 473e 4dd6 4ebf 017e 34bf 7267 e0be
00000020: 6ac6 943e ea77 703d 30d7 1e3f 93ba 71bf
00000030: d61f c6bd 8bdf 253f 5dba a33e 9334 90bc
00000040: 9221 ed3e bf6b 153d 024e 46be 608e 573f
00000050: e65d 47bf 3cf1 253f 8f92 f0be dd69 59bf
00000060: c9b5 40be 07e9 f73d 7c5b ae3e 10e4 d0be
00000070: f811 74bf f3ea 6fbe 1bbd 6e3f 9c59 da3e
00000080: e8cc 83bd 23c6 d5be 2ec3 763d 7c74 043e
00000090: 9a04 1bbd f990 ca3e 008d 353f 5922 f53d
000000a0: b0d6 073f 71e8 6d3f 4a2a f83e 20d8 143b
000000b0: 97f2 d83d 62fc 82bd 4dff 313f 22c6 f4be
000000c0: 531b 353f 5009 2a3f cf5a 823f 8335 29bf
000000d0: ddb4 203d b489 113e f10a 23be 3aab 29bf
000000e0: 8e0e d03d 14dc d0be 094b e53d c3ac be3e
000000f0: 69bc 11bf a5d9 2c3f 9ada 0d3f 1f78 32bd
0.25088093 0.4086988 -0.25870684 -0.6886668 0.19510372 -0.8079575 -0.70504767 -0.43828923
0.29057628 0.05870811 0.620471 -0.94425315 -0.09674041 0.64794225 0.3197812 -0.017603194
0.46314675 0.036479708 -0.19365695 0.8420162 -0.7787765 0.6482122 -0.46986815 -0.8492716
-0.18819346 0.12104993 0.34054172 -0.40798998 -0.9533992 -0.2342947 0.932573 0.42646492
-0.06435567 -0.4175273 0.06024473 0.1293506 -0.037846185 0.3956373 0.70918274 0.11969442
0.5306196 0.929328 0.48469764 0.0022711828 0.10593145 -0.063957945 0.69530183 -0.47807413
0.7074482 0.6642046 1.0183963 -0.6609728 0.039234985 0.14212686 -0.15922143 -0.66276896
0.10159026 -0.40792906 0.111959524 0.37241182 -0.56928116 0.675196 0.55411685 -0.043571588

encoder_variable_selection.single_variable_grns.relative_time_idx.fc2.bias f4 [8]
00000000: eb26 823d d445 1bbc 9c28 743d 9158 8cbd
00000010: 6456 73bd 91aa d9bc 6dc6 b0bd 17fa 19bd
0.06355079 -0.009477098 0.05960904 -0.0685283 -0.05940856 -0.02657059 -0.08631597 -0.03759202
