ml/lightning_logs/version_0/checkpoints/epoch=1-step=100.ckpt (torch, 561396 bytes, 820 tensors)

input_embeddings.embeddings.TEAM_ID.weight f4 [30, 11]
00000000: 9a92 013e 8797 53be 42e6 cdbf e2cc 2d3f
00000010: d725 613f d5f7 1f3f a91f 32bf 4f0a 8fbf
00000020: 2b8d 6f3f 3f76 fbbe 9eb5 9bbf 5d70 0940
00000030: 3d25 02c0 bca5 1dbf 29e5 85bd 7a16 babe
00000040: bb1a 77be 4cd9 e6be 697d 36bf dbcd 3ebf
00000050: a00e f0be 09bc 9c3f 3129 d4bf d813 8abf
00000060: b30f 4cbf 07c2 b2bf 6877 bcbe 0c7c d93f
00000070: 6666 953e 3522 5e3f f548 9abf 941e 92bf
00000080: c8d6 edbf 8477 89be b477 1440 7f45 62bf
00000090: 20b9 71bf 4b45 c2bf 0e24 a7bf 36ce 35bf
000000a0: 820c e73b a260 9d3e 8608 a23f c6fe 85be
000000b0: a209 46bf 710f 8dbe a5ae 163f e3f9 e8bf
000000c0: 6bd6 d8bf d295 93bf 95c7 c83e 4828 b73d
000000d0: 6d97 cdbf 621f 15bf ad18 83bf 7cde 0cbf
000000e0: 5823 a23e ab99 603f 519b df3f ce43 843f
000000f0: 71b8 25c0 18a8 eebf 043f 6c3f 6dd7 b2be
00000100: 06dc 7f3f fd12 c73f 6f49 bcbe 02a5 94be
00000110: 5fbb cebe 7734 f03e 7e1a f0be 68a4 03bf
00000120: fe4d 633f 4bab 0b3f aa27 bb3f 52c8 15be
00000130: 5a28 1e3e 7590 85bf 0168 dcbf f4bb 1abf
00000140: 4306 913d 97c6 a9bf 683c 183d 02b1 3cbe
00000150: c473 81be be7d 4a3e ac22 23bf ae9f f4be
00000160: 70f6 ae3f 67d0 e6bf cd6d 84bf 2cf9 1ebf
00000170: 5258 91bf e047 653f 71ad 1b3e 361b 823f
00000180: 9470 16bf a09f eb3e d498 23bf 99cb 903f
00000190: 6d5b e3bf 6d26 ddbf 1bfb 633f 48ee 0cc0
000001a0: dc06 4fbf a3ab c1bf dc95 1940 add1 503f
000001b0: c6f4 8e3c acbd 69be 7468 fcbe dd32 9e3e
000001c0: e866 1140 e556 3b3f c978 8cbf 0e86 41bf
000001d0: 85ef 10bf 263c af3f 1ae1 1440 8252 e3be
000001e0: d152 cebe ab85 b63f 2065 09bf d5b7 9bbe
000001f0: 271c 82bf b544 8c3f af9c 1a3f 6343 9dbe
00000200: 3b79 a23e 6340 0bbf 87bc 37bf 7eff e2be
00000210: 7125 b0be 51a3 6fbf 8df9 e23f 9c61 053f
00000220: 69fc 573f cfa0 ce3f 7f43 623e 6d6c 0c3e
00000230: dde5 2dbf c10c 483e 02e7 7b3f 749c 003f
00000240: f4fc 8bbe 4558 113e eabf acbe a860 19c0
00000250: 83d5 403f 02c9 3bbd 4176 42bf 4ffb 97be
00000260: 2b58 c73f 21d7 92bf ed05 c0bf 909f 923d
00000270: 6554 283f 4a71 863f d839 6a3e e6cd 4fbf
00000280: 96a0 5a3e 9422 9fbe 5fbc fc3f 974b 35bf
00000290: 4ede 9cbf 8f42 adbf 642d cfbf ca8b 8a3e
000002a0: 17fb 8b3f c3c9 21bf f012 69bf 2a3f 013f
000002b0: 7392 a7bf 6b04 99bf 59ec 563f f890 5a3f
000002c0: ca1a 92be 6da7 dabf 7118 47bf c3b2 743f
000002d0: c3aa 3a3f 4003 6ebf 959e ab3d 937d 4dbe
000002e0: f0f3 59be 62aa e63e f3a2 5bbf b618 8d3d
000002f0: 8037 7ebf e8dc 81bf 74f3 813f e725 ad3f
00000300: 84fc 9a3e 02dc e7be 4281 d2be 1792 33bf
00000310: dc69 b43e 5140 27bf c845 bfbf 6297 52bf
00000320: 50f1 7fbf 2304 263f 07e1 dcbf 747f bfbf
00000330: ad00 34bf 5548 4cbf 0948 2f3e 435a 223f
00000340: f102 dc3e 64be b73f e2e5 7a3e 70a3 543f
00000350: 4a0b d83d 0917 b4be 029a 5bbd dd0d 333f
00000360: ef9c c0bf 5755 86bf bca0 883f 09ad 0d3f
00000370: af76 0740 1b33 ab3f 0e84 4d3f 5228 e3bf
00000380: 4ea4 c43d 7200 65bd a18e 0140 d102 0a3f
00000390: 3a19 943e 82d6 abbc 1090 2f3f 78e3 cb3f
000003a0: d2d1 4abf 195f a9be 186c 4bbf 4a98 24bf
000003b0: 6216 f13e 3a3a 153f fbef bd3f e9c6 4b3f
000003c0: 7cf3 a2be a33b d9be 26b6 10bf a71d 2240
000003d0: b59e 01bf 8ac3 0a3f ba01 9cbf 8c7b 003f
000003e0: b1d9 643d 090d d73d 9bb2 063f a352 0d3e
000003f0: b74d 763e 0615 08c0 382e 27be c7d9 ac3f
0.1265358 -0.20663272 -1.6085894 0.6789075 0.87948364 0.62487537 -0.6957956 -1.1175021
0.9357478 -0.49113652 -1.21648 2.147483 -2.0335228 -0.61581016 -0.065378495 -0.36345273
-0.2413129 -0.4508766 -0.7128511 -0.7453286 -0.46886158 1.2244884 -1.6575071 -1.0787306
-0.79711455 -1.3965462 -0.3680985 1.6990981 0.29179686 0.86770946 -1.2053515 -1.1415582
-1.8581171 -0.26848996 2.319806 -0.8838729 -0.94423103 -1.5177397 -1.3057878 -0.7101778
0.0070510516 0.30737787 1.2658851 -0.2617094 -0.7735845 -0.27550843 0.58860236 -1.8201259
-1.6940435 -1.1530097 0.3921477 0.0894323 -1.6061836 -0.5825101 -1.0241905 -0.55026984
0.3166759 0.8773448 1.7469274 1.0333192 -2.5893824 -1.8645048 0.92283654 -0.34929982
0.99945104 1.555267 -0.36774775 -0.2903214 -0.40377328 0.46915027 -0.46895212 -0.5142274
0.8879088 0.5455825 1.462148 -0.14627197 0.1544508 -1.043471 -1.721924 -0.60443044
0.070812725 -1.326373 0.037166983 -0.18426898 -0.25283635 0.1977453 -0.6372478 -0.47778076
1.3668957 -1.8032349 -1.0346009 -0.62098956 -1.1355078 0.895628 0.15202881 1.0164554
-0.5876553 0.46020222 -0.6390507 1.1312133 -1.7762276 -1.7277352 0.8905503 -2.2020435
-0.8086984 -1.5130504 2.3997717 0.8156994 0.017450701 -0.2282626 -0.4929844 0.3089818
2.271906 0.73179466 -1.0974361 -0.75595176 -0.5661548 1.3690231 2.326239 -0.44398886
-0.4029756 1.4259542 -0.5366993 -0.3041369 -1.0164841 1.0958468 0.6039533 -0.30715474
0.31733117 -0.5439512 -0.71772045 -0.4433555 -0.34403566 -0.93608576 1.7732407 0.52102065
0.8436952 1.6142825 0.2209606 0.13713236 -0.6792887 0.19536115 0.98399365 0.5023873
-0.27341425 0.14193828 -0.3374017 -2.3965244 0.75325793 -0.045845993 -0.7596169 -0.2968392
1.5573782 -1.1471902 -1.5001808 0.071593404 0.65753776 1.0503323 0.22873628 -0.8117355
0.21350321 -0.3108107 1.9744986 -0.70818466 -1.2255342 -1.3535937 -1.6185727 0.27059776
1.0936002 -0.6319849 -0.9104452 0.50487006 -1.3091568 -1.1954473 0.8395439 0.85377455
-0.28536063 -1.7082344 -0.7777167 0.9558527 0.7291681 -0.9297371 0.083798565 -0.20067434
-0.21284461 0.45051867 -0.85795516 0.06889479 -0.99303436 -1.014554 1.0152421 1.3527192
0.3027078 -0.4528504 -0.4111424 -0.7014479 0.35237014 -0.65332514 -1.494317 -0.8226224
-0.9997759 0.6485006 -1.7256173 -1.4960771 -0.7031353 -0.7979787 0.17117323 0.6341898
0.42970994 1.4354978 0.24501756 0.83061886 0.10549028 -0.35173824 -0.05361367 0.6994303
-1.5047892 -1.0494794 1.0674052 0.55342156 2.1166189 1.3374971 0.80279624 -1.774668
0.09601651 -0.055908628 2.0243304 0.5391055 0.28925496 -0.020976309 0.68579197 1.5928793
-0.7922641 -0.33080366 -0.7946181 -0.64294875 0.4708739 0.5829197 1.4838861 0.7960039
-0.3182639 -0.42428312 -0.56527936 2.5330598 -0.5063279 0.5420462 -1.2188027 0.5018852
0.05587167 0.10500533 0.5261628 0.13801055 0.24053083 -2.1262832 -0.16326225 1.350396

prescalers.encoder_length.weight f4 [8, 1]
00000000: e009 bbbe ee1d 0a3f 80ff 5bbd c464 473f
00000010: 6cfc 3b3f 8881 0d3f c02c 7e3e 087c 343f
-0.36530972 0.5395192 -0.05371046 0.7788813 0.7343204 0.55275774 0.24821758 0.70501757

prescalers.encoder_length.bias f4 [8]
00000000: 8923 fe3e b0ba 6e3f ebc6 cdbe a589 5e3f
00000010: f98b e33e 0f89 4c3f 8f02 58bf 24a0 e8be
0.49636486 0.9325361 -0.40190825 0.8692878 0.44442728 0.79896635 -0.84378904 -0.45434678

prescalers.time_idx.weight f4 [8, 1]
00000000: 0429 673f 92eb 653f c841 f6be 94c9 5abf
00000010: b297 48bf 22c2 413f 3093 343f c86d ba3e
0.9029696 0.89812577 -0.48097062 -0.85463834 -0.7835647 0.7568685 0.7053709 0.3641188

prescalers.time_idx.bias f4 [8]
00000000: 65f0 5ebf f149 5c3f 9a39 b13e 137a 48bf
00000010: 6d16 9d3e ff9d 1a3e 7ece 48bf 1fab 103f
-0.8708556 0.86050326 0.3461426 -0.7831127 0.30681172 0.15099333 -0.7844008 0.5651111

prescalers.relative_time_idx.weight f4 [8, 1]
00000000: 0815 203f 5cdd 393f e04a 2cbf 4ed4 1d3f
00000010: 44be 5abf feb5 34bf de48 3cbf 1058 1fbe
0.6253209 0.7260339 -0.6730175 0.61652076 -0.8544657 -0.705902 -0.73548687 -0.15560937

prescalers.relative_time_idx.bias f4 [8]
00000000: 0d63 e5bd 8ad1 b73e 1617 5bbf e55f 353f
00000010: 90a5 2b3f 5987 873f ecbf 40bf dbb7 45bf
-0.11200533 0.35902053 -0.855821 0.7084945 0.67049503 1.058818 -0.7529285 -0.77233666

prescalers.PTS.weight f4 [8, 1]
00000000: 84a3 28bf 30eb 033f 68a1 e93e 9057 1c3e
00000010: c894 63bf d295 17bf 40dd 6abf e0e2 ec3e
-0.65874505 0.5153074 0.45630956 0.15267777 -0.888989 -0.5921298 -0.9174385 0.46266842

prescalers.PTS.bias f4 [8]
00000000: 8157 2f3f b0f4 683f e57b ccbe 8ad8 e3be
00000010: 48d5 863e 2d3b 27bf 910e 2d3e c7cb 863f
0.68492895 0.90998363 -0.39938274 -0.44501144 0.26334596 -0.6532467 0.16900088 1.0530938

static_variable_selection.flattened_grn.resample_norm.mask f4 [2]
00000000: 9cc3 4ebd 96ea 4e3d
-0.050479516 0.050516687

static_variable_selection.flattened_grn.resample_norm.norm.weight f4 [2]
00000000: f487 7f3f e687 7f3f
0.99816823 0.9981674

static_variable_selection.flattened_grn.resample_norm.norm.bias f4 [2]
00000000: c6ac 4fbd baac 4f3d
-0.05070188 0.050701834

static_variable_selection.flattened_grn.fc1.weight f4 [2, 19]
00000000: 477c 0fbf dd0d a9be 7ed2 6abe f7b2 c23e
00000010: 87de 2f3e b4ef 663e 942d 0c3e 3ca6 aabe
00000020: 81fc 0f3f 80ce a4be 89de 073f 9295 cc3e
00000030: 4d22 8b3e 7d8c e9be e29f c83e 47af 103e
00000040: a8c7 793e 234d a2be 23ae a5bd de9a 88be
00000050: c9ec 683e b738 373f 0197 0e3e e296 1a3f
00000060: 0351 833d 8961 0bbf 0a5e b83e d396 58bd
00000070: bea6 143e 0c2b 8dbe 705a 583e 31a3 9e3d
00000080: c9ea 6ebe 16ef 313e 649e f1be 47a6 243f
00000090: ac25 7b3e d63b 75bb
-0.5604901 -0.3301839 -0.22931859 0.38027164 0.17174731 0.22552377 0.13689262 -0.33329952
0.56244665 -0.32188797 0.53073937 0.39957863 0.27174607 -0.45614997 0.3918448 0.14129363
0.24392569 -0.31699476 -0.080898546 -0.26680654 0.22746576 0.71570915 0.13924791 0.6038648
0.06411936 -0.544457 0.36009246 -0.052878212 0.14516732 -0.27571905 0.21128249 0.0774597
-0.23331751 0.1737636 -0.47191155 0.6431622 0.2452609 -0.0037419698

static_variable_selection.flattened_grn.fc1.bias f4 [2]
00000000: 6f1e 09bc 8672 8fbc
-0.008369072 -0.017510664

static_variable_selection.flattened_grn.fc2.weight f4 [2, 2]
00000000: b809 3c3f c6d0 6a3f 5e67 903f b98d 423f
0.7345233 0.91724813 1.1281545 0.759975

static_variable_selection.flattened_grn.fc2.bias f4 [2]
00000000: eb7b 4abd 5986 ba3c
-0.049434584 0.02276914

static_variable_selection.flattened_grn.gate_norm.glu.fc.weight f4 [4, 2]
00000000: d53f 6f3f cfdc 6ebf bd4b 7dbf b5c2 673f
00000010: eb47 593f 68ea 2cbf 546d b53e 9891 a63e
0.93456775 -0.9330568 -0.9894369 0.90531474 0.84875363 -0.67545176 0.35434973 0.32532954

static_variable_selection.flattened_grn.gate_norm.glu.fc.bias f4 [4]
00000000: 1c23 4abd dabc 383d 2720 403b 666b 193c
-0.04934989 0.045101978 0.002931604 0.009363985

static_variable_selection.flattened_grn.gate_norm.add_norm.norm.weight f4 [2]
00000000: bebb 613f bebb 613f
0.88177097 0.88177097

static_variable_selection.flattened_grn.gate_norm.add_norm.norm.bias f4 [2]
00000000: 3b2b 08be 3b2b 083e
-0.13297741 0.13297741

static_variable_selection.single_variable_grns.TEAM_ID.mask f4 [16]
00000000: c6e7 6cbc f92e ccbc b7f2 a33d beaf 6fbd
00000010: c175 d63c 4e86 12bd f970 cd3d f6a4 34bd
00000020: 50c5 363c 58d2 8bbd 3a00 0a3d d5af 88bd
00000030: 2056 fbba b413 1c3c 326c 5fbc 9d73 47bd
-0.014459556 -0.024924742 0.080052786 -0.05851721 0.026179196 -0.035772614 0.100313134 -0.04410263
0.011155441 -0.06827229 0.033691622 -0.06674162 -0.0019175448 0.009526182 -0.013636636 -0.04869424

static_variable_selection.single_variable_grns.TEAM_ID.norm.weight f4 [16]
00000000: 05b8 753f fcf2 7d3f 223d 8c3f 8c32 663f
00000010: a781 853f 204b 763f 9254 8d3f fba3 6d3f
00000020: 67ae 7a3f 69a1 6a3f 0dbe 853f 86ea 693f
00000030: 9b86 7d3f d021 7f3f b661 753f f483 6d3f
0.95983917 0.9919889 1.0956156 0.8992088 1.0430192 0.9620838 1.1041434 0.9282834
0.97922367 0.9165254 1.0448624 0.9137348 0.99033517 0.9966097 0.9585222 0.9277947

static_variable_selection.single_variable_grns.TEAM_ID.norm.bias f4 [16]
00000000: 5e33 38bc 5350 f33d d8dc f3bd 075c 4a3d
00000010: 8adb e7bd 4aee af3d 3084 05bd 95aa 88bd
00000020: 5518 c5bd 37c4 bd3d 53a3 c93d bd37 c7bd
00000030: 0e96 01be d5e8 983d 6c07 fabd bcc5 58bc
-0.011242716 0.11880555 -0.11907357 0.04940417 -0.11321171 0.08590372 -0.032596767 -0.06673161
-0.096237816 0.09265941 0.09845605 -0.09727428 -0.12654898 0.07466284 -0.12208447 -0.013230737

static_variable_selection.single_variable_grns.encoder_length.resample_norm.mask f4 [16]
00000000: d51e 0c3d 3c7e bd3d a192 03bd cc16 a73b
00000010: e3bd 06bc 2a00 1c3c 0776 ca3b a215 a83c
00000020: 9a28 52bd 1648 a43c 5c63 02bb 5278 4fbd
00000030: 6c43 afbc 20e7 43bd 2db9 2a3d cda7 a2bc
0.03420909 0.09252593 -0.032122258 0.005099153 -0.008223983 0.0095215235 0.0061786207 0.020518128
-0.051308252 0.020053905 -0.0019895649 -0.050651856 -0.021394454 -0.04782784 0.041680504 -0.019855404

static_variable_selection.single_variable_grns.encoder_length.resample_norm.norm.weight f4 [16]
00000000: beaa 6c3f 13bc 873f c207 753f 36a3 803f
00000010: ea37 763f e5dd 783f cbd8 7e3f 730f 803f
00000020: 8c87 723f ab87 813f 3b22 7c3f fbe0 703f
00000030: e54f 853f 44d0 6c3f 0263 8b3f 1bd7 833f
0.9244803 1.0604271 0.9571496 1.0049808 0.9617907 0.97213584 0.9954955 1.0004715
0.9473808 1.0119528 0.9848973 0.9409329 1.0415007 0.9250529 1.088959 1.030002

static_variable_selection.single_variable_grns.encoder_length.resample_norm.norm.bias f4 [16]
00000000: dd2e bd3d 9bb6 d83d da83 32bd ced7 303c
00000010: 4919 0a3d c3a8 f63c 2dfd c6bb 1a01 6bb9
00000020: c61d 5cbd b30e 7f3c 69c1 7abc a791 83bd
00000030: be76 42bd 8b02 863d 0c42 b1bd f912 47bd
0.09237454 0.10581704 -0.043582775 0.010793639 0.03371552 0.030109769 -0.0060726614 -0.00022411757
-0.05373933 0.015567469 -0.015304902 -0.06424265 -0.047476523 0.06543454 -0.086551756 -0.048602078

static_variable_selection.single_variable_grns.encoder_length.fc1.weight f4 [8, 8]
00000000: bc87 26bf f1d1 9cbe aebb 7e3e 9e0d 353f
00000010: ff57 27bf 8c6c 5ebe 45e3 1b3d d3e2 8cbd
00000020: ae79 403f 8493 0ebe c12c 723e 2151 da3e
00000030: 4b3b 463f 07f1 d0be 5991 f8be da91 4f3e
00000040: c7f2 bd3b 4290 e0be 891a 9b3e 66ed 9dbf
00000050: 4957 d7be 1a4c ffbe 8084 b43c 8df5 e83e
00000060: 6e96 83bd 1fbe 4cbf 8296 82bf 173a 3fbe
00000070: 6b76 9bbe 6fac 02bf a50a 91bf c14c 013f
00000080: b651 2f3f e6ef 183f dfb0 53bf 9b2c ed3e
00000090: 1f2d 2d3f 6203 193e 60a4 50bf 42ef ebbe
000000a0: b336 0dbf 0929 5f3e 8c16 cbbd 72fb ebbd
000000b0: 5ecf 93be 5b6c bcbe 836a 19bf 8ad2 473f
000000c0: e87d cc3e a43c df3e bf2b 9c3e cb15 f3bd
000000d0: 0e6d 9d3b 5122 b33d bbdc 793d 4b1a c23e
000000e0: 4b77 8eba e3ec 88bf b6a2 933d d319 c3be
000000f0: 7056 4ebe b0c4 5e3d cf86 afbd e36d b7be
-0.65050864 -0.30628923 0.24876282 0.70723903 -0.65368646 -0.21721095 0.038058538 -0.06879201
0.7518567 -0.1392346 0.23649885 0.4264002 0.77434224 -0.4080889 -0.4854839 0.20270482
0.0057967636 -0.4386006 0.30293682 -1.2338073 -0.4205878 -0.49862748 0.022035837 0.4549984
-0.064251766 -0.799776 -1.0202181 -0.18674503 -0.30363783 -0.5104436 -1.1331373 0.5050774
0.68484056 0.59741056 -0.8269176 0.46323094 0.67646974 0.14942697 -0.81500816 -0.46080977
-0.5516159 0.21792997 -0.0991641 -0.11522569 -0.28869146 -0.3680142 -0.5992815 0.7805563
0.3993981 0.43600953 0.30502126 -0.11869391 0.00480426 0.0874678 0.06100152 0.37910685
-0.0010869292 -1.0697292 0.07208769 -0.3810564 -0.20150161 0.054386795 -0.085706346 -0.35826024

static_variable_selection.single_variable_grns.encoder_length.fc1.bias f4 [8]
00000000: 3aaf c9ba 7559 dc3c 359a 12bb 0bb7 6a3b
00000010: 8682 d93c 5632 92bc 54ab 8d3d 0567 2cbc
-0.0015387305 0.026898125 -0.0022369747 0.0035814669 0.026551496 -0.017846268 0.06917444 -0.010522609

static_variable_selection.single_variable_grns.encoder_length.fc2.weight f4 [8, 8]
00000000: 7958 243f 16bb d6be aa7c 6dbd 139c 8e3d
00000010: ba40 89be 2b87 3a3e acaa a8bf b138 30be
00000020: 147a 5cbf 21fe 003c 628f 943d 25c3 1cbf
00000030: 91eb 213f 644d b13e 6fd1 3e3e 6a2e 31bd
00000040: 3cf5 233e c9eb 2bbe 4c9f 08bf dfce 61be
00000050: c604 133f 7a86 2a3e fe47 743f 49e0 81be
00000060: ad37 09bc e0d8 423e eeea 4d3f cbc0 a8bb
00000070: 5872 d9bd 2f53 013c b64a 5fbe 4d8f 2f3e
00000080: 7884 74be 7367 ca3e 65e8 a7be 63e4 74be
00000090: a6f7 d1bd 7500 58be 2641 3e3e 71dd 003d
000000a0: 9999 53be b771 353f fdc3 953e d409 97be
000000b0: fa0d 573f e26b d93d c362 083f f56d 76bf
000000c0: ef81 e23e 3cce e93e 5d88 9cbe 40ab ec3d
000000d0: 9a48 fa3e d8cd 83bf eae7 49bf 649c a7bc
000000e0: ddc2 33be 70ca 3abe ebb7 a4be bad4 49bf
000000f0: 4f9c 283f c2c8 c63d 75a0 553f 997c c53e
0.641975 -0.4193961 -0.057980217 0.069633625 -0.26807195 0.18215625 -1.3177085 -0.17209126
-0.86123776 0.007873089 0.072539106 -0.61235267 0.6325007 0.34629357 0.1863458 -0.043257155
0.16011518 -0.16789164 -0.5336807 -0.22051571 0.5742916 0.16652861 0.9542235 -0.25366428
-0.008375091 0.19028044 0.804366 -0.005149936 -0.106175125 0.007893368 -0.21805844 0.17144509
-0.23878658 0.3953205 -0.3279449 -0.23915248 -0.10252313 -0.21093924 0.1857954 0.031461183
-0.20664062 0.7087664 0.2925109 -0.29499686 0.840057 0.1061628 0.532757 -0.9626153
0.44239756 0.45665157 -0.30572787 0.11556101 0.48883516 -1.0297194 -0.788695 -0.020460315
-0.17554803 -0.18241286 -0.32171568 -0.7884022 0.6586351 0.0970626 0.83447963 0.38571623

static_variable_selection.single_variable_grns.encoder_length.fc2.bias f4 [8]
00000000: e730 60bd 8bdb 40bd 5a3b f43c ac41 45bd
00000010: 929d 62bc 3896 353d 11cc 043c 9218 5c3a
-0.054734137 -0.047084372 0.029813457 -0.048158333 -0.013831513 0.044332713 0.008105294 0.0008395995

static_variable_selection.single_variable_grns.encoder_length.gate_norm.glu.fc.weight f4 [32, 8]
00000000: d52a 01be edbe 65be 75a3 2bbd a87f ddbe
00000010: 2f4e e9bd 9dbb b23e c735 8abe e3d1 b43e
00000020: 5daa 673e caa5 8b3e 7ff1 813e f661 2b3e
00000030: 2cf6 ee3d d484 983e bf0a 5ebe 0742 5cbe
00000040: bfca ce3e 0d08 4b3e 5804 b9bd 0ba6 afbe
00000050: 1d22 97be d969 cbbe e282 bd3e cae1 4cbe
00000060: afdc cfbc 2b78 2f3e 326c 383e b65b ee3d
00000070: 4c51 6dbe 4f53 b0be 8e5a 6c3d ba9b bebc
00000080: bd93 efbd d900 273e 1c52 a93e 0f33 293e
00000090: 2d6c 573e 4320 a0be ed62 4f3e 3be1 003e
000000a0: c1c6 813e a0cd df3d e09b 383e 6cfc 4ebe
000000b0: ee0e 203e bb71 03bd a28c 4c3e c358 513e
000000c0: cbaf b63e ca80 963d 5bdf 773e 9add aebd
000000d0: 97e1 e83d 89c4 debd 57bb 563e f3e1 91be
000000e0: 8cbd 453e fd87 07bd 3deb 51be 4e39 ff3d
000000f0: c6ef fc3d 6ac4 c6bd 62e6 acbd a774 df3d
00000100: 2d8c 9a3e 5d9c 053e 34e4 c6be 873c f3bc
00000110: 9392 adbe b8f9 5e3e 71b1 26be f4b8 5ebe
00000120: c431 fabd 72b4 f3bd 9be0 c93e ea62 80be
00000130: 2675 863e 79ce 95bd b420 75be 81b7 0dbe
00000140: e94a 9ebe 15ce 9f3c e281 5b3d 4688 213e
00000150: cb3f 823e 36fb 88be abfc b43e dbbf 1fbe
00000160: 8d7b 743e 4ebb 85be 4c3e a8be 42ac 093a
00000170: a039 cc3e 8e13 9dbe b412 66bd 1e7d 8bbe
00000180: 9414 11bd 880e e1be 3376 edbd 4e80 1cbe
00000190: 2c9c 963e 236d 68bd d42f 8cbe 3847 63be
000001a0: 5553 a3be 6db1 d33e 8656 b23e 35f4 dabe
000001b0: 3ef8 80be 01eb df3d e756 873e 388d 8bbd
000001c0: cef7 e13e 03c2 57bc f8f6 3fbe 05aa de3e
000001d0: 23da 6dbd b806 853e 8ff1 0b3e 1211 6e3e
000001e0: b9aa db3e 908a 503d 83b4 b9bd 45ce ab3e
000001f0: d9b0 f3bd 0c33 913e 052d 6dbe 39ad b63e
00000200: 7f29 bf3d 0a41 acbe 36dc a5bd 19fe debd
00000210: 9717 9c3e 92b7 c33e 5ea8 59bd 578b 0dbd
00000220: f7f8 f1bc 2434 0dbe 1bdf cbbd 6312 393e
00000230: 531c 91bd 0375 3cbe 832d a5be 0a4f 9dbe
00000240: c984 45be 494d 2dbe 75ec fabd 4dd9 57be
00000250: cf0d f4bc 807b ce3e 5439 cd3d fac0 053b
00000260: dbfb 26be 294e 67bb 0d2d 8fbd a761 aebe
00000270: 9def 6e3e afb2 a0bd 792d 20be 3a7b 353e
00000280: 6ed7 af3e 54cc b93e 9c8c a63e f24e a9be
00000290: f011 253e 4a6a 9639 2c9f 94be 905b 9cbe
000002a0: 6e29 76bd 0d94 813e 6fb9 a03e 5597 b63b
000002b0: ad73 9dbe 7b6c 9cbd bf6f bf3e 6647 b63e
000002c0: 44ea ea3b 8b1b f8bd 582c 28bd 81b2 963e
000002d0: 09c6 22be c0fc 823e cbcd 9fbc 14ca 85be
000002e0: 5acd 59be 5cbf 843e 6c0d 163e 5db7 0cbe
000002f0: 6171 923e a27c 553e e8bd 533e 7688 db3d
00000300: cbbe 6bbc 566a 57be 8fbc 7cbd 2953 8cbe
00000310: 158d 6d3e 1c2a b73e 28c7 123d fee9 cf3d
00000320: aed6 bf3d feee 4a3e 2c8b f53d 292b a33e
00000330: 2138 0d3e 4d07 c1be 8e82 053d cead 543d
00000340: 0b8b c3bd 8f26 b3be 75af e53d 62e4 57bd
00000350: 1d93 e83d 5744 113e d70a c1be 5f1e bf3e
00000360: 544d 18be d958 60be 0070 aebc 75a0 843e
00000370: 7119 1ebe 0f9a df3e 2ebe 2e3e 8a17 4fbd
00000380: 90ee 94be 00ed b93e b740 c73e 5ce3 c4be
00000390: e030 8d3c f279 983e bbaf 4f3e 3013 2f3d
000003a0: 6a45 8e3e db86 56be 876e 97be a9d2 6dbe
000003b0: db13 b0be ab7c c33e 08b2 093e 5c19 2a3d
000003c0: aa13 883e 246a 84bd 4e25 8f3e 23ac ce3e
000003d0: 0d80 c53e e778 01be ab8e 51be ea14 673e
000003e0: 651c 6f3e 61fb 8d3e 4b63 303e 1c70 89be
000003f0: bfd8 34be 2bb1 debe 11ad 88be 516e e93d
-0.12613995 -0.22436114 -0.04190393 -0.43261456 -0.113918655 0.34908763 -0.26994154 0.3531638
0.22623582 0.27274925 0.2537956 0.16736588 0.11668047 0.2978884 -0.21683787 -0.21509562
0.40389058 0.1982729 -0.09034032 -0.34306368 -0.29518214 -0.39729193 0.37013918 -0.20008007
-0.025373785 0.17135684 0.18010023 0.11638586 -0.23175544 -0.3443856 0.057703547 -0.023267616
-0.11698101 0.16308917 0.33070457 0.16523384 0.2103736 -0.31274614 0.20252581 0.12585919
0.2534695 0.10927892 0.18028212 -0.20213479 0.15630695 -0.032090884 0.19975522 0.20444016
0.35680994 0.07348783 0.24206297 -0.08538361 0.11371153 -0.1087733 0.20969902 -0.28492698
0.19310588 -0.033088673 -0.20499893 0.12462102 0.12350421 -0.09705432 -0.084423795 0.109109215
0.3018507 0.13047929 -0.3884598 -0.029691948 -0.3390089 0.21774948 -0.16278626 -0.21750242
-0.12216523 -0.118996516 0.39429173 -0.25075465 0.26261252 -0.07314772 -0.23938257 -0.13839532
-0.30916527 0.019507447 0.053590663 0.1577464 0.25439295 -0.2675416 0.3534902 -0.15600531
0.23875256 -0.26119465 -0.3286003 0.00052518037 0.39887714 -0.30678982 -0.05617018 -0.27243894
-0.035420015 -0.439564 -0.1159481 -0.1528332 0.29416025 -0.056744706 -0.2738024 -0.22195137
-0.31899515 0.41346303 0.34831637 -0.4276444 -0.25189394 0.10933495 0.2643349 -0.06814045
0.44134372 -0.013168815 -0.18746555 0.4348909 -0.05806936 0.25981688 0.13666366 0.232487
0.4290369 0.050913393 -0.09067633 0.3355581 -0.118989654 0.28359258 -0.23161705 0.35679033
0.093340866 -0.3364337 -0.080986425 -0.10888309 0.30486748 0.3822599 -0.053139083 -0.034556713
-0.029537661 -0.13789421 -0.09954663 0.1807342 -0.070854805 -0.18404011 -0.32261285 -0.30724365
-0.19288935 -0.16924013 -0.12252132 -0.21078987 -0.02979174 0.40328598 0.100207 0.0020409212
-0.16307013 -0.003529439 -0.06991015 -0.34058878 0.23333593 -0.07846581 -0.15642346 0.17722788
0.34344047 0.36288702 0.3252915 -0.33068043 0.16120124 0.0002868942 -0.29027689 -0.30538607
-0.060098104 0.25308266 0.31391475 0.0055722394 -0.30752316 -0.076378785 0.37389943 0.35601348
0.00716904 -0.121146284 -0.041057914 0.29433063 -0.15895857 0.25583458 -0.01950731 -0.26130736
-0.21269742 0.25927246 0.14653558 -0.13741823 0.28602126 0.20848325 0.20677912 0.10719387
-0.01438875 -0.21036658 -0.06170326 -0.27407196 0.2319835 0.35774314 0.03583446 0.10152052
0.09367119 0.19817731 0.119894356 0.31868866 0.13790943 -0.37700883 0.03259521 0.051923566
-0.09548005 -0.34990355 0.112151064 -0.052708037 0.11356185 0.14186226 -0.37703583 0.3732786
-0.14873248 -0.21908893 -0.02129364 0.2590367 -0.15439393 0.43672225 0.17064735 -0.050559558
-0.2908826 0.3631363 0.3891656 -0.3845471 0.01723522 0.29780537 0.2028188 0.042742908
0.27787334 -0.20949881 -0.29576513 -0.23224892 -0.3439015 0.38181052 0.1344682 0.04152809
0.26577502 -0.06465557 0.2795815 0.40365705 0.38574257 -0.12643777 -0.2046458 0.22566572
0.23350675 0.2773085 0.17225377 -0.26843345 -0.17660807 -0.43494543 -0.2669454 0.11397994

static_variable_selection.single_variable_grns.encoder_length.gate_norm.glu.fc.bias f4 [32]
00000000: 14a4 903d b1fc ad3c 63da 12bd b1b8 043c
00000010: 4572 003d 97f1 f63c 2e8f 80bb ff87 1039
00000020: 0881 3bbd 8fbb 923c 7a90 9bbc b8ff 47bd
00000030: 008d 43bd 54bf 253d a5ae 97bd 473c a9bc
00000040: 031b 243d b0be 793c 3d8d 213c 2279 adba
00000050: 2c5c 5f38 4dd4 463b 1584 b4bb de0d 8739
00000060: 7375 573c 38ff cbba b14f 9cbb c90c 573d
00000070: d4f7 d83b 741c 5d3d 0793 68bd 63cb 18bd
0.070625454 0.021238657 -0.0358528 0.0081006745 0.031358976 0.030144496 -0.0039233183 0.00013783573
-0.04577735 0.0179117 -0.01898979 -0.048827857 -0.04774189 0.040465668 -0.07406358 -0.020658625
0.040064823 0.015243217 0.009860334 -0.0013234953 5.3253185e-05 0.0030338943 -0.0055089095 0.00025759538
0.013150561 -0.0015563732 -0.004770242 0.052502427 0.0066213403 0.053982213 -0.05678084 -0.03730334

static_variable_selection.single_variable_grns.encoder_length.gate_norm.add_norm.norm.weight f4 [16]
00000000: 9b17 813f 6216 8b3f 277f 743f 9b05 813f
00000010: 33f7 7c3f 3d80 813f d8d2 7f3f 1f86 7e3f
00000020: 47f1 723f 78c3 813f 2484 7d3f e620 893f
00000030: d4be 8d3f a51d 713f 899f 863f 4a3d 7b3f
1.0085329 1.0866206 0.9550652 1.0079836 0.98814696 1.011726 0.999311 0.994234
0.9489941 1.0137777 0.99029756 1.0713165 1.1073861 0.9418586 1.0517436 0.98140395

static_variable_selection.single_variable_grns.encoder_length.gate_norm.add_norm.norm.bias f4 [16]
00000000: 05e7 b33d e566 db3d 2af8 37bd d62f 2ebc
00000010: 533e 48ba ef0c d83c 076b b83a ac94 1fbb
00000020: ca9b 67bd 8c7b c03c dcd1 ccbb 6ee7 aabd
00000030: 5c6f afbd e457 393d e1b8 ccbd a488 8dbd
0.08784298 0.10712985 -0.044914402 -0.010631522 -0.00076386816 0.026373355 0.0014069983 -0.002435009
-0.056545056 0.023496412 -0.006250603 -0.08344923 -0.08566162 0.045249835 -0.099962 -0.06910828

static_variable_selection.prescalers.encoder_length.weight f4 [8, 1]
00000000: e009 bbbe ee1d 0a3f 80ff 5bbd c464 473f
00000010: 6cfc 3b3f 8881 0d3f c02c 7e3e 087c 343f
-0.36530972 0.5395192 -0.05371046 0.7788813 0.7343204 0.55275774 0.24821758 0.70501757

static_variable_selection.prescalers.encoder_length.bias f4 [8]
00000000: 8923 fe3e b0ba 6e3f ebc6 cdbe a589 5e3f
00000010: f98b e33e 0f89 4c3f 8f02 58bf 24a0 e8be
0.49636486 0.9325361 -0.40190825 0.8692878 0.44442728 0.79896635 -0.84378904 -0.45434678

encoder_variable_selection.flattened_grn.resample_norm.mask f4 [4]
00000000: b893 c8bd a3aa 7d3d e535 f0bc 06d3 953d
-0.097938 0.06193031 -0.029322574 0.0731564

encoder_variable_selection.flattened_grn.resample_norm.norm.weight f4 [4]
00000000: bd0a 663f d9d1 803f 1296 793f 7fef 8c3f
0.89860135 1.006404 0.97494614 1.1010588

encoder_variable_selection.flattened_grn.resample_norm.norm.bias f4 [4]
00000000: 52cf e2bd 861f 723d 1f19 f1bc af78 c43d
-0.110746995 0.059112094 -0.029430924 0.09593331

encoder_variable_selection.flattened_grn.fc1.weight f4 [4, 35]
00000000: ead0 13bf 1adb 083e f003 04be 4464 653e
00000010: 97a4 f0be 8865 26be 9f67 8c3d e121 a13d
00000020: 790b c1bd 1f1a 163e b1e4 a6bd 488b a9bc
00000030: 94b9 18be 0a43 8abd 123c 2a3e e597 0dbe
00000040: 14c2 75bd aa82 2a3e 55b0 793e eeb4 053d
00000050: 58e2 12bd 6c92 053f b77b 073d d9e5 44bd
00000060: a8ea 003e 2dd4 21be 8c0f 163e 9d87 acbe
00000070: 8d2e aabe b259 ea3e bac4 823d a51d 0abd
00000080: c616 15be 8e36 2bbf abcb 96bd 5c7f 0dbe
00000090: cd04 ba3d 5c23 4c3e 6e09 3a3e cb9a c8be
000000a0: cfaa 88be 0527 a0be e9b1 5f3d 22b4 26be
000000b0: dff0 15be b5c1 0dbe da0e d23d a67e 09be
000000c0: 8866 ffbe 1590 a03e 927a 3fbe dea2 2fbe
000000d0: 9686 a8be 7042 85be b62f aebe be90 cbbd
000000e0: 1158 393d f33d 50be 2282 ff3e a0e6 6d3d
000000f0: a2f6 6d3e c408 4fbe 0a9e 263e 7503 8ebc
00000100: dad9 59bd 13b9 da3d 7472 edbd c928 503e
00000110: 6fa5 c93e ac36 203e a6a2 a53d 0afe 19bf
00000120: a77e 283c 8e10 4a3e 0dfb b93e 113b 863b
00000130: 1021 523e 426b 16be 68a8 c5bc b80c 6ebe
00000140: 0d24 43be 917e ac3d aa92 b53c 3c05 963e
00000150: 4ce0 b6bd 2f9e ff3d 4a72 b43d 0052 a3bc
00000160: 436b 8abe 1227 733d b205 6a3d 4c63 74bd
00000170: 7fd8 44be f7f7 2dbd 810a 453e 982a a83e
00000180: 82ca 0d3e ea59 08bf 6b3e 233e 001a 463e
00000190: 09cf eabe 190b 9ebe efb9 ab3c f8a3 f83d
000001a0: bd5b 153e b0aa e0bd 2e95 163e ff24 a23e
000001b0: e221 4dbd 1a43 a43e 22d3 4d3d f9c9 5bbe
000001c0: e149 51be c824 673c a577 1abd 99ed 663e
000001d0: ccda 3b3e 3af0 07bf 6001 90be 49ed 533c
000001e0: 53db c1be b237 9b3e 9954 d23c e940 6d3e
000001f0: 5ac5 9abe 44fb 883e 9e80 18be de77 843e
00000200: fd9b 943e 7a6c ac3e a834 3dbf 0d59 02bd
00000210: ace4 333e 700b d83e 2196 7fbe 21f2 00be
00000220: d6d2 fbba cbbc 09bf 4198 cb3e 7443 8d3d
-0.5774065 0.1336483 -0.12892127 0.2240153 -0.47000572 -0.16249669 0.06855702 0.0786779
-0.09426016 0.14658402 -0.08149088 -0.020696297 -0.14914542 -0.06751068 0.16624478 -0.13827474
-0.05999954 0.16651407 0.24383672 0.03264325 -0.03586039 0.5217655 0.033076968 -0.048070762
0.12589514 -0.15803595 0.14654368 -0.33697215 -0.3323864 0.45771557 0.06385179 -0.033719677
-0.14559469 -0.6688012 -0.07363065 -0.13818115 0.09082947 0.19935364 0.1816766 -0.39180598
-0.26692817 -0.3127977 0.054613028 -0.16279653 -0.14642666 -0.13843425 0.10256739 -0.13427219
-0.49882913 0.31359926 -0.186991 -0.17151973 -0.3291518 -0.2602725 -0.34020776 -0.09939717
0.045250002 -0.20336132 0.4990397 0.05808127 0.23238614 -0.20218188 0.16271225 -0.017335633
-0.053186275 0.10679831 -0.11594096 0.20328058 0.39384028 0.15645856 0.08087663 -0.6015326
0.0102841025 0.19732878 0.3632435 0.0040963967 0.20520425 -0.14689353 -0.024128154 -0.2324704
-0.19056721 0.08422578 0.022164661 0.2930087 -0.089295 0.12481343 0.088108614 -0.019936562
-0.2703496 0.059363432 0.057134338 -0.05966501 -0.19223212 -0.042472806 0.19242288 0.32844996
0.13846782 -0.532622 0.1594178 0.19345856 -0.4586108 -0.30867842 0.020962683 0.121406496
0.14585777 -0.10970056 0.14705345 0.3166885 -0.05008114 0.32082444 0.05025018 -0.21463765
-0.20438339 0.01410789 -0.03771176 0.22551574 0.18345183 -0.5310093 -0.2812605 0.012934991
-0.37862644 0.3031593 0.025675105 0.23169293 -0.30228692 0.267542 -0.14892814 0.258727
0.2902526 0.3367651 -0.7390847 -0.031823207 0.175677 0.42196226 -0.24959613 -0.12592365
-0.0019212614 -0.538037 0.39764598 0.06897631

encoder_variable_selection.flattened_grn.fc1.bias f4 [4]
00000000: 7763 3fbd fc63 48bd 771e c4bc 340f 283d
-0.046725716 -0.048923478 -0.023940308 0.041030124

encoder_variable_selection.flattened_grn.context.weight f4 [4, 16]
00000000: a4b5 ddbe ad29 43be c09d 113e 9460 47be
00000010: 9c4c d4be 694a 04bf 93ec e73e b685 ec3e
00000020: f56f 2e3e cf08 b93d 66d6 773e 17e7 b33d
00000030: adca febe 160e 29be 3994 40bd 2de3 933e
00000040: b240 74bc 4861 12be 8aac 263e 6e68 dcbd
00000050: 9b07 a63e 7072 eabe 3580 6d3e 7aef a4bd
00000060: 3803 03be aa2d 333d ce35 e73e e443 b9be
00000070: 74a6 2b3e 3c75 0dbf 4fc0 e1be 20d3 e73d
00000080: c33e 07be 6965 9dbd 5163 9fbe 6751 2dbd
00000090: af76 ccbe 921d a1bb 5a0f b93e e302 00bf
000000a0: 351d 9dbe 6524 8ebe 2e19 d8be ec42 b53d
000000b0: 2809 0f3f b1ab 50be 0b58 063f 1621 45be
000000c0: 902d d5be c211 c8be 8caf c3be c819 cf3d
000000d0: 9729 ebbe d642 023e 3da0 dabe e4c8 623d
000000e0: a978 afbe d96a ecbe f815 ffbe 1be3 b53e
000000f0: 5443 45be a840 2dbd d7fa 463e 3093 803e
-0.43302643 -0.19058867 0.14220333 -0.19470435 -0.41464698 -0.5167604 0.4529768 0.46195763
0.17034896 0.09034883 0.2420288 0.08784311 -0.49764004 -0.1650928 -0.047016356 0.2888426
-0.014908003 -0.14294922 0.16276756 -0.10762106 0.32427678 -0.45790434 0.23193438 -0.08053489
-0.12794197 0.04374472 0.45158237 -0.3618461 0.16762716 -0.5525701 -0.44092032 0.11319566
-0.13207535 -0.07685358 -0.3113046 -0.04231396 -0.39934298 -0.004916855 0.36144525 -0.50004405
-0.30686346 -0.27762142 -0.4220671 0.08850655 0.55873346 -0.20377995 0.5247809 -0.19250903
-0.41636324 -0.39076048 -0.3821987 0.10112339 -0.45930168 0.12720808 -0.42700377 0.055367365
-0.34271744 -0.46175268 -0.49821448 0.3552483 -0.19263965 -0.04229799 0.19431625 0.25112295

encoder_variable_selection.flattened_grn.fc2.weight f4 [4, 4]
00000000: b368 c7bf 461d 3dbf 2acb 0d3f 32a8 6b3f
00000010: 43ee dcbe 5b76 0f3f 9eff e93d 3c35 68be
00000020: 8aca ff3e 57bc 413e 18cd 873f b2e8 953e
00000030: d7ce 133f e960 b83e 68d6 1ebf 8778 a2be
-1.5578827 -0.7387279 0.5538813 0.9205352 -0.4315053 0.5603997 0.11425708 -0.22676557
0.49959213 0.18919502 1.0609465 0.29279095 0.5773749 0.36011437 -0.6204591 -0.3173258

encoder_variable_selection.flattened_grn.fc2.bias f4 [4]
00000000: 0965 713d ccca 053d f24e 40bd dff9 b3bc
0.058934245 0.032664105 -0.046950288 -0.021969734

encoder_variable_selection.flattened_grn.gate_norm.glu.fc.weight f4 [8, 4]
00000000: 5e38 a1be 2151 4f3e db29 0d3f 7dfc f53c
00000010: 0d26 05bf 7808 c0be cd59 48bd b163 b3be
00000020: 0fa4 223f b75e 433e 5d98 bfbe 2907 693e
00000030: bcf3 1d3f 0d29 2b3f 44ae 2d3d d06d a6bd
00000040: 16d4 08be 1fd7 943e 77c2 ed3d c6aa f8bb
00000050: 4f6f 2bbf c2a8 d73e 8998 2cbf d271 e1be
00000060: 6807 023f 32fc 173f 76dd b93e 7320 df3e
00000070: 0095 0cbf 6b12 7dbe 3f5a 97bd da22 12bf
-0.31488317 0.20245792 0.5514199 0.030027622 -0.52011186 -0.3750646 -0.048913766 -0.35036996
0.63531584 0.190791 -0.3742093 0.22756638 0.61700034 0.66859514 0.04240252 -0.08126414
-0.13362154 0.29070374 0.11609357 -0.007588717 -0.6696672 0.4212094 -0.6742025 -0.4403215
0.5079255 0.59369195 0.36301774 0.43579444 -0.54914856 -0.24714057 -0.0739026 -0.5708443

encoder_variable_selection.flattened_grn.gate_norm.glu.fc.bias f4 [8]
00000000: d086 a7bd 43e5 ea3c cde5 90bb 6cff 943d
00000010: b539 9a3c 442f 7d3a 9aea 153c 36c0 4b3c
-0.0818001 0.028673774 -0.0044219256 0.0727528 0.018826345 0.0009658227 0.009150172 0.012435963

encoder_variable_selection.flattened_grn.gate_norm.add_norm.norm.weight f4 [4]
00000000: 74e5 653f 282b 813f de70 723f b467 8a3f
0.8980324 1.0091295 0.9470347 1.0812898

encoder_variable_selection.flattened_grn.gate_norm.add_norm.norm.bias f4 [4]
00000000: 7d6b e5bd 728f 983d 1795 25bd 5a2c bc3d
-0.112021424 0.07449235 -0.040425386 0.09188147

encoder_variable_selection.single_variable_grns.TEAM_ID.mask f4 [16]
00000000: b638 113d 7740 a13c 672c 813c 97db 14bd
00000010: 59c4 c3ba 6e62 f23c af28 423c 6289 293c
00000020: f858 cabb 3a58 49bc 26bd 12bd 0011 07bd
00000030: 9f58 243c da5c 183c 2949 1abb b361 b4bb
0.035454474 0.01968406 0.015768243 -0.03634223 -0.0014935835 0.02958795 0.01185052 0.010347696
-0.0061751567 -0.012289101 -0.035824917 -0.032975197 0.010030895 0.009299481 -0.0023542142 -0.0055048107

encoder_variable_selection.single_variable_grns.TEAM_ID.norm.weight f4 [16]
00000000: 524f 763f 21b8 823f 1f2c 7e3f 7a01 6f3f
00000010: 56d1 7b3f 4173 853f 1e4b 783f 831d 803f
00000020: ab95 7e3f b27f 753f 159f 6e3f 6c47 6f3f
00000030: 0abf 813f d9c8 813f 8740 7c3f 9e20 733f
0.96214783 1.0212442 0.99286073 0.9336163 0.98366296 1.0425798 0.9698962 1.0009006
0.99447125 0.9589797 0.9321149 0.93468356 1.0136425 1.0139419 0.9853596 0.94971645

encoder_variable_selection.single_variable_grns.TEAM_ID.norm.bias f4 [16]
00000000: 6e1d 37bd 3ad6 fdbb e7d7 693d f6df 9e3d
00000010: 97e9 0bbd 71e3 22bd 6273 78bd d8f6 51bd
00000020: 83ea 98bd bba2 05bc 70bd c5bc f7f1 2fbd
00000030: a63a b53d 7f60 b3bd bcbe 973c ccd1 cc3b
-0.0447058 -0.007746485 0.057090666 0.07757561 -0.034158316 -0.039767686 -0.060656913 -0.0512608
-0.074666046 -0.008156474 -0.024138182 -0.042955365 0.08849077 -0.087586395 0.018523566 0.0062505957

encoder_variable_selection.single_variable_grns.time_idx.resample_norm.mask f4 [16]
00000000: fb5a 07b9 c88e 9e3c 1bbf eabc ee5c 033d
00000010: 8cbf c2bb 3bd5 dabc 99b9 d5bc 16fc 553d
00000020: df9a 20bd d137 153c a2db 7ebb 5f9e 78bb
00000030: f55c 62bc 13ed e33c 3667 d0bc da22 09bc
-0.00012908496 0.019355193 -0.02865558 0.032071047 -0.0059432443 -0.026713004 -0.026089476 0.05224236
-0.039210197 0.009107546 -0.0038888236 -0.0037936193 -0.013816108 0.027823007 -0.02543984 -0.008370126

encoder_variable_selection.single_variable_grns.time_idx.resample_norm.norm.weight f4 [16]
00000000: 3393 7d3f 51c8 833f 02fc 783f 7ef4 853f
00000010: c5ba 7d3f 8f3b 753f 2478 753f 7b9a 883f
00000020: 39a3 6f3f 8c08 823f 0664 7e3f 7ec6 7e3f
00000030: 0d43 783f f2bf 843f 11cf 773f 9fc5 7d3f
0.99052733 1.0295507 0.97259533 1.0465238 0.9911311 0.95794004 0.95886445 1.0672144
0.93608433 1.0158858 0.99371374 0.99521625 0.9697731 1.0371077 0.96800333 0.9912967

encoder_variable_selection.single_variable_grns.time_idx.resample_norm.norm.bias f4 [16]
00000000: cecc 043c 9831 553c 1821 0b3c 9e42 183d
00000010: d891 34bd 5fae 0b3d 28ef a5bc f0d2 49bd
00000020: a7d5 ca3c 5cb2 4abd 119b f2bb 72b5 17bc
00000030: 3ce8 883d 1163 40bd 2feb 533b 9a0a d03b
0.00810547 0.013012312 0.008491777 0.037172906 -0.0440844 0.03410184 -0.02025564 -0.04927343
0.02476008 -0.049486503 -0.0074037393 -0.0092595685 0.0668492 -0.046969477 0.0032336225 0.00634892

encoder_variable_selection.single_variable_grns.time_idx.fc1.weight f4 [8, 8]
00000000: e215 153e 6a22 0a3e c8b7 d0bd b8bf 5fbe
00000010: 8732 913d 059a 94bc e542 a33e 820a a2bf
00000020: df3b c23e e0ed 38bf b790 943e ef81 1d3f
00000030: bd10 723e 11da b4be 24a0 a03d d906 d8be
00000040: 6604 47bf bf0d 54bd e083 25bf fb22 b0be
00000050: a95b b03e bf4c ac3d 2127 02bf 11ac 79bf
00000060: 08fa 57bf 6a19 9cbe ca3a a43e 54fd 4bbe
00000070: 20d5 edbd 0fb0 0c3f 717a c4be 68a6 0b3f
00000080: 949a 883f 2947 26bf 566c 0a3f edd9 973e
00000090: 07e7 c93e 3407 21bf 92ae 563e 4f90 ef3e
000000a0: 6c49 dcbd ee32 3fbe 195b 983e 404a 403f
000000b0: 59af d7be 9191 8dbe 6cee 2e3f e113 463d
000000c0: a6d2 97be 08a5 a33d fe5e 8ebe 5799 153e
000000d0: c5d4 e63e 9237 a63e 1dbd 1e3f ae1e c13e
000000e0: c9bc a33e 2897 9fbf fcf2 e83e 9ad9 2fbd
000000f0: 0969 513e 4c92 26be 953d 243f 6339 a43e
0.14559129 0.1348969 -0.101913035 -0.21850479 0.070897155 -0.018139848 0.31886974 -1.2659457
0.37936303 -0.7223797 0.2901666 0.6152639 0.23639198 -0.3532262 0.078430444 -0.42192724
-0.77741086 -0.05177092 -0.6465435 -0.34401688 0.3444493 0.08413076 -0.50840956 -0.9752818
-0.8436589 -0.3048814 0.32076102 -0.19920856 -0.11612916 0.54956144 -0.38374665 0.5455079
1.0672174 -0.6495233 0.5407156 0.29658452 0.39434072 -0.62901616 0.20965031 0.46789786
-0.107561916 -0.18671772 0.29757002 0.75113297 -0.42125967 -0.2765012 0.6833255 0.0483588
-0.296529 0.079904616 -0.27806848 0.14609276 0.45084205 0.32464272 0.62007314 0.3771872
0.3197997 -1.2468004 0.45497882 -0.04293213 0.20450224 -0.16266745 0.64156467 0.32075033

encoder_variable_selection.single_variable_grns.time_idx.fc1.bias f4 [8]
00000000: 407e 113b e8ad 3c3c 37b9 a93c f463 f23c
00000010: 738b 823c f02d 90bb 1648 993c 3deb fbbc
0.0022200495 0.011516072 0.0207182 0.029588677 0.015935635 -0.0044000074 0.018711131 -0.030751819

encoder_variable_selection.single_variable_grns.time_idx.fc2.weight f4 [8, 8]
00000000: 3f43 1f3d cf97 2dbe e9ae 5cbf 51d9 533e
00000010: f077 e0be 3582 243d 180e fbbd e39d 7dbe
00000020: ee03 a9be ecf2 12bf c9bd 1b3d 234e 9d3e
00000030: edec 0fbe acff 303f 01a6 8ebe 6117 28bf
00000040: ecf8 ecbd 743e 58be e785 15be 2809 e3bc
00000050: 8457 0f3e cadc 873e eaff c23d 6445 043f
00000060: 7bd5 033e bcf4 323f 5b25 3abe 1126 1c3f
00000070: f604 dbbe 691c bf3e 1e83 753e 3cc6 c7be
00000080: b61d 09be 2cf6 1bbe 60e9 26bf a91d fdbe
00000090: 146f 40bf 5e3d 91be 14e2 84be 194c 1ebe
000000a0: 3a45 d63e 669a bf3e 3a0f 7f3e 91f8 9ebe
000000b0: 4ffc 35bf d250 d13e 81c4 9abe d600 8a3d
000000c0: 6306 49bf b278 10be 83f5 de3e 741f ed3e
000000d0: 7bd5 75be 100a ba3e 7012 2f3f 1a2d ed3d
000000e0: 3812 413e 22b7 44bf feb9 0abf 2f5d 8bbe
000000f0: fdbc 16bf 57fc fa3e 3fe3 fcbd e5a2 ba3f
0.03888249 -0.16952442 -0.8620439 0.20688368 -0.43841505 0.040163238 -0.122585475 -0.2476726
-0.3301081 -0.5740192 0.03802279 0.30723676 -0.14055224 0.69140124 -0.27861026 -0.65660673
-0.115709156 -0.21117574 -0.14601861 -0.027714327 0.13998228 0.26535636 0.09521468 0.5166838
0.12874405 0.69904685 -0.18178312 0.60995585 -0.42777222 0.37326363 0.23975798 -0.39018428
-0.1339024 -0.15230626 -0.6519985 -0.4943669 -0.7516949 -0.28367132 -0.25953734 -0.15458716
0.4184969 0.37422484 0.24908152 -0.31049016 -0.7108812 0.40881974 -0.30228046 0.06738441
-0.7852537 -0.14108542 0.43546686 0.4631306 -0.24007218 0.36335802 0.6838751 0.11580868
0.18854606 -0.7684194 -0.5419005 -0.2721953 -0.58882123 0.49020645 -0.12348031 1.4580961

encoder_variable_selection.single_variable_grns.time_idx.fc2.bias f4 [8]
00000000: 455b c1bb 66c8 69bc 4950 18bc 863e 613c
00000010: 913b 08bd 935e d5bb 9ff8 1d3c ad62 31bc
-0.0059007728 -0.01426897 -0.009296485 0.013747817 -0.033259932 -0.0065115183 0.009641795 -0.010826749

encoder_variable_selection.single_variable_grns.time_idx.gate_norm.glu.fc.weight f4 [32, 8]
00000000: d277 743e 9590 ab3e 32b6 30be 6486 b0be
00000010: 48bc b7bd 7868 7cbd 5287 a03e aa97 9d3d
00000020: 81c1 a8bb 2a85 1abe 351d c5be c1ca 033e
00000030: 4d67 60be f8bd e9bd 1618 82be 1182 843e
00000040: dde0 833e b59d 093e 6083 4d3d 4fcb eebd
00000050: a9d4 2f3e 0eac aebc 4446 1d3e 9688 c83d
00000060: dfad 773e b39a 5f3d 82ef 4dba 17d7 c8be
00000070: 95d2 8ebe 8e61 aabe 3928 18be c909 803e
00000080: c0e1 5c3d a60f 763d f277 45bd 9838 233e
00000090: 98ae 383e 1fcb 30be 8a5e cb3d 44e1 adbe
000000a0: a188 4d3e 7a93 1c3e 7f9e 973e 3cbf db3d
000000b0: 24a5 863e 6765 49bb 5c98 80bd 49d6 02be
000000c0: c290 b0be 1ead 573d fafd 993d 4a6d 29be
000000d0: 0f5b f3bc f9e0 993e 6f29 c6be e422 483e
000000e0: ad33 9abd 0d92 293e 530e ce3e e2f3 983e
000000f0: 18dc 873e 8dc7 16be ab33 07bd 2b4a 92be
00000100: 3833 97bd d260 a7be f604 80be 5b1d aabe
00000110: 83da 533e a76e 70be 84eb 5ebd d347 2f3e
00000120: 9f87 803e 27a6 663e 9192 24bd e7ae f5bd
00000130: 9563 713e 961b 0b3e 7ca6 cdbe 991c 953e
00000140: 4efa acbd 4296 c2be 5881 c93d 1537 a43e
00000150: 83cf 0abe 5ed9 953e ff0c 943e b46a bdbd
00000160: f686 7abd 4212 743e b486 95be 5928 55bd
00000170: 5490 aa3e 4016 f5bc da96 95bd 0c77 b5be
00000180: 6e2f dbbd 9c2a 013e dde9 84be 651f 8f3e
00000190: 6575 293e b24e 6d3e 0a16 3f3d e13d afbe
000001a0: 2d18 97bd 5ba0 0cbe 66b2 9ebe bc3e 20be
000001b0: e789 ce3e 12e3 a93e c1d0 8d3e c5c7 c03e
000001c0: f331 4abe e75c 18bd c244 c33e 3f6d b2be
000001d0: 3c38 f33d 7043 23be 41d8 dc39 02b2 233e
000001e0: 7b51 1abe ee06 b2be 92ae e53d 9665 09be
000001f0: 475c a5be ee28 83be 0486 333d 4132 0b3d
00000200: c421 30be 5f41 ad3e 56b3 363e 7d09 3e3d
00000210: 6724 c63e 626c a03e bd7c aebe 9bb4 813e
00000220: b4c6 a23e d23b 213e 3002 ac3e 142d 3cbd
00000230: 1ad5 0abe ee48 ab3e d308 23be bf88 a0be
00000240: 4694 be3b 4b3c 9fbe de8c 8ebe 17d8 55bd
00000250: c214 1d3b f4ef afbd 0097 52be ff4c 7e3d
00000260: 2a6e 1ebd 4286 dcbc aabc 643e 1602 ccbd
00000270: 10d1 923e ce22 8abe 823e 2ebe 1185 0ebd
00000280: cda6 903e 6c5d 9ebe 4156 17be 7b91 98be
00000290: fc02 4a3e 53cf 8cbd f768 283d 7ff3 6fbe
000002a0: 1c5b 2ebe f289 c2be 8575 a43e b637 a53e
000002b0: 694c 863d f15c f5bd 40af b6be ab4b a73e
000002c0: 1989 0abe 40bd 7d3d 43f0 12bc 1b36 b53e
000002d0: da07 abbe 63d8 123e b2c7 aabd d1df bb3c
000002e0: 590b cebe e4ed a53e 94e7 dbbd e619 99bd
000002f0: d60e 8abe 9a23 7b3e 977e abbe b2a0 4ebd
00000300: b406 aebc c1e2 8ebe e057 82be 7d32 eebd
00000310: c3c2 5dbc 57ea 05bd e449 933d 9491 843e
00000320: 6da3 5cbe 079d b9be 6962 a0bd 23a4 3abd
00000330: c02b 803e 0478 7ebe 86dc 2bbe 7868 9dbe
00000340: a314 1cbe f890 183e 25f5 dabd 9fe9 523e
00000350: c65e be3e 0f77 183e a6d5 8abe 8d97 e7bd
00000360: 6a9a 56be 92a5 d93c fc57 26be 829f dcbd
00000370: 3f7f 0ebd 252f 423e 7c33 bfbd 76fb ac3e
00000380: 7ead 933e 88ee 213d 212d c5bd b7d2 803e
00000390: 565b 9cbe e00b 53be 3af0 883e 13d3 63be
000003a0: 81b2 57bd d4fe c43e b7c2 bbbe 0cc3 7b3e
000003b0: f5cb 233b dd12 1a3d 9c16 983e df53 93bd
000003c0: 86fd e43d 5cb0 9fbe 5d80 ab3e d059 b93e
000003d0: 3e43 a1be ebaa a43e 2083 c1be 2f1d be3e
000003e0: df40 b7be d358 2ebe b951 ab3e a3ff 52be
000003f0: 7078 e1bd c74e a03d 6a59 233e e265 1c3e
0.23873833 0.33508745 -0.17257002 -0.34477532 -0.08971459 -0.061623067 0.3135324 0.07694943
-0.0051500206 -0.1508986 -0.38498846 0.12870313 -0.21914406 -0.11413187 -0.25409 0.25880483
0.25757495 0.13439067 0.050174117 -0.11659872 0.17170967 -0.021322276 0.15358835 0.09791677
0.2418742 0.054590892 -0.0007855819 -0.392266 -0.27895036 -0.33277553 -0.14859094 0.25007465
0.05392623 0.060073517 -0.048210092 0.15939558 0.18035352 -0.17264985 0.09930141 -0.33960927
0.20071651 0.15290633 0.2961311 0.107298344 0.26297867 -0.0030730607 -0.0627906 -0.12777056
-0.3448544 0.05265533 0.07519145 -0.16545597 -0.029706506 0.30054453 -0.38703486 0.1954456
-0.075293876 0.1655962 0.40245304 0.29873568 0.26535106 -0.1472456 -0.03300826 -0.2857221
-0.07382816 -0.32691056 -0.25003785 -0.3322552 0.20688824 -0.2347971 -0.054423824 0.17117243
0.2510347 0.2252432 -0.04017884 -0.119962506 0.23573144 0.13584742 -0.4016608 0.2912338
-0.08446179 -0.38005263 0.098391235 0.32073274 -0.13555722 0.292674 0.28916165 -0.09248868
-0.061163865 0.2383509 -0.29204333 -0.05204043 0.3331324 -0.029917836 -0.07304163 -0.35442388
-0.10702406 0.1261391 -0.25959674 0.2795364 0.16548689 0.23174551 0.046651877 -0.34226897
-0.07377658 -0.13733046 -0.30995482 -0.15648931 0.40339586 0.33181053 0.2769833 0.37652412
-0.19745617 -0.037197974 0.38138396 -0.34848973 0.1187596 -0.15943694 0.00042122792 0.15985873
-0.15070145 -0.34770912 0.11214937 -0.13417658 -0.32296965 -0.25617164 0.04382898 0.033983473
-0.1720038 0.33838937 0.17841849 0.046395767 0.38699648 0.3133269 -0.34079543 0.25333104
0.31792223 0.15745476 0.3359542 -0.045941427 -0.13557854 0.33454078 -0.15921335 -0.3135433
0.0058160154 -0.31100687 -0.27841848 -0.052208032 0.0023968671 -0.08590689 -0.20565414 0.062085148
-0.03867928 -0.026919488 0.22337595 -0.09961335 0.28675127 -0.2697968 -0.17016032 -0.03479487
0.2825226 -0.3093065 -0.14778997 -0.29798493 0.19727701 -0.068754815 0.041115727 -0.2343273
-0.17026943 -0.3799587 0.3212091 0.32269067 0.06557543 -0.11980618 -0.3568058 0.32674918
-0.13528861 0.06194806 -0.008968416 0.35392842 -0.33404428 0.14340357 -0.0833887 0.022933872
-0.40243033 0.3240806 -0.107375294 -0.07475643 -0.26964444 0.245253 -0.33495018 -0.05044622
-0.02124343 -0.27907375 -0.25457668 -0.116307236 -0.013535204 -0.032694187 0.07191828 0.25892317
-0.21546717 -0.36252615 -0.0783127 -0.04556669 0.2503338 -0.2485047 -0.16783342 -0.30743766
-0.15242247 0.14899051 -0.10691289 0.20596932 0.3718168 0.14889167 -0.27116126 -0.11308203
-0.20957342 0.026568208 -0.16244501 -0.10772611 -0.03478932 0.18963297 -0.09335992 0.337856
0.28843302 0.03953412 -0.09627748 0.25160763 -0.30538434 -0.20609999 0.26745778 -0.22248487
-0.05266047 0.38475668 -0.36671993 0.24586123 0.0024993394 0.037615646 0.2970475 -0.071937315
0.11181168 -0.3118924 0.3349637 0.36201334 -0.31496614 0.3216165 -0.37795353 0.3713164
-0.3579168 -0.17026071 0.33460787 -0.2060533 -0.110093 0.078275256 0.15952078 0.1527324

encoder_variable_selection.single_variable_grns.time_idx.gate_norm.glu.fc.bias f4 [32]
00000000: 90fe 373b 12bf 0b3c b726 2a3b 20e6 f03c
00000010: 0a79 04bd 6a21 8f3c b313 a1bc 896f e3bc
00000020: 9a14 823c 4c18 0ebd ad97 97bb e7c3 80bb
00000030: c220 6c3d 8dec 1cbd 3402 b83b 6caf b03b
00000040: cc92 a63a 2001 7fbb df85 39bc 0ee3 0bbb
00000050: e64a 68bc 107d 1b3c f0d1 c23a 78cf 9ebc
00000060: 5d94 3c3b a8d6 74bb d412 333b cea1 0ebb
00000070: 3e4e 4b3c b355 af3a fdb1 1bbc e19c 083b
0.0028075315 0.008529441 0.0025963017 0.029406607 -0.032341994 0.017471988 -0.019662714 -0.027763145
0.015878964 -0.03469114 -0.0046262355 -0.0039296034 0.057648428 -0.03831153 0.005615497 0.0053920057
0.0012708544 -0.0038910583 -0.011323421 -0.0021345052 -0.014178013 0.009490266 0.0014863592 -0.019386038
0.0028774955 -0.003735939 0.0027324455 -0.0021763924 0.012408791 0.0013376981 -0.009502885 0.002084546

encoder_variable_selection.single_variable_grns.time_idx.gate_norm.add_norm.norm.weight f4 [16]
00000000: 1163 7e3f 54e8 823f ad53 7b3f 52e1 853f
00000010: 218a 783f a390 793f c543 853f 470f 8a3f
00000020: 3426 773f f71c 833f 939b 803f 5db4 7d3f
00000030: 0036 7e3f 196e 853f a42e 763f ea05 7e3f
0.99369913 1.0227151 0.98174554 1.0459387 0.9708577 0.97486323 1.0411307 1.0785912
0.9654267 1.0243214 1.0047477 0.9910334 0.9930115 1.0424224 0.9616492 0.99227774

encoder_variable_selection.single_variable_grns.time_idx.gate_norm.add_norm.norm.bias f4 [16]
00000000: ab0c bebb 0a47 af3b 47be 2b3c fa87 1a3d
00000010: 02be 36bd ecca b03c 6a12 4cbd 420f 78bd
00000020: 2145 b23b 8f73 67bd 1645 abbc 406b 58bc
00000030: 3931 873d 5e53 79bd c91f 08bc 4215 87ba
-0.00579985 0.0053490447 0.010482377 0.037727334 -0.0446148 0.021581136 -0.04982225 -0.060561426
0.0054403697 -0.05650669 -0.020906966 -0.013209164 0.06601185 -0.06087052 -0.008308359 -0.0010306018

encoder_variable_selection.single_variable_grns.relative_time_idx.resample_norm.mask f4 [16]
00000000: b84e 533c 2727 35bc a69a ed3c 2f57 68bc
00000010: c4a1 cd3c 14f0 13bb b09d bcbc 0775 14bd
00000020: 2b1e 7bbd 3f59 4c3d 559a d0bc c6fc 74bc
00000030: 6176 0b3c 13b8 9b3d fd61 42bc d349 acbc
0.012897186 -0.011056698 0.029004406 -0.014180942 0.02510155 -0.0022573518 -0.02302441 -0.03624442
-0.061308067 0.0498898 -0.025464216 -0.014952844 0.00851211 0.07603469 -0.011864183 -0.021031296

encoder_variable_selection.single_variable_grns.relative_time_idx.resample_norm.norm.weight f4 [16]
00000000: 281e 833f 07eb 793f 8b2f 823f cc0d 743f
00000010: 3cf9 823f 55af 803f 133d 753f 81a3 703f
00000020: 2122 6b3f 475c 863f e92f 713f 4293 753f
00000030: c720 793f 50ea 8c3f c500 773f c8b7 723f
1.0243578 0.9762425 1.0170759 0.9533355 1.023231 1.0053507 0.95796317 0.9399949
0.9184895 1.0496911 0.9421373 0.9592782 0.9731564 1.1009007 0.9648555 0.9481168

encoder_variable_selection.single_variable_grns.relative_time_idx.resample_norm.norm.bias f4 [16]
00000000: 2c7c 33bd 0756 823b b3a8 ac3d 6b16 a63d
00000010: a48a 4bbc f3bd 80bc 067c 25bd 54b7 57bd
00000020: e8b6 9fbd abc1 1e3d a01d 46bd 01b0 08bd
00000030: afd7 b83d e051 bbbd 28d0 ee3c 4e20 1f3d
-0.04381959 0.0039775404 0.08430614 0.08109745 -0.012423191 -0.015715575 -0.04040148 -0.05266507
-0.077985585 0.038758915 -0.048368096 -0.033370975 0.090255134 -0.09146476 0.029151991 0.038849168

encoder_variable_selection.single_variable_grns.relative_time_idx.fc1.weight f4 [8, 8]
00000000: 8668 893a 5cdb 31bd 1167 89be 5f5e 23be
00000010: 80f1 a33e 6493 593f e1c5 05be 03f9 c0be
00000020: 4c79 013f c32f 24bc 0932 1e3e afce 9abe
00000030: 668e 24bd d368 133e 52da e6bd edf7 753d
00000040: 711a b6be 3e95 f8be 0a3e 933c 0458 443d
00000050: 51fb 32bd 6554 c5be c10f 22be 1c49 1c3f
00000060: 8849 cbbe 54cc 3cbe 9d6a 2d3f a9d1 79be
00000070: 5a6d 843e 1f28 e33d 78c8 f5be 7282 b8be
00000080: 876b b2be 2591 2fbf d944 383f bc9e 72bb
00000090: c0f5 043f 3fc5 8b3e 5680 43bd 750b d83e
000000a0: f914 c83c 8d29 83be a1da 873e 30a7 57be
000000b0: 6ccb 26be 1d10 0e3e 8902 01bf a659 e93d
000000c0: 10d1 0fbf 3b62 87be 95be 613d 5321 713f
000000d0: a3d5 adbe 101a 2b3f a9d3 34be 29e1 a63e
000000e0: 87b3 6a3e e224 bc3e 5c52 f03d 735d 973e
000000f0: b91d 873d 57cd 69bf 31de 533f a641 203f
0.0010483421 -0.043422088 -0.26836446 -0.15953968 0.32020187 0.84990525 -0.13063766 -0.3768998
0.5057571 -0.010021153 0.15448774 -0.30235812 -0.040174864 0.14395456 -0.1127211 0.060050894
-0.35567048 -0.48551363 0.017973918 0.0479355 -0.043696705 -0.3854095 -0.15826322 0.61049056
-0.39704537 -0.1843732 0.67740804 -0.24396385 0.2586468 0.11091637 -0.48004508 -0.36037022
-0.34847662 -0.6858085 0.71980053 -0.0037020883 0.51937485 0.27298924 -0.047729813 0.4219624
0.024424063 -0.25617638 0.26533988 -0.2105987 -0.16288537 0.13873334 -0.50394493 0.11394052
-0.5617838 -0.2644213 0.055113394 0.94191474 -0.33952054 0.66836643 -0.17658867 0.3259366
0.22920047 0.3674689 0.11734459 0.29563484 0.06597466 -0.9132895 0.8276091 0.6260017

encoder_variable_selection.single_variable_grns.relative_time_idx.fc1.bias f4 [8]
00000000: 1b72 d33d 460a 79bd ff34 693d 836b 093b
00000010: 0658 aa3d caba b1bc 2e5e 2d3d 33f5 92bc
0.10324498 -0.060800813 0.056935307 0.0020968623 0.083175704 -0.021695513 0.042326145 -0.017939186

encoder_variable_selection.single_variable_grns.relative_time_idx.fc2.weight f4 [8, 8]
00000000: e750 d23e 3384 f03d 3b80 393e 6de6 51bc
00000010: bb4b 683f 30d9 b43d c097 ac3d c5e6 7ebf
00000020: acfc 603f c96a 353e bdd9 673f 7617 41bf
00000030: a058 b43d f256 cdbe 9ecb 4a3f 4238 2abf
00000040: 9544 0d3f c4d2 cebe 508e b4be 14be 813f
00000050: 6eda db3e cb7b 02bf 2dc7 033e 928f 003e
00000060: 127b 4fbf f5eb 923e b153 3dbf df8b 983c
00000070: 5fb7 2bbf ec46 763b 2412 9fbd 731c a1bd
00000080: 5ff8 c93e 38e5 87be 13dc 103f 0bdb 373c
00000090: 66f7 7d3f 2e37 bebe c220 3abf fe48 48bd
000000a0: 53b2 123e 1389 af3e c991 edbe f337 d73e
000000b0: f6c3 cabe afda 19bf b239 4d3e 4657 e7bd
000000c0: 7d45 173f 7ec9 ef3c 546c a6bf 1fc2 1ebf
000000d0: af29 0fbf 3146 cbbe a50f da3e 2a45 b4bd
000000e0: 551f 48bf 1020 0c3f d659 50bf 3a06 ddbc
000000f0: 9b8d 363d dc3b 18bf e5c4 a13e 2e44 a3bc
0.4107735 0.11743965 0.18115322 -0.012811285 0.90740556 0.08830488 0.084273815 -0.99570876
0.87885547 0.17716517 0.9056662 -0.75426424 0.088059664 -0.40105397 0.79216945 -0.6649209
0.5518277 -0.40395176 -0.35264826 1.0136132 0.42940086 -0.50970143 0.12868948 0.12554768
-0.81047165 0.28695646 -0.7395583 0.018621383 -0.6707668 0.0037578894 -0.07767132 -0.078667544
0.39447305 -0.26542068 0.56585807 0.0112216575 0.99205625 -0.37151474 -0.72706234 -0.048897736
0.14325838 0.34284267 -0.46400288 0.42034873 -0.3960263 -0.6009931 0.2004154 -0.11295943
0.59090406 0.029270884 -1.3001809 -0.62014955 -0.5592298 -0.3970199 0.4259006 -0.088022545
-0.7817281 0.54736423 -0.8138708 -0.026980508 0.04456864 -0.5946634 0.3159553 -0.019929972

encoder_variable_selection.single_variable_grns.relative_time_idx.fc2.bias f4 [8]
00000000: dc30 683d 0fa2 553d 7331 593d a806 a1bd
00000010: 87e7 bfba b10a 813c 1aad 933c dc26 80bd
0.05668722 0.052156504 0.053025674 -0.07862598 -0.0014641144 0.015752168 0.018026877 -0.06257412
