ml/lightning_logs/version_1/checkpoints/epoch=3-step=200.ckpt (torch, 561396 bytes, 820 tensors)

input_embeddings.embeddings.TEAM_ID.weight f4 [30, 11]
00000000: cb4f 773f b43a 0c3f 719b 14bb 4f9c 4d3f
00000010: 9514 42bd 4d5f e7be 89b2 07c0 6075 08be
00000020: b616 09bf 9085 973f 1645 43bf faf4 22bf
00000030: 4e59 043e e19e ab3f 0e15 223e 10b0 703e
00000040: 6796 88bf 782e 62bf 35dc 073f f2f0 fabd
00000050: fd6d 263f 5690 ad3d 5254 28bf 1dd6 763f
00000060: cc9a 69be d881 033f a6e3 44bf 758f ea3e
00000070: 8aba 503f bb0d 383d 472c 41c0 55e8 9bbf
00000080: cc2c 1e3f 8029 7a3d ed39 383f 7a92 483f
00000090: 47bc 983c 7a44 07bf d06d 6dbf 2636 47bf
000000a0: aace 63c0 1875 c5be 492c 03bf 4362 23be
000000b0: 3c6d adbf 9faf 9bbf e42d 353b f7af d6be
000000c0: f84b 423f eabb 01bf 7a41 b4bf 2d7a 833f
000000d0: a790 ec3e 5b1a f83e 6cbe 893f 41f9 a9bf
000000e0: f435 d6bf 0752 e83e e7da d13e a387 f13e
000000f0: e1e2 c2bd 5897 f7be 82f8 5c3f 27c0 21bf
00000100: 71b8 dcbe 793a cfbe 5897 0cbf 4ea4 d43f
00000110: 2f3e 4a3f 3199 22bf 4afa c2be 4b2e 93bf
00000120: b3b7 173f ad4d 323f a0f6 aa3f ef57 053f
00000130: 1ee2 333f 1112 89bf 3181 3e3f 81db 9d3f
00000140: 0f39 e93f e3a8 27bf 57b7 80bf 4f17 ac3f
00000150: 94e5 45bf d0d2 2cbf 48d8 2cbe b640 273f
00000160: 09f1 03bf 12a7 b63f 7654 59be bc85 34bf
00000170: 87ef 32bf f1d2 f23e 5e3d 0d3e 4bd3 8c3f
00000180: 0c0d 673f ea2e 9bbe 938b 08bf 64b3 843e
00000190: 1459 29bf 83a8 b83f fd38 efbf 3e27 0d40
000001a0: e7a0 c7bf f585 d93e a2ce 4bbf 751b d3be
000001b0: 31dc 09bf d6f7 b63e b98a cf3d f87c a1be
000001c0: 0efd 06bf 4150 473c 7f4e 323f 9bfe b7bd
000001d0: 772b 2cbf e8b4 a53e ff56 c7be 04b0 a93f
000001e0: 8d37 9ebf 1b27 4e3f 3c4a babe 3dd1 31bf
000001f0: fe02 603f 1de6 a83d bdd0 fabc 0a66 7fbf
00000200: f47d a4be 2bd6 333f cd5f cdbf f4c9 343e
00000210: a846 1040 b075 08bf 8f2c a73e 0a80 48be
00000220: fa29 5b3e 9496 3dbe af3e bfbe 6503 7cbe
00000230: 5cec a7be 96ad 06bf 4b66 133e 1ad0 703e
00000240: b5ba 163e 39b9 823f cb80 2ebf c197 ae3e
00000250: cc3e ba3e 0985 b63f 53c7 4fbf b4a8 8b3f
00000260: f8b6 acbf 7210 023d 08ef e0be ee0c 8b3e
00000270: 3ba5 653f 47f5 6ebf f9b3 edbe e7e4 93be
00000280: c4bb c7bf cc80 ecbc 9487 053f 03d0 8abe
00000290: dfd6 08bf 7ed6 853f 7375 1bbd 6634 663f
000002a0: 1a53 76bf c6cf 81bf cb55 bf3e c19b 8a3d
000002b0: bd37 b6bf c30d 57bf 60da a83f 4f38 0ec0
000002c0: 98df 813f ee26 10be 9b82 4f3f c2db dabe
000002d0: a856 9f3e e14f 1abd bbce e23e ea15 69bf
000002e0: 5b73 dcbc b8e4 5c3d 2f20 cabe 76c8 88bf
000002f0: 1d37 67be 31ae 92be 32d3 d9bf 6629 243d
00000300: 861d d1bf 0e82 00bf 3a79 1cc0 9776 cd3e
00000310: 3f28 593f 99ae 5b3f 10de 38be 3c53 123f
00000320: bd23 52be 0820 8f3e 5213 9abf 33d1 b53f
00000330: cf33 14bf 1b52 433f 1302 a0bf 12f9 1a3e
00000340: f7b1 213f 2bb0 26be 2d13 d23e b58d c0bd
00000350: 84d5 c4bf 1870 d1bf dad3 3ebf bd2d 3fbe
00000360: db40 25bf 9df6 c23f a2c0 043f 2038 373e
00000370: 2f50 883f e3fd ad3d 1eb4 94be 2777 ecbe
00000380: ce96 9c3e a905 f0bf 3e30 e73d bdd4 b4bd
00000390: 8b16 5f3e d47d b6be 2860 cabf d4c3 05be
000003a0: 8d68 773f baa4 713e 0e6c ccbf b55a 703e
000003b0: 9e0c a0bf 30a1 32be 2c12 38bf 58f6 543e
000003c0: f1d2 6f3f 68b3 04bf 5cd4 703f b8f8 0e3f
000003d0: babf 7dbe 6f5c 49bf 064e 113f 4491 573c
000003e0: b20a 903e 7c19 f0bf 4db8 1f3f 1da7 9cbe
000003f0: 7b8c b1be c793 0abf cd00 a13f 06d8 8bbf
0.9660613 0.54777074 -0.0022675658 0.80316633 -0.04738291 -0.45189896 -2.120272 -0.13326025
-0.5355028 1.1837635 -0.7627729 -0.63655055 0.12924692 1.3407861 0.15828344 0.23504663
-1.0670899 -0.88352156 0.53070384 -0.12252988 0.6501158 0.084747955 -0.6575366 0.9642046
-0.22812957 0.5137 -0.76909864 0.45812574 0.81534636 0.04493497 -3.0183275 -1.2180277
0.61787105 0.061074734 0.7196339 0.78348505 0.018644465 -0.5283886 -0.92745686 -0.77817
-3.5594888 -0.38565898 -0.5123945 -0.15955453 -1.3548961 -1.216297 0.002764576 -0.41931126
0.7589717 -0.5067736 -1.4082482 1.027166 0.4620411 0.48457608 1.0761237 -1.3279191
-1.6735215 0.45375082 0.40987322 0.47173795 -0.0951593 -0.48357654 0.8631669 -0.63183826
-0.43109468 -0.404743 -0.5491843 1.6612642 0.79001135 -0.63515 -0.3808158 -1.1498502
0.5926468 0.69649774 1.3356514 0.520873 0.702669 -1.0708638 0.7441588 1.2332612
1.8220538 -0.65492076 -1.0055951 1.3444613 -0.77303433 -0.67509174 -0.1687938 0.65333116
-0.51539665 1.4269736 -0.21223626 -0.7051656 -0.6989674 0.4742656 0.13792941 1.1001981
0.9025428 -0.3030923 -0.53337973 0.25918114 -0.6615155 1.4426426 -1.8689266 2.2055202
-1.5595978 0.42485014 -0.7961217 -0.41231886 -0.5385161 0.3573596 0.10133881 -0.31540656
-0.5272988 0.01216513 0.69651026 -0.08984109 -0.6725382 0.32364583 -0.3893356 1.3256841
-1.2360703 0.8052842 -0.3638476 -0.694599 0.87504566 0.082470156 -0.030617112 -0.99765074
-0.32127345 0.7024867 -1.6044861 0.17655164 2.2543125 -0.53304577 0.32651183 -0.19580093
0.21402732 -0.18514472 -0.3735251 -0.2461067 -0.32797515 -0.5260862 0.1439449 0.23516884
0.1471966 1.0212775 -0.6816527 0.34100154 0.36376035 1.4259349 -0.8116352 1.0910859
-1.3493338 0.031753965 -0.43932366 0.27158302 0.89705247 -0.93343014 -0.4642637 -0.28885576
-1.5604177 -0.028870009 0.5216 -0.27111825 -0.5345287 1.0456083 -0.037953805 0.89923704
-0.9622055 -1.0141532 0.37370142 0.06767989 -1.423576 -0.84005374 1.3191643 -2.2221868
1.014636 -0.1407735 0.81058663 -0.42745787 0.311208 -0.037673835 0.44298348 -0.91049063
-0.026910475 0.05392906 -0.3947768 -1.0686176 -0.22579618 -0.28648522 -1.7017577 0.040078543
-1.6337135 -0.5019845 -2.444899 0.4012954 0.84827036 0.8581329 -0.1805346 0.57158256
-0.20521446 0.27954125 -1.2037146 1.4204468 -0.57891554 0.7629716 -1.2500633 0.15134075
0.6316218 -0.1627814 0.41030255 -0.094020285 -1.537766 -1.6362333 -0.7454201 -0.18669792
-0.64552087 1.523151 0.51856434 0.17892504 1.064947 0.08495691 -0.29043669 -0.46184656
0.30583805 -1.8751727 0.11288498 -0.08829639 0.21785943 -0.35642874 -1.5810595 -0.13062984
0.96643907 0.23597994 -1.5970476 0.23472102 -1.250385 -0.174443 -0.7190273 0.20797098
0.93681246 -0.5183625 0.94074035 0.55848265 -0.24780169 -0.7865667 0.5675968 0.013157193
0.2813316 -1.8757777 0.62390596 -0.30596247 -0.3467749 -0.5413174 1.2578369 -1.09253

prescalers.encoder_length.weight f4 [8, 1]
00000000: 0024 1a3c 5045 29be 8cbe b7be 3c71 8d3e
00000010: c0fc b93d 52e0 693f 36fe 553f b6cc 1a3f
0.009407997 -0.16530347 -0.35887563 0.27625453 0.09081411 0.9135791 0.8359102 0.60468614

prescalers.encoder_length.bias f4 [8]
00000000: 4326 60bf a35d 03bf 3a6e 103f 686c fc3e
00000010: 1fd7 c43e 7d58 e63e b810 423d 86e7 253f
-0.8755838 -0.51314753 0.5641819 0.49301457 0.38445374 0.44989386 0.047379225 0.648064

prescalers.time_idx.weight f4 [8, 1]
00000000: 6080 83be 9894 823e 202c 403d 28d3 43bf
00000010: c0f5 a13e 7e12 33bf 0402 39bf 9890 36bf
-0.2568388 0.25503993 0.04691708 -0.76494074 0.31632805 -0.6995009 -0.722687 -0.7131438

prescalers.time_idx.bias f4 [8]
00000000: bd01 e5be fb04 e13d 83d7 33bd 12a1 1abf
00000010: 82db 533f 1f35 003e bbe8 453f c313 0b3f
-0.4472789 0.10987278 -0.0439067 -0.60402024 0.8275682 0.12520264 0.77308244 0.5432703

prescalers.relative_time_idx.weight f4 [8, 1]
00000000: 6c2d 563f 58a9 fe3e 2019 e3be 9840 44be
00000010: 0867 b03e 14f9 18bf e82b ec3e 88e7 2dbe
0.8366306 0.49738574 -0.44355106 -0.19165266 0.34453607 -0.59755063 0.46127248 -0.16982853

prescalers.relative_time_idx.bias f4 [8]
00000000: af72 02bf 917b 243f 8257 a73d 205c aebe
00000010: f653 5fbf 5115 85bf 9d0a 07bf 73b2 1d3f
-0.50956243 0.6425105 0.08170988 -0.3405466 -0.8723749 -1.039713 -0.5275057 0.61600417

prescalers.PTS.weight f4 [8, 1]
00000000: 9c32 0f3f d06e 4e3f 6838 913e 9864 6ebe
00000010: 1090 adbe d8f0 513f 5a9d 0fbf a07b fdbe
0.559366 0.80637836 0.28363347 -0.23280561 -0.33898973 0.82008123 -0.56099474 -0.4950838

prescalers.PTS.bias f4 [8]
00000000: 0195 363f b6e3 1cbf 53fc 85bf 9c70 5c3e
00000010: cc38 e1be 40c0 213f c146 8b3f f542 303f
0.7132111 -0.6128496 -1.0467628 0.21527332 -0.43988645 0.63183975 1.0880967 0.6885217

static_variable_selection.flattened_grn.resample_norm.mask f4 [2]
00000000: 6dfb c73a 8cc2 c6ba
0.0015257426 -0.0015164181

static_variable_selection.flattened_grn.resample_norm.norm.weight f4 [2]
00000000: 2500 803f 2500 803f
1.0000044 1.0000044

static_variable_selection.flattened_grn.resample_norm.norm.bias f4 [2]
00000000: a165 d336 0168 d3b6
6.300121e-06 -6.3003977e-06

static_variable_selection.flattened_grn.fc1.weight f4 [2, 19]
00000000: 4b96 413d cafa 23bf 0899 d0bd 7e2d 2d3e
00000010: ad2a ce3d 44df 9abe ef0e 91bd a2b7 57bd
00000020: 1c78 d4be 92aa 9fbe d571 f1bd a16a d5bd
00000030: 9ada f4be 5276 e73e 8a9f 2abe b28f 403e
00000040: 6821 e93e 9f07 6f3e a582 543e 3246 b0be
00000050: 4012 133e c815 833e 2a16 033e e6a7 f7bb
00000060: 947e 7c3c 0bff 97bd 91e8 503d 434f 753e
00000070: c090 bebe 9e31 723e c662 3e3e 518b e3be
00000080: 342b 73be a98b f3bd fe4f 2c3e eae9 6abe
00000090: e33d 0abe 3e70 de3e
0.04726247 -0.6405455 -0.101854384 0.16911885 0.100667335 -0.30248463 -0.070829265 -0.05266536
-0.41497886 -0.31184822 -0.1178929 -0.104207285 -0.4782303 0.4520746 -0.16662422 0.18804815
0.455333 0.23342751 0.20752962 -0.34428555 0.1436243 0.25602555 0.12801424 -0.007557857
0.015411038 -0.074216925 0.051003043 0.23956017 -0.3721981 0.2365174 0.18592367 -0.44442227
-0.2374695 -0.118918724 0.1682739 -0.22940794 -0.1350017 0.4344501

static_variable_selection.flattened_grn.fc1.bias f4 [2]
00000000: ab45 ac35 b8be 8f34
1.2835275e-06 2.6774592e-07

static_variable_selection.flattened_grn.fc2.weight f4 [2, 2]
00000000: a5b2 54bf 56a1 9abf ca2b 6dbe a147 dcbe
-0.8308509 -1.2080486 -0.23161235 -0.430234

static_variable_selection.flattened_grn.fc2.bias f4 [2]
00000000: 9240 a435 8370 2ab7
1.2237745e-06 -1.0158986e-05

static_variable_selection.flattened_grn.gate_norm.glu.fc.weight f4 [4, 2]
00000000: 6645 2f3f de43 7bbf ce17 64bf 3a44 e8bd
00000010: 687a 8ebd ef45 993c 163a 7e3f f063 57be
0.6846527 -0.9815043 -0.89098823 -0.11341138 -0.06956941 0.018710105 0.9930738 -0.21034217

static_variable_selection.flattened_grn.gate_norm.glu.fc.bias f4 [4]
00000000: 515c 5e36 71a5 4ab5 24c6 83b4 5d38 1fb6
3.3134313e-06 -7.5491613e-07 -2.4544818e-07 -2.3725654e-06

static_variable_selection.flattened_grn.gate_norm.add_norm.norm.weight f4 [2]
00000000: a572 863f a572 863f
1.0503737 1.0503737

static_variable_selection.flattened_grn.gate_norm.add_norm.norm.bias f4 [2]
00000000: 0ccd e9bd 0acd e93d
-0.11416063 0.11416061

static_variable_selection.single_variable_grns.TEAM_ID.mask f4 [16]
00000000: dd78 7bbd 1c36 983c 5366 28bc b715 e53c
00000010: e4cc d8bc 5eea 2e3c 255e 423d 2a0b 0f3d
00000020: 4b85 dfbc 3554 d3bc d72d 403d 15f3 8dbc
00000030: 4cdc fcba 6212 883d aa46 cbbb 9c68 0abd
-0.06139456 0.018580489 -0.010278302 0.027964456 -0.026464887 0.010675995 0.047453064 0.034922756
-0.027285239 -0.025796989 0.046918716 -0.017327825 -0.0019291728 0.06644131 -0.006203492 -0.03379117

static_variable_selection.single_variable_grns.TEAM_ID.norm.weight f4 [16]
00000000: 998d 733f 7d15 833f f789 803f eea8 833f
00000010: 5e6b 793f 9ab0 823f 80ff 853f b60e 843f
00000020: 3168 743f 292f 713f 2839 863f 894f 793f
00000030: 701f 6a3f c3ff 8a3f 5d55 7c3f fcd3 753f
0.95137936 1.0240933 1.0042104 1.0285928 0.97429454 1.0210145 1.0468597 1.031699
0.95471483 0.94212586 1.0486193 0.97386986 0.9145422 1.0859302 0.98567754 0.9602659

static_variable_selection.single_variable_grns.TEAM_ID.norm.bias f4 [16]
00000000: 0a3f 0abd 9673 bfb9 319f 123d 4481 8ebd
00000010: 0b52 45bc 47fd 343c 41b2 ee3d 6b9d 53bd
00000020: a251 993d 78bc c73d 8248 1cbc 96ba 883d
00000030: c628 f6bc 368a 24bc 4090 00bd 01b3 503d
-0.033751525 -0.00036516477 0.035796348 -0.06958249 -0.012043486 0.011046714 0.11655093 -0.051663797
0.07486273 0.097527444 -0.009538772 0.066762134 -0.03004874 -0.010042718 -0.031387568 0.05095196

static_variable_selection.single_variable_grns.encoder_length.resample_norm.mask f4 [16]
00000000: 5e3c 3c3c 2454 1d3d c1a9 c8bd 9937 ba3d
00000010: 75e4 233d eaba 753b d229 bd3d 3be1 24bd
00000020: adab 7abd c501 c43d aa91 aabc c5ef 193d
00000030: ede5 47bc 8c17 8ebc a0a8 cebd f553 90bc
0.011489002 0.03841032 -0.09798003 0.09092636 0.040012795 0.0037495443 0.09236492 -0.04025386
-0.06119888 0.0957065 -0.020821411 0.037582178 -0.012200815 -0.017345212 -0.100907564 -0.017618159

static_variable_selection.single_variable_grns.encoder_length.resample_norm.norm.weight f4 [16]
00000000: 1316 833f 478e 863f 4786 613f 05a0 913f
00000010: 7fc0 6a3f e39a 7e3f aa58 8b3f 0441 773f
00000020: d6e9 7d3f 8402 8a3f d04b 7b3f f7a3 853f
00000030: 69f5 7e3f 2003 7f3f 764b 653f dae1 7c3f
1.0241112 1.051217 0.88095516 1.1376959 0.91699976 0.9945509 1.0886433 0.9658358
0.9918493 1.0782018 0.98162556 1.0440663 0.99593216 0.99614143 0.8956827 0.9878212

static_variable_selection.single_variable_grns.encoder_length.resample_norm.norm.bias f4 [16]
00000000: a7b5 ebbc 728b 39bd 6464 e23d ec70 02be
00000010: aab8 e43d 003a ff3b 3d4c e23d 5272 36bd
00000020: 3693 a9bd 8e40 d53d c3b6 aebc 4d89 fe3c
00000030: 004b 97bc 15de 07bd 92bb d4bd f887 3ebc
-0.028773142 -0.045299 0.11054304 -0.12738389 0.111680344 0.0077888966 0.110496975 -0.044542618
-0.082800314 0.104127035 -0.021327382 0.03107133 -0.01846838 -0.03317078 -0.10387339 -0.011629097

static_variable_selection.single_variable_grns.encoder_length.fc1.weight f4 [8, 8]
00000000: 679e 503f da45 db3e 62b1 c03e 572b c93e
00000010: a08c 42bc fe82 e5be 321f 5e3f 729f 543d
00000020: 92a3 0dbe b47f 3dbe 892c 2fbe 9b7c 393e
00000030: 19e2 1dbf e63a 47bf 3c2e 293e 8761 64be
00000040: 79a5 47bf f25f 903e 4433 e33e 2ace 2fbe
00000050: 82dc a83d 3d38 9c3d 43eb a03e 96c0 413e
00000060: 6688 02be 2212 00bf 35fc 08bf b3c4 6e3f
00000070: b400 8dbc 78fb 15bd ed67 633e 8a2b 6fbe
00000080: 41b0 e2be a568 52bf 76d4 433d 26e1 3f3e
00000090: 20ab f93d 9cef b63e 1a02 cebe 88c5 d53e
000000a0: 1db7 39be 10ac 71bf 075f ad3e 46fa b23e
000000b0: 9b2d 963e 9d92 1d3f 3e0e 3e3e b5b0 5b3e
000000c0: a06c 093f 6e25 8ebf 7fe0 26bf 7a9c 483f
000000d0: 0a58 85bf e3fb b7bf 1b73 0dbf d914 5bbf
000000e0: 3ed9 d03e ccee c43e 6563 0c3e 8f8b 8d3e
000000f0: eb86 9f3f 26d0 91bf 2e01 1a3f 7435 113f
0.814917 0.4282673 0.37635332 0.39290878 -0.011874348 -0.44826502 0.8676635 0.05190987
-0.13831928 -0.18505746 -0.17106833 0.1811394 -0.6167312 -0.77824247 0.16521543 -0.22302829
-0.77986866 0.281982 0.4437505 -0.17168489 0.082451835 0.07627914 0.3142949 0.18921122
-0.12747344 -0.5002767 -0.5350984 0.9326889 -0.01721225 -0.036616772 0.22207613 -0.23356453
-0.44275096 -0.82190925 0.04781004 0.18738231 0.12190843 0.35729682 -0.40235978 0.41752267
-0.18136258 -0.9440317 0.33861563 0.34956568 0.2933167 0.6155184 0.1856012 0.21454127
0.53681374 -1.1105173 -0.65186304 0.78363764 -1.0417492 -1.4373745 -0.5525376 -0.85578686
0.40790743 0.38463438 0.13709791 0.27645537 1.2463049 -1.1391647 0.6015805 0.5672219

static_variable_selection.single_variable_grns.encoder_length.fc1.bias f4 [8]
00000000: 4010 98bd 79fa 87bd bc78 9c3d 68b6 a73d
00000010: 011d 71bb f55d 82bd 04e7 b43c 5bd3 793d
-0.074249744 -0.06639571 0.07640216 0.08189088 -0.003679097 -0.06365577 0.022082813 0.06099258

static_variable_selection.single_variable_grns.encoder_length.fc2.weight f4 [8, 8]
00000000: 6ee9 ccbe b719 2abf 4fd0 75bf 8cb7 a2be
00000010: 9b3c 173f 5d81 913d 3fda 07bc 2cd1 7e3e
00000020: 7c13 46bd 6464 373e 912a 42be 2d08 633e
00000030: 173f bcbc 768e c4be feae 283f 5575 0f3f
00000040: 5434 70bf 5fe8 c73c 5fac 22bf ed41 bcbe
00000050: 09d8 10bf ba1c 1b3d 2e0c 7d3d e83e ba3e
00000060: 36f0 2ebf a822 f1bd 028f 1cbf ea6a 27bf
00000070: e3c5 5dbf 1046 013d 67d4 ac3e cc6d 23bf
00000080: 558e 7e3f 439a 313f a6a2 09bd fdce 75be
00000090: 5a0d aabd 102e ba3d d7f8 52bf 01ff 833f
000000a0: 7a80 2dbf 8acd 4dbf 22bf 6cbe cf2f 3b3e
000000b0: 557c 77be 720e 82be 1758 a43d 0b08 e9bb
000000c0: dff5 3fbc 05cd 023e 65b7 dc3e b309 8ebd
000000d0: 5332 2ebd 87f0 5b3e 36c4 e0ba a3d7 813d
000000e0: fb30 153e f4c8 8abe b0eb 9cbf 55f0 36bf
000000f0: e9e9 aa3e fa52 5fbe 6895 02be a00c e5be
-0.40021843 -0.6644549 -0.9602098 -0.3178066 0.5907685 0.07104752 -0.00829178 0.2488448
-0.048358425 0.1790939 -0.1896155 0.22171088 -0.022979302 -0.3838994 0.65892017 0.5603841
-0.93829846 0.024402795 -0.6354427 -0.36769047 -0.56579643 0.037869193 0.061779194 0.3637612
-0.6833528 -0.11774188 -0.6115571 -0.6539751 -0.86630076 0.031560957 0.337558 -0.6383941
0.9943593 0.6937601 -0.03360238 -0.24004741 -0.08303328 0.09090817 -0.8241095 1.0312196
-0.67774165 -0.8039175 -0.23119786 0.18279956 -0.24168523 -0.25401646 0.08024614 -0.0071115545
-0.011716335 0.12773521 0.4310867 -0.06935444 -0.04252846 0.21478473 -0.0017148319 0.063399576
0.14569466 -0.2710644 -1.2259426 -0.7146047 0.33381584 -0.21808997 -0.12752306 -0.44736195

static_variable_selection.single_variable_grns.encoder_length.fc2.bias f4 [8]
00000000: d3f5 793d 066c 403d 720b 0dbd 33a7 8dbd
00000010: 4eb5 8fbd 7d42 bf3d 9af2 b83d b89d 94bd
0.061025452 0.04697802 -0.034434743 -0.06916656 -0.07017003 0.093388535 0.090306476 -0.07256645

static_variable_selection.single_variable_grns.encoder_length.gate_norm.glu.fc.weight f4 [32, 8]
00000000: 2a6c 87be 6f08 f1bd 3466 0e3d 3eec 14be
00000010: 1167 173c 1168 f5bd 0b44 bbbe 3dc9 343d
00000020: ec16 af3e 374d 923e cebd a63c 99f8 503d
00000030: 2708 0b3d eb9a 99be 0f16 35bc 3950 b43e
00000040: 245c de3d 28f0 f8bd 360f c8be 88ca babe
00000050: e23f d93e 1718 1fbd 03ec ee3e d080 063e
00000060: 9b51 983d 3406 7c3e 1b8c a23e d22b 0e3e
00000070: 1e97 d6bd 62f2 e7bd 3103 4f3e cb76 d9bd
00000080: 29ea 4a3e f5dd b8bd a9fc 8f3e 2c22 afbd
00000090: db0e da3e 72f7 913e ce45 3fbe f31e cb3d
000000a0: 1652 98be ee6d 80be 6686 b43e cbe8 97bd
000000b0: 5af6 62be fd37 1ebd b7d0 693d c8a1 a83e
000000c0: 84d8 e83e c666 27bb 6807 8fbd 2580 ddbe
000000d0: e1d8 7dbd 1453 aa3e ce70 ef3e 682a a8be
000000e0: f6d6 b5bd 048e 4fbe 98ea 20be 5f79 d83d
000000f0: 7926 16be 8fee fbbd 7f32 acbd c1fc 21be
00000100: c103 f43c f6cd a13d 9d3d 85be 6624 cdbc
00000110: 14ae ed3d a5a5 6dbe 02d2 f4bd 975c 1e3e
00000120: b85b 753e 2270 083e 076a 44be d8d0 38be
00000130: 18ed 4dbe 6f39 4d3e a895 29bd 9313 0fbd
00000140: ab23 ac3d f7f3 693d 51ee 6b3e b10b ad3e
00000150: ba7d 9a3d f0ca be3d b463 7bbe 3c49 863e
00000160: 797e bf3e 8e8e 063d c7d9 733e 387c c53d
00000170: c088 93be 1109 91be 348b 72be a6fa 61be
00000180: 8702 6bbe 65e3 5e3e c47f 343e e48a 9b3e
00000190: 77af be3e abc2 81be e7ce 883e e5e9 d13d
000001a0: 0d4b 98be 5845 28be 916f 77be 953f 9cbe
000001b0: 243a b73e 1be8 843d 1ae9 c5be 509a a13e
000001c0: 554b 64be e25f ac3e 9b30 86bd 2d10 d53e
000001d0: 856b 0dbd 1624 be3e bd85 98be a06e 813d
000001e0: eac9 763e d47a babe 1257 173d 0bdf 77be
000001f0: eb82 fabc c989 b13e 3d5d c4be 0829 5bbe
00000200: 90fa 863e 0aae 393d ae00 773e 66e6 16be
00000210: b88e d2bd 83b2 b6be 339b 9ebe 7eb4 b53d
00000220: fe06 353e 54fa cf3c 6081 103e 8c0f 813e
00000230: 4ef8 6cbe da73 b43e 9823 44be c77d 1e3e
00000240: 95d8 96be 7ff1 a2be d3e3 e0be c3f8 923e
00000250: 723f 15be 9b7c 483d 23eb cc3e 690e 24be
00000260: 7458 b63e ca00 693e b3f5 b6be 6eb1 633e
00000270: 3460 59be eeaf b5bd 8a22 e23e 63e9 0bbe
00000280: 64cd 68be 9bf6 6cbe fd5d a53e d165 283b
00000290: 769a 303d 210a ff3d c2c4 79bd f7fe 24be
000002a0: b52a 9e3d 2118 aa3e a363 bbbe 7672 50be
000002b0: 6e83 8c3e f6c6 88be b882 a0be 2d02 353e
000002c0: 146a a8bd e8f8 fabd 3a0b 68be 4c62 8fbe
000002d0: bf1b 78be 0daa 6d3e 1a28 6bbe bbf2 b43e
000002e0: b36d 1abe a379 723d 84d5 39be 375b 543e
000002f0: 7865 5c3d a960 b33e d69b a8bc 89d5 c83e
00000300: 8e6f 40be 1d37 623e cd11 ab3d 05be 9fbe
00000310: b2ed cf3d 07c7 0abd 00ce dbbc 9c31 dcbd
00000320: 8af2 5ebe 0aba 56be 7ccf 8abe 2ef5 72be
00000330: d86a 2dbe d345 d4bd f2f5 68be fa27 8a3e
00000340: e54e 773e c10e 7bbd 1ffb 46be 520f ed3c
00000350: e798 853e c759 cebe dd68 bebd e3ed 4e3e
00000360: a3f6 9a3e e4dc 903d 2cdf f83a 3482 633e
00000370: 9b86 103e 81aa bb3b 3592 b6be 03fd 91bd
00000380: 4a18 91be faa0 193e ae94 9a3d dc99 5bbe
00000390: d55d b2be b6a7 783e 4974 bebe 1a10 4fbe
000003a0: 0f5f a2be 0a55 433e 8ba5 a4be 02e2 223e
000003b0: 8d90 98be fe46 463e 57e3 863e 2ea5 3dbd
000003c0: 4521 15be da0d 24bd 44fa 54be 90a0 28be
000003d0: e81e 2fbe 4b0a d1be 02d2 c03e a3bf 32bc
000003e0: acf2 f53b 8930 9e3e 67e0 b5be d5bd 773d
000003f0: a680 c8be 2456 3b3e 2e2d 963e 8e03 b03e
-0.2644971 -0.11769187 0.034765437 -0.14543244 0.009240882 -0.1198274 -0.3657535 0.04413723
0.34197176 0.28574535 0.020354178 0.05101833 0.03394332 -0.30001006 -0.011052622 0.35217455
0.10857418 -0.12155181 -0.39074105 -0.36482644 0.4243155 -0.038841333 0.46664438 0.13135076
0.0743744 0.24611741 0.31747517 0.13883904 -0.10478042 -0.11325528 0.20216061 -0.10618361
0.19815888 -0.0902671 0.28122452 -0.0855144 0.4258946 0.28509098 -0.18678972 0.099180125
-0.29750127 -0.2508387 0.35258788 -0.074174486 -0.22164288 -0.038627613 0.05708381 0.3293593
0.45477688 -0.0025543435 -0.069838345 -0.4326183 -0.06197441 0.3326651 0.4676575 -0.32844853
-0.08878891 -0.20269018 -0.1571449 0.10570025 -0.14663114 -0.12301361 -0.08408069 -0.15819074
0.029786946 0.07900612 -0.2602357 -0.02504177 0.116054684 -0.2320772 -0.11954118 0.15465008
0.23960769 0.13324025 -0.19181071 -0.18048418 -0.20109975 0.2004144 -0.04140249 -0.034930777
0.084052406 0.05711743 0.23040129 0.33797982 0.07543512 0.09316051 -0.24549752 0.26227748
0.37401178 0.032850794 0.23813544 0.096428335 -0.2881527 -0.2832723 -0.23685914 -0.22068271
-0.22950183 0.21766432 0.17626864 0.30379403 0.37243244 -0.25343832 0.26720354 0.1024969
-0.2974476 -0.16432703 -0.24163653 -0.3051726 0.35786545 0.06489583 -0.38654405 0.31563044
-0.22294362 0.33666903 -0.065522395 0.41613904 -0.034526367 0.37136906 -0.29789534 0.06319928
0.24100462 -0.36421835 0.03694827 -0.24206178 -0.030580005 0.34675434 -0.38352385 -0.21402371
0.2636304 0.045331992 0.24121353 -0.14736328 -0.10281128 -0.3568307 -0.30977783 0.08872317
0.17678449 0.02538792 0.14111853 0.25207174 -0.23141596 0.35244638 -0.19154203 0.15477668
-0.29462114 -0.31824872 -0.43923816 0.28705415 -0.14574984 0.048946958 0.40023145 -0.16021122
0.3561436 0.22754207 -0.3573433 0.22235653 -0.21228105 -0.088714465 0.44166976 -0.13663249
-0.227346 -0.23140948 0.3229827 0.0025695453 0.043116055 0.12453104 -0.06097866 -0.16112886
0.077229895 0.33221534 -0.36599454 -0.20356163 0.27444023 -0.26714295 -0.3134973 0.17676611
-0.08223358 -0.12254506 -0.22660533 -0.28004682 -0.24229334 0.232094 -0.22964516 0.3534144
-0.1508091 0.059198033 -0.18147856 0.2073792 0.053807706 0.35034683 -0.02058212 0.39225414
-0.18792555 0.22091337 0.083530046 -0.3119966 0.10152759 -0.033881214 -0.026831627 -0.1075165
-0.21772209 -0.20969406 -0.27111423 -0.23726341 -0.16935289 -0.103648804 -0.2275007 0.26983625
0.2415119 -0.061293367 -0.19431733 0.02893797 0.26093218 -0.4030287 -0.09297345 0.20207934
0.30266294 0.070733815 0.0018987409 0.22217637 0.14113848 0.0057271128 -0.35658422 -0.07128336
-0.28338844 0.15002814 0.0754789 -0.21445411 -0.34837213 0.24282727 -0.37198094 -0.20220986
-0.3171315 0.19075409 -0.3215755 0.15906528 -0.29797783 0.19363019 0.26345322 -0.046300106
-0.14563473 -0.040052272 -0.20798594 -0.164675 -0.17101634 -0.40828165 0.37660223 -0.010909948
0.0075057354 0.30896404 -0.35522768 0.060483772 -0.3916065 0.18294579 0.29331344 0.34377712

static_variable_selection.single_variable_grns.encoder_length.gate_norm.glu.fc.bias f4 [32]
00000000: 13d7 e6bc 6bb0 08bd a860 c73d eb4e c6bd
00000010: bc0c c43d 75ed 623b ad3b c03d fbf7 febc
00000020: 657a 98bd 9a2a d13d 1988 b8bc 8740 e13c
00000030: 690b abbb d07d acbc 6e0b c7bd 9ea9 6dbc
00000040: 2a2e e0bc 2ae9 283c 3721 9b3d c67f 5a3d
00000050: 98a9 7cbd b451 0ebb d3e7 2c3d 7f90 eabc
00000060: 2809 6fbd 310a 51bd 647f ddbb 427f f1bc
00000070: f550 24bc c455 9cbc e594 a03d 2716 adbc
-0.028178727 -0.03337137 0.097352326 -0.09683021 0.095727414 0.0034626399 0.09386382 -0.031124106
-0.0744522 0.10213204 -0.022525834 0.02749659 -0.005219866 -0.021056086 -0.09718977 -0.014505772
-0.027365763 0.010309497 0.075746946 0.05334451 -0.061685175 -0.002171618 0.042213272 -0.028633354
-0.05835834 -0.05103511 -0.006759571 -0.029479627 -0.010029067 -0.019083865 0.078408994 -0.021128727

static_variable_selection.single_variable_grns.encoder_length.gate_norm.add_norm.norm.weight f4 [16]
00000000: dc98 803f 3ec6 843f 9633 613f 090d 903f
00000010: d871 683f 14ff 823f 4c22 8d3f 0e24 783f
00000020: 0604 6e3f 976a 713f e816 703f 37f6 833f
00000030: d251 7a3f 302d 793f b47d 803f ec1d 7d3f
1.0046649 1.0372999 0.8796934 1.1253978 0.9079871 1.0234094 1.1026092 0.96930015
0.9297489 0.9430327 0.9378495 1.0309514 0.977811 0.97334576 1.0038362 0.9887378

static_variable_selection.single_variable_grns.encoder_length.gate_norm.add_norm.norm.bias f4 [16]
00000000: 04b9 b1bc 7d80 0dbd 394a 033e 215c e7bd
00000010: 147e eb3d 3c87 d13c 1ccd d33d 92a5 f6bc
00000020: f360 a0bd b05f d73d 8c98 51bc f89f f03c
00000030: 87b7 2bbc 67be 0cbd c365 d7bd 25e5 c4bb
-0.021694668 -0.034546364 0.12821282 -0.11296869 0.11498657 0.02557718 0.10341856 -0.030108247
-0.078309916 0.10516298 -0.012792718 0.029373154 -0.010480768 -0.03436127 -0.105174564 -0.0060087615

static_variable_selection.prescalers.encoder_length.weight f4 [8, 1]
00000000: 0024 1a3c 5045 29be 8cbe b7be 3c71 8d3e
00000010: c0fc b93d 52e0 693f 36fe 553f b6cc 1a3f
0.009407997 -0.16530347 -0.35887563 0.27625453 0.09081411 0.9135791 0.8359102 0.60468614

static_variable_selection.prescalers.encoder_length.bias f4 [8]
00000000: 4326 60bf a35d 03bf 3a6e 103f 686c fc3e
00000010: 1fd7 c43e 7d58 e63e b810 423d 86e7 253f
-0.8755838 -0.51314753 0.5641819 0.49301457 0.38445374 0.44989386 0.047379225 0.648064

encoder_variable_selection.flattened_grn.resample_norm.mask f4 [4]
00000000: 14df 6bbd 2940 aebc 9805 953c d47a 793d
-0.05758579 -0.021270828 0.018191144 0.060908154

encoder_variable_selection.flattened_grn.resample_norm.norm.weight f4 [4]
00000000: ead1 713f 8f4f 843f cc65 883f 2546 8a3f
0.9446093 1.0336779 1.0656066 1.0802656

encoder_variable_selection.flattened_grn.resample_norm.norm.bias f4 [4]
00000000: cf16 a5bd 8197 473d db88 abbd 5d3a b43d
-0.08060991 0.04872847 -0.083757125 0.088001944

encoder_variable_selection.flattened_grn.fc1.weight f4 [4, 35]
00000000: fe99 1abf 430d f0bc 85d9 d53e a90c 06be
00000010: 3f13 a3be 03b4 eebd 5fd4 fb3d 841a 373e
00000020: 4410 8f3e 863d 843e 2b5f 50be 4500 813e
00000030: 26df 93bd 5dcb 8cbd f947 c93e 29a2 0bbf
00000040: 814e 0b3f f557 aebe 7e78 e6bc f911 56bd
00000050: 7e09 cb38 2b01 adbe 4eb7 c93e 3f5a 9abe
00000060: 36dd d9bd eff5 08be b167 d53d 8002 ab3e
00000070: 3564 56be e8c5 083f 9d53 e5bc 831b afbe
00000080: 0cf0 d73d 290c c33d cdd0 813e fefa 583e
00000090: d75c bebd 563a 04bf 6c8d ee3d 3126 cd3e
000000a0: 7210 23be 8ed5 883e 4290 4f3b 120b 033e
000000b0: 6dbb b8bd 032e 3ebe 5e10 5f3e 12ed e0bd
000000c0: 72b3 483e 7290 a03e 30da 91bd e816 80bd
000000d0: cb49 f6be 8321 b43e bec4 0d3d b2a6 143e
000000e0: b16c 9fbe a1ad 843e 3a6d 3ebe cb3c 4f3e
000000f0: 0130 533c 16d4 34be b02c 2ebe e64e be3e
00000100: efe8 8abd 1b5d d03d eeec 1e3e 3c10 fa3c
00000110: 9050 863e 0c7c 943d f260 d7bd 63ea 783c
00000120: 5e4f f63d 3b1e 2bbe b9fd 4bbe 70d4 a2be
00000130: 1587 ef3e 98fd 233c e561 48be af25 9c3d
00000140: 0755 ba3e 2668 c9bd 67e9 04bf e7d3 c5bd
00000150: ba93 d93e ddee 9dbe 916f d2bd 221d a73d
00000160: d0db 8cbb c771 973b bedc 6b3e 67d8 403e
00000170: 1508 3ebb e76f babd 6997 8e3e cb83 4b3e
00000180: 3669 34be 0a88 74be b766 a03e b971 083f
00000190: cbd8 cabc b5a8 3cbe 1d6b 283e cd67 81bd
000001a0: 08f7 81be fa35 8f3d 7d47 76be 9607 183e
000001b0: 9e70 19bf 0056 cebe fa5c 203e 408c 743e
000001c0: acf2 d33e e227 bdbd 1ba8 d1bd eede 4ebd
000001d0: dacd 1e3d 9a33 3cbe 5a86 9bbe d048 0d3e
000001e0: c645 f13d b293 c63e ba11 7ebe 058f ba3e
000001f0: 1009 adbe ab54 bebc 4cd1 c7bd a5c1 133d
00000200: 2bef c6bd 4512 c33d 0ef1 b23e 1fbe 793d
00000210: 29af 383e e804 523e 59bc 87be 5e17 4ebe
00000220: 0a2e 4dbd 1b37 d0bd ba12 83bd a658 413d
-0.60391223 -0.029303199 0.41767517 -0.13090767 -0.3185062 -0.11655428 0.12296366 0.17881209
0.27942097 0.2582819 -0.20348804 0.25195518 -0.072202966 -0.06874726 0.39312723 -0.5454431
0.5441666 -0.3405148 -0.028133627 -0.052263234 9.6815624e-05 -0.33789954 0.39397663 -0.30146977
-0.10637896 -0.13375066 0.10420168 0.33400345 -0.20936663 0.5342698 -0.027993971 -0.34200677
0.10543832 0.09523804 0.25354615 0.21189496 -0.092950515 -0.51651514 0.11648068 0.400682
-0.15924242 0.2672543 0.0031671678 0.12797192 -0.09020124 -0.1857224 0.21783587 -0.109827176
0.19599703 0.31360203 -0.07121694 -0.06254369 -0.48103175 0.35181817 0.034611456 0.14516714
-0.31137612 0.25913718 -0.18596354 0.20238034 0.012889863 -0.1765903 -0.17009234 0.3716957
-0.0678271 0.101740085 0.15520069 0.03052532 0.2623334 0.072502226 -0.10516538 0.015192601
0.12026857 -0.16710751 -0.19921006 -0.31802702 0.46782747 0.010009192 -0.19568594 0.07624375
0.36392996 -0.09834318 -0.51918644 -0.09659558 0.4249552 -0.308463 -0.10275186 0.081598535
-0.0042986646 0.0046217176 0.23033425 0.18832551 -0.0028996516 -0.09103375 0.27849892 0.19874494
-0.1761826 -0.2388002 0.31328365 0.53298527 -0.024761578 -0.18423732 0.1644711 -0.063186266
-0.25383782 0.06992717 -0.24050708 0.14846644 -0.59937465 -0.40299988 0.15660468 0.23881626
0.4139608 -0.09236123 -0.10237142 -0.05050557 0.038770534 -0.1837906 -0.3037594 0.13797307
0.11780886 0.38784558 -0.2481145 0.3643724 -0.33795977 -0.023233732 -0.09756717 0.036073346
-0.097135864 0.09524969 0.34949535 0.06097233 0.18035568 0.20509684 -0.26510885 -0.20126101
-0.050092734 -0.101667605 -0.06400056 0.047203682

encoder_variable_selection.flattened_grn.fc1.bias f4 [4]
00000000: dbc9 37bd 07e0 90bc 03f1 b0bd 4268 3fbb
-0.04487024 -0.01768495 -0.08639719 -0.002920643

encoder_variable_selection.flattened_grn.context.weight f4 [4, 16]
00000000: 0b26 c73e f4ca 963e 16d0 8ebe 9e24 b3be
00000010: 53ed 823e 80f6 3c3d 5b37 ffbe 4b70 093d
00000020: 750b 013f f7c7 913e c531 f7be 8104 093e
00000030: 2610 b53e 5929 08bf a452 6b3c 6d57 513e
00000040: 0fc3 a7be 14e1 8a3e f37c 1b3e 4433 9c3e
00000050: 6b3e 443e c064 bdbd 2509 02bf 01a5 ec3e
00000060: 29b1 083d 0c34 583e c6ec 153d 34ce c33e
00000070: 42fc f8be 00aa dfbe eee6 ccbe 6743 bdbb
00000080: a1c2 cdbe b469 f13e 52a0 00be 5369 003a
00000090: af3e 05bf 4e0b 6dbd a89b be3e 74cd 7b3d
000000a0: a0ce 863e 7077 643e 69e7 383e 2c8e cdbe
000000b0: 0c83 cc3d e08d cf3e 8ab3 813e 21d6 fcbe
000000c0: ff76 993e 5139 e63e 9ee0 07bc cfb2 c53d
000000d0: 94c1 bd3e 7ede 6d3e d09f ddbe 3703 b13e
000000e0: 2bf8 e5bd ea4f 02bf 1fa9 5e3e d83f ccbe
000000f0: 579f 513e 6a37 0ebd a8c4 16bd d027 cd3e
0.38896212 0.29451716 -0.27893132 -0.34988874 0.2557169 0.04613352 -0.4984692 0.033554357
0.5040811 0.28472874 -0.4828016 0.13380624 0.35363883 -0.5318809 0.014362965 0.20443507
-0.32766005 0.27124846 0.15184383 0.30507863 0.19164436 -0.09247732 -0.50795203 0.46219638
0.033372078 0.21113604 0.036602758 0.38243258 -0.48629957 -0.43684387 -0.40019935 -0.0057758573
-0.40187553 0.47150958 -0.12561157 0.0004898507 -0.5204877 -0.05787211 0.3722813 0.061475232
0.26329517 0.22311187 0.18057026 -0.4014753 0.09985933 0.4053793 0.2533229 -0.49382117
0.299736 0.44965604 -0.008293299 0.09653246 0.3706175 0.23229405 -0.4328599 0.34572765
-0.11228975 -0.5090319 0.21744202 -0.3989246 0.2047094 -0.034720816 -0.03680864 0.40069437

encoder_variable_selection.flattened_grn.fc2.weight f4 [4, 4]
00000000: bcce 22bf 41ac 213f b287 08bf e62c a3bf
00000010: fd7b 573e 930e 613f 2c2e f93f 35dd 9a3e
00000020: 1651 1c3e 934b 85be 48b1 0fbf b063 143f
00000030: 2710 8d3e 8533 af3e bcc9 66bf 8c4a 41bf
-0.635967 0.63153464 -0.53332055 -1.2748077 0.21043392 0.87912863 1.9467216 0.30246893
0.15265307 -0.2603422 -0.56129885 0.5796461 0.27551386 0.34218994 -0.9015157 -0.75504375

encoder_variable_selection.flattened_grn.fc2.bias f4 [4]
00000000: aa88 cd3c c5c4 a7bc a374 6e3d b838 33bc
0.02508958 -0.02047957 0.058216702 -0.010938816

encoder_variable_selection.flattened_grn.gate_norm.glu.fc.weight f4 [8, 4]
00000000: 472f f7be b48e 603e 227d 21bf dde6 353e
00000010: 337c bf3e 2bf2 97bd 2cbd 173e 3306 f8be
00000020: 1206 5d3e 1b3e e93e a738 f93e 3d96 99bd
00000030: 8254 af3d a75d dc3e 46b6 2f3f 7d95 7e3e
00000040: cf11 123f 05ed de3e 3e21 cc3e 8b5d 033f
00000050: 96e4 8b3e f22f 363f 1889 babe 2d3c 6bbe
00000060: b8f1 153f fb9f 6bbe f246 c3be b2e5 a73e
00000070: f75b 123f 055a 943d 8638 9fbe 1931 0cbf
-0.48278257 0.21929437 -0.6308156 0.17763849 0.37399444 -0.07419237 0.14818257 -0.4844223
0.21584347 0.45555195 0.48676035 -0.07499359 0.085610405 0.430402 0.686375 0.24861713
0.57058424 0.43540207 0.39869112 0.5131461 0.27322835 0.7116691 -0.3643272 -0.22972174
0.5857196 -0.23010246 -0.38140064 0.3279243 0.5717158 0.07243732 -0.3109781 -0.5476242

encoder_variable_selection.flattened_grn.gate_norm.glu.fc.bias f4 [8]
00000000: 282d 26bd 1d6d 733d 0a35 1abd 04e5 893d
00000010: 41cc c4bc c2d3 16bd 6c48 163c 46fb f9bc
-0.040570408 0.05943023 -0.03764824 0.067331344 -0.024023177 -0.03682304 0.00917254 -0.030515324

encoder_variable_selection.flattened_grn.gate_norm.add_norm.norm.weight f4 [4]
00000000: 4b6c 633f abc6 703f dbdf 863f 0fdf 8a3f
0.88837117 0.94053143 1.0537065 1.0849322

encoder_variable_selection.flattened_grn.gate_norm.add_norm.norm.bias f4 [4]
00000000: 87b6 c0bd 2e7f 5b3d abf8 92bd 56dd c33d
-0.09409814 0.053588085 -0.07176336 0.09563701

encoder_variable_selection.single_variable_grns.TEAM_ID.mask f4 [16]
00000000: f0df cabc 6a80 353c 232a ccbc d628 49bd
00000010: fa5d 123d 0a24 843c 38d3 37bc badd 963b
00000020: 9f8e 323d ff5a 52bc 2177 473d fbcd 643d
00000030: dcde 2dbc 8e31 ddbc c557 0fbc 4686 31bd
-0.024764985 0.01107798 -0.024922436 -0.04911121 0.035734154 0.016130466 -0.011219792 0.0046040686
0.043593045 -0.012839078 0.048697595 0.0558605 -0.010612216 -0.027001169 -0.008748953 -0.043340944

encoder_variable_selection.single_variable_grns.TEAM_ID.norm.weight f4 [16]
00000000: 212b 6e3f e3eb 813f 5955 7b3f 6cc6 6b3f
00000010: d78f 853f fb13 803f cdcd 763f 09ea 7e3f
00000020: 0898 823f dfae 753f 7082 853f ea19 873f
00000030: f49f 703f cc2f 6e3f 6bde 703f f04b 713f
0.9303456 1.0150112 0.98177105 0.9209964 1.0434521 1.0006098 0.9640778 0.9957586
1.0202646 0.9596996 1.0430431 1.0554783 0.9399407 0.9304168 0.9408938 0.94256496

encoder_variable_selection.single_variable_grns.TEAM_ID.norm.bias f4 [16]
00000000: 5da4 46bd 3283 a8bc 27d4 bf3d f82a 4fbc
00000010: 3675 3fbd d4f3 9ebd ec9a ac3d b07f c03d
00000020: 19ac 443d e5eb 903d a664 aabd 3b63 d13b
00000030: b246 503d 19f5 093e 5c99 cb3d b20f 91bc
-0.048496593 -0.020570371 0.09366637 -0.012644522 -0.04674264 -0.0776135 0.084279865 0.093993545
0.048015688 0.07076243 -0.083199784 0.006390003 0.05084867 0.13472404 0.0994136 -0.01770768

encoder_variable_selection.single_variable_grns.time_idx.resample_norm.mask f4 [16]
00000000: 6002 863b 8c67 923c 540b 213c 2c71 d0ba
00000010: 519e 27bc aa93 a33c 52a3 4cbc 3448 8bbc
00000020: 4f5d 313c 41a9 2a3c 1093 0fbd ed5c 9e3c
00000030: 97c6 783b 3f0c 883b f636 383c 7eaf 02bd
0.0040896386 0.01787164 0.009829361 -0.0015902868 -0.010230617 0.019967873 -0.0124901105 -0.017002203
0.010825469 0.01041633 -0.03505236 0.01933142 0.0037960166 0.0041518505 0.011243572 -0.031905644

encoder_variable_selection.single_variable_grns.time_idx.resample_norm.norm.weight f4 [16]
00000000: 54aa 813f b2be 813f c98c 813f b863 7b3f
00000010: aa98 7d3f c0b5 833f 43bc 723f 3a27 763f
00000020: c49d 823f 4960 803f 3b3f 783f 8902 823f
00000030: ed25 803f d247 823f fdf5 803f 588c 753f
1.0130105 1.013632 1.0121089 0.98199034 0.9906107 1.0289841 0.94818515 0.96153605
1.0204396 1.0029384 0.9697148 1.0157024 1.0011574 1.0178168 1.007507 0.9591727

encoder_variable_selection.single_variable_grns.time_idx.resample_norm.norm.bias f4 [16]
00000000: d4e1 7abc ca95 37bd 70df 263d b140 913b
00000010: 72e9 53bd c684 1bbd e1ff 663d b082 1b3d
00000020: 1805 8a3c 00e2 e53b d9e4 3fbd 5546 ad3c
00000030: 6f1d d43b 272d 833d b91b 08bc c823 12bd
-0.015312631 -0.044820584 0.04074043 0.0044327606 -0.051736303 -0.03796842 0.05639637 0.03796643
0.016848132 0.0070154667 -0.046849106 0.021151701 0.0064732353 0.064050965 -0.008307391 -0.035678655

encoder_variable_selection.single_variable_grns.time_idx.fc1.weight f4 [8, 8]
00000000: 19cf 343c 9f6c 083f e41b 793f 399a 2ebf
00000010: 1f07 62be c31e e9be f3b2 7d3d 6638 2bbf
00000020: 6559 9dbe bc41 96bf d421 ac3e 6908 0a3f
00000030: 292b ed3e 9c47 9e3d 5503 473f dc61 4fbf
00000040: fcaa 66bf 6ab4 8e3e 861f 28be 5c56 abbd
00000050: 6689 a33e b73c 54bf 60ca d8be 0904 1a3f
00000060: 1408 f63e 7141 aa3c 143c 7c3e 56fe 04bf
00000070: 11b2 d8be e92d 5abc 5895 b13e 5534 a33e
00000080: 12b3 56bf a408 65bf 421e 873e 5f83 4c3e
00000090: c3e7 8b3e ced9 96be 2577 ec3e 76ac 3fbf
000000a0: f6a9 553e fccf 9e3e 63a3 1d3f 4b2a cabe
000000b0: 7477 413e a8c8 48bf 07a2 013f 5030 e5be
000000c0: b6f0 9f3d a3ab dfbd ef57 fdbe 8995 42bf
000000d0: dbcd 8e3e b21e a03e d872 95be 1cc5 373e
000000e0: a2a1 42be 518c b13d 9c31 11bf b6e7 073f
000000f0: ecff 09bd e6b6 933e cb3f 613f b68f b03e
0.011035704 0.5329074 0.9730818 -0.68204075 -0.22073029 -0.45531282 0.061938237 -0.6688293
-0.30732265 -1.173881 0.3361956 0.5391908 0.4632199 0.07728502 0.7773946 -0.81008697
-0.9010465 0.2787202 -0.16418275 -0.08366081 0.31940764 -0.82905143 -0.423419 0.6016241
0.48053038 0.020783158 0.24632293 -0.51950586 -0.42323354 -0.01331661 0.34684253 0.31875864
-0.8386699 -0.8946631 0.26390272 0.19971989 0.27325258 -0.29463047 0.4618465 -0.7487253
0.20865616 0.31018054 0.61577433 -0.39485392 0.18893224 -0.7843118 0.5063786 -0.44763422
0.07809584 -0.10921409 -0.4948115 -0.7600942 0.2789143 0.3127342 -0.2918918 0.17946285
-0.1900697 0.08669341 -0.5671632 0.5308794 -0.03369133 0.28850478 0.87987965 0.34484643

encoder_variable_selection.single_variable_grns.time_idx.fc1.bias f4 [8]
00000000: 4a56 3cba 703b ccbc 4a7a 023d 91ae adbb
00000010: c156 c7bc 4213 a53a e8d2 043d 2d8b 843c
-0.0007184489 -0.024930686 0.031854905 -0.005300351 -0.02433336 0.001259424 0.0324277 0.016179645

encoder_variable_selection.single_variable_grns.time_idx.fc2.weight f4 [8, 8]
00000000: 608e a9be f55e 42bf 23bf aa3e 8c38 6fbf
00000010: 7ccb 73be 3297 ca3d 472e 16be 4a4b a53c
00000020: 84dd 4a3f f65b 9e3e dee4 51bf df9f d9be
00000030: 572e 363d c0c0 893e a66a 603e bfa3 33bf
00000040: 0e5d 1fbf 6da6 b53e e979 2dbf c8c2 03bf
00000050: f951 b6be d655 bebd 2bad 3cbe 197f b73e
00000060: c02a d4be 0fe9 4a3e e918 dc3e 4bfe 00bd
00000070: dde0 e4bd cf74 85bd 8ee1 243f 9bee 693e
00000080: c874 033f fc81 1dbf e11d 89bb a80b cfbe
00000090: 631b 123f 2f4a 343f 8a35 053e ba3e 9e3e
000000a0: 8966 85be e02b 10bf b8f5 2d3e 7ce6 84be
000000b0: 9e16 05bf f2b3 d9be 639c e33e d6bf 2c3f
000000c0: e70e 613d dcad bc3e bc6b 8cbd 81cc c0be
000000d0: f8f3 43bf f9a5 1b3f 0f0f 33bf 05e9 16bf
000000e0: 61dd 0e3e 6eb1 d2be b011 853e af97 82be
000000f0: 5f0f ddbe 695f be3e 8615 153f 772d 6c3e
-0.33116436 -0.7592614 0.3334895 -0.9344566 -0.23808092 0.098921195 -0.14666091 0.020177502
0.79244256 0.30929536 -0.8198985 -0.42504784 0.044477787 0.2690487 0.21915683 -0.7017173
-0.62251365 0.35478535 -0.67764145 -0.5146909 -0.35609415 -0.09293716 -0.18425433 0.35839155
-0.41438866 0.19815467 0.42987755 -0.031492513 -0.11175702 -0.0651642 0.6440667 0.22844927
0.5135007 -0.61526465 -0.00418447 -0.4043858 0.5707304 0.70425695 0.13008705 0.30907232
-0.2605479 -0.5631695 0.16988266 -0.25957096 -0.51987636 -0.425201 0.4445525 0.6748022
0.054945853 0.36851394 -0.06856486 -0.37656024 -0.7654414 0.6080013 -0.6994485 -0.5894931
0.13951637 -0.41150993 0.25990057 -0.2550635 -0.4317579 0.37182167 0.5823597 0.23064218

encoder_variable_selection.single_variable_grns.time_idx.fc2.bias f4 [8]
00000000: cef1 71bb 4f23 58bb 55eb 5ebc 98d4 893c
00000010: 6566 c23b 9cb8 ed3c 6d3a aabb 972b d83c
-0.0036917808 -0.003298003 -0.013605912 0.016825005 0.0059326165 0.029018693 -0.005194953 0.026387973

encoder_variable_selection.single_variable_grns.time_idx.gate_norm.glu.fc.weight f4 [32, 8]
00000000: 3327 443c 33ca c13e 43dd 0c3e f50f 063e
00000010: b003 45be a672 1e3e 4df9 45be 729d bf3e
00000020: ffe4 21be 8dd2 52be 5c57 dcbd fea8 2bbe
00000030: 8873 473d f7de b43d f2b4 1b3d 5850 d1be
00000040: c7b6 103e 9222 1cbd 2acd 9fbe 21d8 523e
00000050: af18 a2ba 5c93 b33e d87b b0be 0cfd d43e
00000060: d060 dfbd c864 7abd 9fc3 d8bd 2738 c83e
00000070: 1db3 6fbe 7229 47be 7a19 df3d d3e4 983e
00000080: 28c7 a33e 7a32 853e 1451 493e 2ced 12bd
00000090: 4e15 c3be b17b 2ebe 8607 2cbe 0d52 3cbe
000000a0: 878e 42be 2117 9a3d 71cc b93e a4fa ba3d
000000b0: a79b 283e c1dd 72be 99be 813e 3936 63bd
000000c0: f602 a1be 9b9a abbc fb52 b2bc 68f7 89be
000000d0: 7295 91be 276b 7dbe c96d 893e c7bc 5abe
000000e0: dcda 963e 1f8b c63e 3877 4ebe d481 7e3e
000000f0: a89d 0b3e 4f9a 91be 7606 00be b272 54bd
00000100: f4e2 543e 60dd a73e 6835 9c3e 1b6e 193e
00000110: 9f0f c1bd d5a1 513d 7f91 2c3e d339 bdbe
00000120: a25d 983d ae9e b43e 2b18 f6bd b724 a0be
00000130: cc2d 933d e92d f93d 2394 6fbc 2a01 0a3e
00000140: 068d 1f3e 71bc 78be 2cc6 5cbe 094b 62be
00000150: 3467 f6bd 11a5 a7be 8abe c7bd 6d83 5cbd
00000160: d779 093e aa0e afbe a59b 793e a473 a73e
00000170: 22c0 18bd ed6b ebbd 032a 3ebe 5660 a63e
00000180: 4afb c6bc d7d0 be3e e963 84be a61c 893e
00000190: a289 21bd fd38 07bd 390e 07be 72bf 55be
000001a0: a2fe a9bd 9d88 663d a57d eabd c6e5 e4bb
000001b0: ca8a 943e 9c10 843e 68fe c5be 2290 903e
000001c0: ea47 7dbe 8bff e5bd fc3f cdbd cbcc 463e
000001d0: 6c53 8cbe 317e 8f3e 400b 8abe f319 1c3e
000001e0: 5e90 cf3e b8bf 8c3e 62e9 143d 9785 333e
000001f0: f82b 003e 02af babe 4f27 3a3d 709c babd
00000200: 6931 b43d c357 0abe e952 8abe e44b b13e
00000210: b367 8abe 2570 06bc f5f2 89be 1ee5 bd3e
00000220: 9afd bb3e 616e 523d 3b2d 5abe 6445 8d3e
00000230: 8cac 283e c893 933e 06dd 403e 0ca2 923e
00000240: 7775 a73e 83fb 2ebe 268f 93be c892 683e
00000250: dc54 be3e 1ab8 31bd 2714 09bd d1c7 f83d
00000260: d3df 8cbe a4d0 9b3e a0d6 a53e 921c 60be
00000270: df14 953e a8e2 4e3d fc32 89be 55ce c43e
00000280: 09b0 88be aa23 14be 828f a03e 2901 b53e
00000290: 47dc af3e 185b b03e db55 01be e0bb 953e
000002a0: a117 8bbe e391 91be 4c5f 943d f457 89bb
000002b0: 2913 76bd 9347 8cbe 97bd 1c3e 8cd6 46be
000002c0: 37b8 a93d e45b 663e 702d c3be ee3d d33d
000002d0: 96e3 1f3e 661e 2b3e 7058 1ebe 5811 ba3c
000002e0: 254c ad3e 25ea f33d 8675 77be 1435 423d
000002f0: ae21 ca3e 43bd 9b3d 5b9c d83d 38f8 17be
00000300: ea1c 8abe e3a4 d5bc 58a8 2f3e cd13 4f3e
00000310: d263 27be 19de 9cbe 0e03 4cbe c899 da3d
00000320: 1ca5 bebe c19f cbbd d7a0 6d3c 318d 473e
00000330: 3c69 173e 41f6 b2be a1f8 32be c392 51be
00000340: 4721 62be b057 82be 0422 0ebe 0c5d 90be
00000350: d8cb 213d a99e 353e fb13 863e 7279 aa3e
00000360: 41a5 ba3d 9038 ac3e 37fc e03c d2cd 8b3e
00000370: 941f a9be f6d8 6abd 2312 aabe 7cee 83be
00000380: 7b49 e03d 8dbd 5fbe a077 88be 6186 8fbe
00000390: b600 45bd 91ee 373e a97e a53e 8a80 1e3d
000003a0: 1c19 f33d 8603 dfbd f63f babd 22b9 9d3e
000003b0: 5784 a7be 7c0f 8bbe ee9a 9c3e f21d 263e
000003c0: e497 a43e a16f 7fbe 62c9 d6bd e8ad c43c
000003d0: 1dfb 833e 5e69 0d3e 9594 ae3e 7147 983e
000003e0: 8628 a33d a3c8 c8be f415 b23e a2bd 72bd
000003f0: 9598 84be 2993 973e be8d afbe 58f8 df3d
0.011972236 0.37849578 0.1375628 0.13092025 -0.19239688 0.15473422 -0.19333382 0.3742481
-0.15810011 -0.20588131 -0.1075885 -0.16763684 0.048694164 0.0883159 0.03801436 -0.4088161
0.14132224 -0.038118906 -0.31211215 0.20590259 -0.0012366975 0.35073364 -0.34469485 0.4159931
-0.109071374 -0.06113127 -0.10584187 0.3910534 -0.2340817 -0.19449404 0.10893531 0.2986208
0.31987882 0.26015073 0.19659835 -0.035870716 -0.38102192 -0.17039372 -0.16799745 -0.18390675
-0.18999682 0.07523943 0.3628879 0.09129837 0.16465627 -0.23717405 0.25340727 -0.055471633
-0.31447572 -0.020947745 -0.021768084 -0.26946568 -0.2843433 -0.24747907 0.26841572 -0.21361075
0.2946385 0.38778016 -0.20162666 0.24854213 0.1363436 -0.2843804 -0.12502465 -0.051867194
0.20789701 0.32786083 0.30509496 0.14983408 -0.094268076 0.051179726 0.16852377 -0.3695818
0.07439734 0.35277313 -0.120163284 -0.3127801 0.071864694 0.1216696 -0.014622721 0.13477007
0.1558114 -0.24290635 -0.21559972 -0.22098936 -0.12031403 -0.32743123 -0.09753139 -0.053836275
0.13425384 -0.34190875 0.2437578 0.32705414 -0.037292607 -0.114951946 -0.18570714 0.32495373
-0.024289746 0.37268707 -0.25857475 0.2677967 -0.039437898 -0.033013333 -0.1318902 -0.20873812
-0.083005205 0.05628263 -0.11449746 -0.006985399 0.29012138 0.25793922 -0.3867066 0.28234965
-0.24734464 -0.112303816 -0.1002197 0.1941406 -0.27407396 0.28025964 -0.26961708 0.15244274
0.4053983 0.2749002 0.036355384 0.17531429 0.12516773 -0.36461645 0.045447644 -0.09111869
0.08798487 -0.13510041 -0.2701638 0.34628212 -0.2703224 -0.008205448 -0.26943174 0.37088865
0.3671692 0.051374797 -0.21306317 0.27592003 0.16472071 0.28823686 0.18834314 0.28639257
0.32706806 -0.17088132 -0.2882015 0.22712243 0.37174118 -0.043388464 -0.033466484 0.12147487
-0.27514514 0.30432618 0.32390308 -0.21885899 0.29117486 0.050509125 -0.2679671 0.3843867
-0.26696804 -0.1446673 0.31359488 0.35352448 0.34347746 0.344445 -0.12630408 0.292449
-0.27166465 -0.28431615 0.07244739 -0.004191393 -0.060076866 -0.27398357 0.15306698 -0.1941778
0.08287089 0.22495991 -0.38120604 0.103145465 0.15614161 0.16710815 -0.15463424 0.022713348
0.33847156 0.11909894 -0.24165925 0.0474139 0.3947882 0.07604458 0.105766974 -0.14840782
-0.26975185 -0.0260796 0.17154062 0.20222397 -0.16346672 -0.30638197 -0.1992304 0.10673863
-0.37235343 -0.0994258 0.014503679 0.19487454 0.14786237 -0.34953502 -0.17477657 -0.20466141
-0.22083007 -0.25457525 -0.13880163 -0.2819599 0.03950104 0.17736305 0.2618712 0.3329578
0.09113551 0.33636904 0.027464015 0.27305466 -0.33031905 -0.057335816 -0.33216962 -0.25767887
0.10951515 -0.21849652 -0.26653767 -0.2803221 -0.04809638 0.179621 0.32323197 0.038696803
0.118700236 -0.10889344 -0.09094231 0.30805308 -0.32718155 -0.2716025 0.30586952 0.1622236
0.32147133 -0.24944927 -0.104876295 0.024008706 0.25777522 0.13809726 0.34097734 0.29742005
0.079667136 -0.39215574 0.34782374 -0.05926288 -0.2589766 0.29604462 -0.34287828 0.1093604

encoder_variable_selection.single_variable_grns.time_idx.gate_norm.glu.fc.bias f4 [32]
00000000: bc1b 45bc fcbe 21bd 72d2 0c3d 97b4 7e3b
00000010: 002f 14bd 8211 bebc eea7 073d ff49 cd3c
00000020: 80c6 273c 9305 973b b874 ebbc 9e64 803c
00000030: 8b3b 4c3b f065 1c3d 812b 0abc d04b f3bc
00000040: e445 81bb 540c 31bb dd34 fa3b ff23 a4ba
00000050: de79 533c 1354 183b 71b0 35bc 03b0 ad38
00000060: f519 ebbb 8ea1 4abb 2d2b 3a3b 2f59 c33b
00000070: d0ba 583a 49de 7e3c 8797 273b fa79 4c3b
-0.012030538 -0.039488778 0.034380384 0.0038864964 -0.036177635 -0.023201708 0.033119135 0.025059698
0.010240197 0.004608819 -0.02874218 0.015672978 0.003116342 0.038183153 -0.008433224 -0.029699236
-0.003945099 -0.0027015405 0.0076356963 -0.0012522935 0.012907473 0.0023243472 -0.01108943 8.2820676e-05
-0.007174725 -0.0030919048 0.0028407082 0.0059615592 0.00082675833 0.015555927 0.0025572495 0.0031200633

encoder_variable_selection.single_variable_grns.time_idx.gate_norm.add_norm.norm.weight f4 [16]
00000000: ff34 803f 0165 813f f401 863f 4205 7d3f
00000010: 2dba 813f d002 833f a1b8 713f bfea 753f
00000020: 00fb 813f c518 833f 64e6 7b3f d39a 843f
00000030: 58f3 813f 83b6 863f bce3 843f 8f8d 7b3f
1.0016173 1.0108949 1.0469346 0.9883615 1.0134941 1.0235233 0.94422346 0.9606132
1.0154724 1.0241934 0.98398423 1.0359749 1.0152388 1.0524448 1.0381999 0.98262876

encoder_variable_selection.single_variable_grns.time_idx.gate_norm.add_norm.norm.bias f4 [16]
00000000: 8f6e 12bc 722b 21bd 2678 5a3d 1d05 6e3c
00000010: 06aa 36bd 12c2 f6bc 86ed 743d 73c6 3e3d
00000020: bf67 e83c cabe c33c 1d99 f2bc 53eb 073d
00000030: 5d41 b83c e450 a93d ebed 2c3c 3bbf b3bc
-0.008937492 -0.039348073 0.05333724 0.014527586 -0.04459574 -0.030121837 0.059796833 0.046575975
0.028369782 0.023894686 -0.029614026 0.033183407 0.022492105 0.08267382 0.010554771 -0.021941772

encoder_variable_selection.single_variable_grns.relative_time_idx.resample_norm.mask f4 [16]
00000000: 4d55 0f3c aeeb 893b 8f08 553c e50a 9a3b
00000010: 3295 12bb c7a9 ac3b a1df fab9 5ace 04bc
00000020: 765c 8abc dd0b a1bb 2334 ee3c 1f54 4bbb
00000030: c05a 5abb a4ef 92bc 9dcd 87ba 5df0 b9bb
0.008748365 0.0042090034 0.013002529 0.0047010058 -0.002236676 0.0052692625 -0.00047850332 -0.008105839
-0.016889792 -0.0049147443 0.029077595 -0.0031025482 -0.0033318251 -0.017936535 -0.001036096 -0.0056744055

encoder_variable_selection.single_variable_grns.relative_time_idx.resample_norm.norm.weight f4 [16]
00000000: a69f 7f3f 7061 7f3f b890 843f d33d 813f
00000010: bc34 7b3f 7ef2 7d3f abf8 803f ed8c 7d3f
00000020: 2eae 7a3f 3b2b 7e3f 9342 843f 5328 7e3f
00000030: 0804 7f3f fe09 7c3f 578a 803f 9e61 7b3f
0.9985298 0.9975805 1.0356665 1.0096992 0.9812734 0.9919814 1.0075887 0.9904316
0.9792203 0.99284714 1.0332817 0.9928028 0.99615526 0.98452747 1.0042218 0.98195827

encoder_variable_selection.single_variable_grns.relative_time_idx.resample_norm.norm.bias f4 [16]
00000000: 7d24 b8bc 6348 62bc 2948 de3c 3344 e43b
00000010: 980d b3bc acab b1bc 23ee 203c 4787 303c
00000020: 4785 903c d1c2 a83b cb3e 07bd e20e 2b3a
00000030: 7ee5 9c3b 8a05 033d b14a e23b bc87 34bc
-0.022478336 -0.013811204 0.027134018 0.006966138 -0.021857068 -0.021688305 0.009822401 0.01077444
0.017641677 0.005150177 -0.03301887 0.000652535 0.0047881 0.031987704 0.0069058766 -0.01101869

encoder_variable_selection.single_variable_grns.relative_time_idx.fc1.weight f4 [8, 8]
00000000: 41f9 133f 9d8a 5dbf 14e1 7cbf 15d2 c0be
00000010: 31bc 8f3e 5a95 8cbc d27c c7be 9d7f 1d3f
00000020: 6b02 b2be 8e79 97bf bc41 f03e 3220 313f
00000030: 0f5c 7d3d cae3 8ebf d8f2 61be 576c 233e
00000040: a43e d63c 560a 89bd 73f5 74bf bcea 033f
00000050: 9dad efbc 6955 cfbe 810c ba3e b550 17bd
00000060: f256 5cbf b2dd 8dbe c414 0e3f 8fa3 84be
00000070: db0f 033f 0e8a 01be 1ad8 24bf b78f c5be
00000080: 3588 13bf 1cad 7dbe 8351 173e 07c4 67bd
00000090: 5d70 39bf f4fa 04be f091 34be 21b2 02bf
000000a0: 54d6 c23e 36c2 543f 1ec2 083f 5312 a63d
000000b0: dcf1 123e 25b1 3f3e 27c8 d33d 357f 9b3e
000000c0: 7700 b53e 138e 053f 4bdc c4be a9e9 b73d
000000d0: aeff 2cbf 7de0 45be d0b4 04bf a358 75be
000000e0: 294a 653f 0aed 6d3e 1a7a 473e d716 01bf
000000f0: fcc0 4ebd 4b7d 9abf a7f6 b33d 45ba 30be
0.57802206 -0.8653963 -0.9878094 -0.3766028 0.28073266 -0.01716106 -0.38962418 0.6152285
-0.3476747 -1.183397 0.4692515 0.6918975 0.061855372 -1.1163266 -0.22065294 0.15959297
0.026152916 -0.066914245 -0.95687026 0.5153005 -0.02925759 -0.4049485 0.36337665 -0.036942203
-0.8607017 -0.27708203 0.55500436 -0.25906035 0.5119607 -0.1265032 -0.64392245 -0.38586208
-0.5762971 -0.24773067 0.14777188 -0.05658343 -0.7243708 -0.12986356 -0.17633796 -0.51053053
0.38054144 0.8310884 0.534212 0.08108964 0.14350075 0.18719919 0.103409104 0.3037049
0.35351917 0.52169913 -0.3844932 0.08980114 -0.67577636 -0.19323917 -0.518384 -0.23959593
0.89566284 0.23234954 0.19480172 -0.50425476 -0.050477013 -1.2069486 0.087872796 -0.17258556

encoder_variable_selection.single_variable_grns.relative_time_idx.fc1.bias f4 [8]
00000000: 2ec9 e73a 8d1f 293c 5288 62bb 493e 9abb
00000010: 375c 463a 8660 5dbc 69d2 6aba 6d1c 22bc
0.0017683858 0.010322464 -0.0034566117 -0.004707132 0.00075668417 -0.0135117825 -0.0008957745 -0.009894473

encoder_variable_selection.single_variable_grns.relative_time_idx.fc2.weight f4 [8, 8]
00000000: d7a3 c1be 887a e63d ebec 92be 8808 1dbd
00000010: b3ed 24be 2326 f03d b0be d3be 8f45 ec3e
00000020: e916 1abf 9b95 b6be 4c3e 6bbe ab7c 983f
00000030: d473 2bbe 6623 163f 767c ba3e 55de a33e
00000040: 01c1 8abe 3a51 0a3f 15e8 bcbe 7053 aabe
00000050: 93b3 36be 0ba9 d0be e14f 733e 5f2d c43e
00000060: 2dea cabd 02c9 98be 1d5d a2be 9521 e4be
00000070: 2c8c e43e b4f7 763d 66bf 02be f598 a3be
00000080: 4eb8 7dbe 5e89 aa3e b0fb 6dbf e200 32be
00000090: 6448 72bd 9f94 513e a7bc 09bf 9f6a 17bc
000000a0: 75ed bcbe 3b29 bb3e ca59 e6be bab2 bd3e
000000b0: 056a 08bd dee8 053e 6eb9 653e 0c25 5ebf
000000c0: 9cec 133f 5b10 fdbe 912a f23d 5441 733e
000000d0: cbf7 54bf 3f83 01bf ce70 3d3e 92c2 e73e
000000e0: e1ca b8be 7681 883f 2b30 1d3e 7d30 973f
000000f0: c8a8 2d3f 8a9c 5cbf 3583 6bbd dee0 20bf
-0.37820312 0.1125384 -0.2869638 -0.038338214 -0.161063 0.11726024 -0.4135642 0.4614682
-0.6019121 -0.35661015 -0.22972983 1.1913046 -0.16743404 0.58647764 0.3642308 0.32005563
-0.27100375 0.5403019 -0.36895815 -0.33266783 -0.1784194 -0.4075397 0.2376094 0.38315865
-0.09907947 -0.29840857 -0.31711665 -0.4455687 0.44638193 0.06029482 -0.12768325 -0.31952634
-0.24777338 0.33307928 -0.9296217 -0.1738315 -0.05915107 0.2046685 -0.53803486 -0.009241729
-0.36899915 0.36554894 -0.4499038 0.3705042 -0.033304233 0.13077113 0.22434017 -0.8677528
0.5778291 -0.4942654 0.11824525 0.2375539 -0.831906 -0.5059089 0.18500063 0.45265633
-0.36092284 1.0664508 0.15350406 1.1811672 0.67835665 -0.8617636 -0.057498176 -0.6284312

encoder_variable_selection.single_variable_grns.relative_time_idx.fc2.bias f4 [8]
00000000: ad71 f3ba 7c89 05bc 4f36 0e3c 7944 ae3b
00000010: 5717 963b b78d 213c a1f8 9a3b a333 983b
-0.0018573307 -0.008150455 0.00867994 0.005318221 0.004580419 0.009860448 0.004729346 0.0046448275
