ml/lightning_logs/lightning_logs/version_1/checkpoints/epoch=1-step=100.ckpt (torch, 561396 bytes, 820 tensors)

input_embeddings.embeddings.TEAM_ID.weight f4 [30, 11]
0	0x3ea6709c	0.3250779
1	0xbf497944	-0.7870066
2	0xbe08fae2	-0.13376954
3	0x3fb87242	1.4409869
4	0x3f1f4f41	0.62230307
5	0x3f64003f	0.89062876
6	0x3fadfd09	1.3592845
7	0xbf9afa59	-1.210765
8	0x3f835d84	1.0262914
9	0xbfe209d3	-1.7659248
10	0x3ee33feb	0.44384703
11	0xbf933366	-1.150006
12	0x3e6a9581	0.22908594
13	0x3fa434ba	1.2828591
14	0x3f3e1b98	0.74260855
15	0xbfbb9743	-1.4655536
16	0x3b9d8e38	0.0048082136
17	0x3fe74587	1.8068093
18	0x3f46e0a3	0.7768652
19	0x3f216a80	0.6305313
20	0xbf85d3b8	-1.0455236
21	0xbdfbece8	-0.12301046
22	0x3e741fca	0.23840252
23	0xbf842866	-1.0324829
24	0xbf8c29bf	-1.095024
25	0x3d7023e9	0.058627997
26	0x3dd57537	0.104227476
27	0xbee1a035	-0.4406754
28	0xbe915525	-0.28385273
29	0x3f7a2810	0.9771738
30	0x3f1eb7ed	0.619994
31	0xbf06fb1f	-0.5272693
32	0x3f7d5ec4	0.98972726
33	0xbe9efcce	-0.3105225
34	0x4000f9a4	2.0152369
35	0xbf786374	-0.97026753
36	0xbf72094f	-0.94545454
37	0xbfc214a0	-1.5162544
38	0x3c9447a5	0.018100569
39	0x3f6de6ab	0.92930096
40	0x3f74f267	0.95682377
41	0xc02de70d	-2.7172272
42	0xbed43acd	-0.4145111
43	0xbe3f6833	-0.18692093
44	0x3e99eb89	0.30062512
45	0x3f246c27	0.6422753
46	0xbf4165de	-0.7554606
47	0x3fceac0c	1.6146255
48	0xbf9f3492	-1.2437918
49	0xbfad7d3c	-1.3553843
50	0xbf6ba821	-0.9205342
51	0xbe4b7f1e	-0.1987271
52	0xbe26cda6	-0.16289386
53	0x3f7f7ac4	0.997967
54	0xbd668713	-0.05628116
55	0xbfdf4200	-1.7442017
56	0xbcfbce16	-0.030737918
57	0x3f7148c2	0.94251645
58	0xbf8b510a	-1.0884106
59	0x3f765430	0.9622221
60	0xbfe1e956	-1.7649333
61	0xbf7d50c8	-0.9895139
62	0xbf401704	-0.7503512
63	0x40477660	3.1166
64	0xbfac66c7	-1.3468865
65	0x3ec80447	0.39065763
66	0x3fdcc106	1.7246406
67	0xbf137b91	-0.5761042
68	0x3d43bcf3	0.047787618
69	0xbeb7177b	-0.35760102
70	0xbe07422b	-0.13208835
71	0xbf352837	-0.7076449
72	0x3f5e7b6e	0.8690709
73	0x3fa11035	1.2583071
74	0xbf18cad8	-0.59684515
75	0xbd5a4a72	-0.053293653
76	0xbda3f05f	-0.080048315
77	0x3e5130e8	0.20428813
78	0xbf7a68fc	-0.97816443
79	0x3fcb83e9	1.5899631
80	0xbf2491a4	-0.6428473
81	0x3dee4a16	0.116352245
82	0xbd3c2b04	-0.04593946
83	0x3d5ed656	0.054403625
84	0x4005ed24	2.092599
85	0x3f05e854	0.5230763
86	0xbf839b99	-1.028186
87	0x3e773af3	0.24143581
88	0xbf8ebe4f	-1.1151828
89	0x3f2d82b8	0.67777586
90	0x3f9c3bb7	1.2205724
91	0x3f95c526	1.170079
92	0xbfab3d4e	-1.3378084
93	0xbfdaf88e	-1.7107103
94	0xbf010b61	-0.5040799
95	0x3e9ab143	0.30213365
96	0xbfaa421d	-1.3301426
97	0x3faad181	1.3345186
98	0x3fbafe8f	1.4608935
99	0xbf873812	-1.0563986
100	0xbf08bbe9	-0.5341173
101	0x3f39f043	0.72632235
102	0xbf1d0fd6	-0.6135229
103	0x3f5ee2d9	0.8706489
104	0x3f9ec3af	1.2403468
105	0xbe6c42e9	-0.23072399
106	0x3f81b2ee	1.013273
107	0x3fcfca33	1.6233581
108	0xbfbba2f7	-1.4659108
109	0x3ec8c145	0.39209953
110	0x3eea6b97	0.4578521
111	0xbe033b51	-0.12815596
112	0x3f9b32c5	1.2124869
113	0xbcb17b30	-0.021665186
114	0x400e4a30	2.223278
115	0x3ee33819	0.44378737
116	0xbef29306	-0.47377795
117	0xbf9df5e0	-1.234066
118	0x3f0a774c	0.5408828
119	0xc0066a48	-2.100237
120	0xbf2ab3c1	-0.6668053
121	0x3eb1be4b	0.34715495
122	0xbef12d90	-0.47105074
123	0xbfa879c2	-1.3162158
124	0x3f6abd3b	0.9169499
125	0x3f81fcc8	1.0155268
126	0x3fc2ca36	1.521796
127	0x3f97cd1c	1.185947
128	0x3e95cae3	0.29256353
129	0xbf520c1e	-0.8204974
130	0xbf0225e8	-0.5083909
131	0x3fa000d9	1.2500259
132	0xbf32253d	-0.6958807
133	0xbf7d8cdf	-0.9904308
134	0x3f554cde	0.83320415
135	0xbe31dd3f	-0.17369555
136	0x3fd2f5cf	1.6481265
137	0x3c6e2640	0.014535487
138	0x3fca5c72	1.5809462
139	0xbfb15ce7	-1.3856477
140	0x3fedb6f3	1.8571457
141	0x3f56bd26	0.8388237
142	0xc0218222	-2.5235677
143	0xbeae7a77	-0.34077808
144	0x3f25d27e	0.6477431
145	0x4003811e	2.0547557
146	0xbf914911	-1.1350423
147	0xbe71b3e1	-0.23603775
148	0xbe7613e9	-0.24031033
149	0xbe3aba57	-0.18235146
150	0xbff8ee1f	-1.9447669
151	0x3ede7f13	0.43456325
152	0xbf65bc92	-0.8974086
153	0xbe66b1ad	-0.22528715
154	0xbf54eece	-0.8317689
155	0xbdb56eda	-0.08859034
156	0x3f90379f	1.1266974
157	0x3f5b95af	0.85775274
158	0xbf47ae9c	-0.7800081
159	0x3f19ba0b	0.60049504
160	0xbe9abdc3	-0.30222902
161	0x400a08db	2.1567905
162	0x3ef1fa4c	0.47261274
163	0xc000e037	-2.013685
164	0x3e8e5051	0.27795652
165	0xbf7db928	-0.9911065
166	0x3d99b33f	0.075048916
167	0x3f18b129	0.59645325
168	0xbf0d2e93	-0.5514919
169	0xbdc19230	-0.09451711
170	0x3fa8be79	1.3183128
171	0xbf6a1dff	-0.9145202
172	0xbf50db47	-0.8158459
173	0xbec91077	-0.39270374
174	0xbea0685d	-0.31329623
175	0x3fa78fff	1.3090819
176	0x3eb0527e	0.34437937
177	0x3f629ffe	0.8852538
178	0x3d4e1193	0.05030973
179	0xbeb5ab6b	-0.35482344
180	0xbea8d602	-0.32975775
181	0x3fd7ea63	1.6868404
182	0xbfa755f4	-1.3073106
183	0xbe8b5721	-0.27214912
184	0x3f585f02	0.8451997
185	0xbe73cfa4	-0.23809677
186	0x3eb35dd3	0.3503252
187	0x3e6e5ee1	0.23278381
188	0xbfcfd366	-1.6236389
189	0x3f3acb77	0.7296671
190	0x3ed52e4a	0.41636878
191	0x3f2de03c	0.6792028
192	0xbfe34373	-1.7754959
193	0x3fb5b4fe	1.419586
194	0xbf6cfeee	-0.9257649
195	0xbd8a0e99	-0.067410655
196	0x3e65b3cb	0.22431867
197	0x3f27801e	0.65429866
198	0xbf8388a0	-1.027607
199	0x3d316847	0.043312337
200	0xbed3f03f	-0.4139423
201	0xbf92c479	-1.1466209
202	0xbf11c9a4	-0.56948304
203	0xbef15ea7	-0.47142527
204	0x3f8d2419	1.1026641
205	0xbfe5fe21	-1.7968179
206	0xbff615f9	-1.9225456
207	0x3dda4da5	0.10659341
208	0xbca63ecc	-0.020293616
209	0x3ef0d42c	0.47036874
210	0x3fb54ac8	1.4163446
211	0x3f82c04e	1.0214937
212	0xbfe28bcc	-1.7698913
213	0xbf8ec9ce	-1.1155336
214	0xbe71c64f	-0.23610805
215	0xbf6b9a47	-0.92032284
216	0xbe638ee0	-0.22222471
217	0xbee4017d	-0.44532385
218	0xbee15d8d	-0.44016686
219	0x3ece1f71	0.40258363
220	0xbeb54767	-0.35406038
221	0xc00c2a61	-2.1900866
222	0xbf24cc9d	-0.64374715
223	0x3f47a7f7	0.7799067
224	0x3fa60206	1.2969368
225	0xbf0cacb9	-0.54951054
226	0x3f8a74cb	1.0816892
227	0x3f35634c	0.7085464
228	0x3f20edf5	0.62863094
229	0x3dc8e6e2	0.098096624
230	0xbfc083c4	-1.5040212
231	0x3f29fb5a	0.6639916
232	0xbf026106	-0.50929296
233	0x3f834b61	1.0257379
234	0xbe9b4e39	-0.30333117
235	0x3f8ae957	1.085246
236	0x3e8b2ffa	0.2718504
237	0xbde16fa4	-0.11007622
238	0x3fba8882	1.4572909
239	0x3c3078d0	0.010770991
240	0xbfce71c6	-1.6128471
241	0x3f928f17	1.1449918
242	0xbf1be922	-0.6090261
243	0xbef01aae	-0.46895355
244	0x3fb0291e	1.3762548
245	0xbead187c	-0.33807743
246	0x3efca284	0.4934274
247	0xbbd8af26	-0.006612676
248	0x3faffb3d	1.3748547
249	0x3e3971a2	0.18109754
250	0x3f9bf22b	1.2183279
251	0x3ef8f2be	0.48622698
252	0x3fa49237	1.2857121
253	0xc008cfb7	-2.137678
254	0xbf21bd69	-0.6317964
255	0xbf3d6770	-0.7398596

prescalers.encoder_length.weight f4 [8, 1]
0	0x3f7f2cd4	0.9967778
1	0xbe7e6860	-0.24844503
2	0x3e3ae2e0	0.18250608
3	0x3f429064	0.7600157
4	0x3f274e58	0.6535392
5	0xbefbdf38	-0.4919374
6	0xbf26fe7e	-0.65232074
7	0x3f39b1b8	0.725368

prescalers.encoder_length.bias f4 [8]
0	0xbf72a058	-0.94775915
1	0xbe4bafbf	-0.1989126
2	0x3f04f2b0	0.5193281
3	0x3ed2ee80	0.41197586
4	0x3eaa16a6	0.33220404
5	0xbf288753	-0.6583149
6	0xbf695638	-0.91147184
7	0xbf39fdb9	-0.72652775

prescalers.time_idx.weight f4 [8, 1]
0	0xbf30d85e	-0.6908015
1	0xbe4e4480	-0.20143318
2	0xbe74fa80	-0.23923683
3	0xbe1db658	-0.1540159
4	0x3e4685f8	0.19387043
5	0xbed6d500	-0.4195938
6	0xbf39bb14	-0.72551084
7	0xbe461610	-0.19344354

prescalers.time_idx.bias f4 [8]
0	0x3f5542de	0.83305156
1	0xbe81fd87	-0.2538874
2	0x3f125c2f	0.5717191
3	0xbc20c4f0	-0.009812579
4	0x3ea049c4	0.3130628
5	0x3f7bf8fb	0.9842679
6	0xbe6a7f46	-0.22900113
7	0x3d9f44d6	0.07776801

prescalers.relative_time_idx.weight f4 [8, 1]
0	0x3e9ce490	0.3064313
1	0xbf0c192c	-0.5472591
2	0x3d2b7700	0.041861534
3	0x3f4d7c56	0.80267847
4	0x3f145eca	0.57957137
5	0x3f5594a2	0.8342992
6	0xbf64e97e	-0.8941878
7	0xbe90ab50	-0.282557

prescalers.relative_time_idx.bias f4 [8]
0	0xbdb91d4d	-0.09038792
1	0x3f70584a	0.9388472
2	0xbe1f9bbb	-0.1558675
3	0xbf043708	-0.5164647
4	0x3f2bb840	0.6707802
5	0xbe08a599	-0.1334442
6	0x3f65d26d	0.8977421
7	0x3f4570d0	0.77125263

prescalers.PTS.weight f4 [8, 1]
0	0x3ea3c70c	0.31987798
1	0xbe7a2fb8	-0.24432266
2	0xbedf1154	-0.43567908
3	0x3eb73dc4	0.3578931
4	0x3f5f2f36	0.87181413
5	0xbf691596	-0.9104856
6	0xbe32ece0	-0.17473173
7	0xbf0b51cc	-0.5442169

prescalers.PTS.bias f4 [8]
0	0x3f86f875	1.0544573
1	0x3e98cead	0.2984518
2	0xbf2a529e	-0.66532314
3	0xbf872f69	-1.0561343
4	0x3f5e7c33	0.8690826
5	0x3f785215	0.9700025
6	0xbf1578f5	-0.5838769
7	0x3f446f02	0.76731884

static_variable_selection.flattened_grn.resample_norm.mask f4 [2]
0	0xba4d2810	-0.0007826099
1	0x3a4e4269	0.0007868172

static_variable_selection.flattened_grn.resample_norm.norm.weight f4 [2]
0	0x3f7fffb1	0.9999953
1	0x3f7fffb1	0.9999953

static_variable_selection.flattened_grn.resample_norm.norm.bias f4 [2]
0	0x373adfa1	1.1138532e-05
1	0xb73afec9	-1.1145786e-05

static_variable_selection.flattened_grn.fc1.weight f4 [2, 19]
0	0x3e8d94d0	0.27652597
1	0x3f77f6d4	0.96861005
2	0xbda13d88	-0.07873064
3	0x3ceb9607	0.028758062
4	0x3f5bb927	0.85829395
5	0x3ef7074e	0.4824776
6	0x3db6c97e	0.0892515
7	0xbe9cdaf8	-0.3063581
8	0xbeb82b6a	-0.35970622
9	0xbe59cce7	-0.2126957
10	0x3e60df44	0.21960169
11	0xbe8fce6e	-0.2808718
12	0x3e0c465e	0.13698718
13	0xbe8cdee0	-0.2751379
14	0xbeb5e308	-0.35524774
15	0x3dbcb2bd	0.09213779
16	0x3d81e7bc	0.06343028
17	0x3d975c55	0.07390658
18	0x3e3afcad	0.1826045
19	0xbe912249	-0.2834647
20	0x3eabb0be	0.3353328
21	0xbecd3ee9	-0.4008706
22	0x3e21b26c	0.15790719
23	0x3df169c2	0.1178775
24	0xbeb3082b	-0.3496717
25	0x3e33bbdd	0.17552133
26	0x3cf39df9	0.029738413
27	0xbf56ae00	-0.8385925
28	0x3eada64c	0.33915937
29	0x3ee4bd6e	0.44675773
30	0xbe3382d7	-0.1753038
31	0x3e447744	0.19186121
32	0x3d1d7ebb	0.038450938
33	0x3d840dca	0.064479426
34	0x3e7cdaca	0.24692836
35	0xbd8da86c	-0.069168895
36	0x3ea3dc70	0.32004118
37	0x3d2dcf12	0.042433806

static_variable_selection.flattened_grn.fc1.bias f4 [2]
0	0x36a6bd0d	4.969194e-06
1	0xb3fb3fdf	-1.16997164e-07

static_variable_selection.flattened_grn.fc2.weight f4 [2, 2]
0	0x3ec380d2	0.3818422
1	0x3ed5ac74	0.41733134
2	0xbfda8102	-1.707062
3	0x3dc2e07d	0.09515474

static_variable_selection.flattened_grn.fc2.bias f4 [2]
0	0xb5162f5f	-5.594829e-07
1	0xb6b81332	-5.485862e-06

static_variable_selection.flattened_grn.gate_norm.glu.fc.weight f4 [4, 2]
0	0x3f05a604	0.52206445
1	0xbf45fdf0	-0.773406
2	0x3f0aa9d4	0.5416539
3	0x3df32580	0.11872387
4	0x3f6b42cb	0.91898793
5	0x3eb81026	0.3594982
6	0x3ecce79d	0.40020457
7	0xbf5fa274	-0.8735726

static_variable_selection.flattened_grn.gate_norm.glu.fc.bias f4 [4]
0	0x36a79371	4.9941523e-06
1	0xb699ee73	-4.5875145e-06
2	0xb5415d41	-7.2033805e-07
3	0x3496390f	2.7981193e-07

static_variable_selection.flattened_grn.gate_norm.add_norm.norm.weight f4 [2]
0	0x3f697690	0.91196537
1	0x3f697690	0.91196537

static_variable_selection.flattened_grn.gate_norm.add_norm.norm.bias f4 [2]
0	0xbc8cb1b0	-0.017174572
1	0x3c8cb1b0	0.017174572

static_variable_selection.single_variable_grns.TEAM_ID.mask f4 [16]
0	0xbd718637	-0.058965888
1	0x3cc72e5a	0.024314094
2	0x3c863199	0.016381072
3	0xbca9605b	-0.020675829
4	0xbcd46946	-0.025929105
5	0xbd631b88	-0.055446178
6	0xbd23e0e3	-0.04000939
7	0xbc83810c	-0.016052745
8	0x3d2c87c6	0.04212167
9	0x3da48b7c	0.08034417
10	0x3c8319b4	0.016003467
11	0x3b342627	0.002748856
12	0xbd84d51f	-0.06485962
13	0x3d2165b9	0.03940365
14	0xbd00943c	-0.031391367
15	0x3db10b01	0.08644677

static_variable_selection.single_variable_grns.TEAM_ID.norm.weight f4 [16]
0	0x3f6b6d37	0.91963524
1	0x3f83669c	1.0265689
2	0x3f8498f8	1.0359182
3	0x3f771013	0.965089
4	0x3f72aa7b	0.9479138
5	0x3f6f3948	0.9344678
6	0x3f7062e5	0.939009
7	0x3f7e10c7	0.9924435
8	0x3f85d7de	1.0456502
9	0x3f8d5124	1.1040387
10	0x3f81bae6	1.0135162
11	0x3f817499	1.0113708
12	0x3f6754cf	0.9036378
13	0x3f890284	1.0703893
14	0x3f6fdd4e	0.9369706
15	0x3f8d9eae	1.106405

static_variable_selection.single_variable_grns.TEAM_ID.norm.bias f4 [16]
0	0xbd143b8e	-0.03618961
1	0x3dcc4935	0.09974901
2	0x3d9d6c24	0.07686642
3	0x3dd4b101	0.10385323
4	0x3c5be5d7	0.013421497
5	0xbd33d776	-0.04390665
6	0x3d25d1fd	0.040483464
7	0xbd8db307	-0.069189124
8	0x3c99a5d4	0.01875583
9	0x3dd86533	0.10566177
10	0x3d4fab83	0.050700676
11	0xbdae7129	-0.08517677
12	0xbd8afdc6	-0.06786685
13	0xbd918e71	-0.07107247
14	0xbd2433a4	-0.04008831
15	0xbd901151	-0.07034553

static_variable_selection.single_variable_grns.encoder_length.resample_norm.mask f4 [16]
0	0xbc65d47f	-0.014027714
1	0xbd1ab368	-0.03776875
2	0xbd7086c1	-0.05872226
3	0xbc3fd921	-0.011709482
4	0xbd3ab64e	-0.045584016
5	0xbb869ebf	-0.0041082795
6	0xbd401cdd	-0.046902526
7	0xbd4443b8	-0.047916144
8	0xbb620f8f	-0.0034494137
9	0x3d631c7e	0.055447094
10	0xbd3f5c9a	-0.04671917
11	0x3d801ce7	0.06255513
12	0x3c43b4fe	0.011945007
13	0xbb97591a	-0.004618776
14	0x3cdf897a	0.027287234
15	0x3c035c97	0.008017681

static_variable_selection.single_variable_grns.encoder_length.resample_norm.norm.weight f4 [16]
0	0x3f7b5b2d	0.98186
1	0x3f74d50f	0.956376
2	0x3f6eb5a9	0.9324594
3	0x3f83c0bd	1.0293194
4	0x3f6ec87c	0.93274665
5	0x3f81247d	1.008926
6	0x3f72bf29	0.9482294
7	0x3f7306e6	0.949324
8	0x3f816301	1.0108339
9	0x3f8960db	1.0732683
10	0x3f731f28	0.94969416
11	0x3f8860f3	1.0654587
12	0x3f843162	1.032757
13	0x3f8255bf	1.0182418
14	0x3f863220	1.0484047
15	0x3f7b6862	0.9820615

static_variable_selection.single_variable_grns.encoder_length.resample_norm.norm.bias f4 [16]
0	0xbbb13df4	-0.0054089967
1	0x3d8e7571	0.06955994
2	0x3dab44aa	0.08362706
3	0x3db7f462	0.08982159
4	0xbda255b7	-0.07926505
5	0x3c04659c	0.008080866
6	0xbd423fa5	-0.047423977
7	0xbd43252b	-0.047642868
8	0x3c2e6157	0.010643325
9	0x3da12579	0.078684755
10	0x3d768448	0.060184747
11	0xbd858b7e	-0.06520747
12	0xbcf9a2d6	-0.030473154
13	0xbc81ab38	-0.015828714
14	0xbd5ff375	-0.054675538
15	0xbda149a5	-0.07875375

static_variable_selection.single_variable_grns.encoder_length.fc1.weight f4 [8, 8]
0	0x3d4016b3	0.046896648
1	0xbef724ed	-0.4827036
2	0xbd2adbca	-0.041713513
3	0xbf1913d8	-0.59795904
4	0xbe25379c	-0.16134495
5	0xbedb6660	-0.42851543
6	0xbeac8287	-0.33693334
7	0xbeb1f0a4	-0.34753907
8	0x3ebf4329	0.37355927
9	0x3f5cd60b	0.86264104
10	0xbef857d1	-0.485045
11	0xbc8d2014	-0.01722721
12	0xbef2985e	-0.47381872
13	0xbf825bb5	-1.0184237
14	0xbea16122	-0.3151942
15	0x3dd775c0	0.10520506
16	0xbe299ba0	-0.16563272
17	0x3cbc421a	0.022980738
18	0x3e181b17	0.14854084
19	0x3ccbbcce	0.024870303
20	0xbf310780	-0.6915207
21	0xbbdcacb0	-0.006734453
22	0xbed7c706	-0.4214403
23	0xbd237ea8	-0.03991571
24	0xbf3ceb9c	-0.7379701
25	0x3f2434a5	0.6414283
26	0x3e9f64fc	0.31131732
27	0x3e3dabea	0.18522611
28	0x3dd58083	0.10424902
29	0xbf35254f	-0.70760053
30	0xbeb089b2	-0.34480053
31	0xbf2b6cbd	-0.66962796
32	0xbf31fcad	-0.6952618
33	0x3f119d7d	0.56880933
34	0xbfebfc8f	-1.843645
35	0x3e78597b	0.24252884
36	0x3e8a15e2	0.2696982
37	0x3ea27700	0.31731415
38	0xbe6da651	-0.23207976
39	0x3ee89643	0.4542714
40	0x3f590aa4	0.8478186
41	0xbed67e18	-0.41893077
42	0xbe6b6770	-0.22988677
43	0x3d91bfda	0.07116671
44	0xbf64acd9	-0.89326245
45	0x3f6c0f80	0.9221115
46	0xbedc1959	-0.4298809
47	0xbdab5e79	-0.083676286
48	0x3fa15249	1.2603236
49	0xbf0eb8c3	-0.55750674
50	0xbea72414	-0.32644713
51	0xbe350a38	-0.1767968
52	0xbea5449c	-0.32278907
53	0x3cd4434a	0.025910992
54	0x3eb37470	0.35049772
55	0xbe3c6d60	-0.18401098
56	0xbea05884	-0.31317532
57	0x3f1027e2	0.56310856
58	0x3e471716	0.194424
59	0xbe52fd4a	-0.20604435
60	0x3e71be95	0.23607858
61	0xbcd93ae6	-0.026517343
62	0xbe9e9b93	-0.3097807
63	0x3e945fbb	0.28979287

static_variable_selection.single_variable_grns.encoder_length.fc1.bias f4 [8]
0	0x3cc97977	0.024594052
1	0xbd9fb2a8	-0.07797748
2	0xbd828505	-0.06373028
3	0xbd961dbe	-0.073298916
4	0xbd64eb66	-0.055888556
5	0xbd959385	-0.07303528
6	0xbd66c031	-0.05633563
7	0xbd898553	-0.06714883

static_variable_selection.single_variable_grns.encoder_length.fc2.weight f4 [8, 8]
0	0x3e63e584	0.22255522
1	0x3eef251f	0.4670801
2	0x3f15939a	0.5842835
3	0x3f8aab12	1.0833457
4	0x3f2e37d9	0.68053967
5	0x3fb9c21a	1.451236
6	0xbdc3b1a6	-0.09555368
7	0x3f5baa88	0.85807085
8	0x3f611783	0.879265
9	0x3f27e9a5	0.6559089
10	0x3e10f9ef	0.14157842
11	0x3e5efbff	0.21775816
12	0x3c97a1d6	0.018509787
13	0xbf344567	-0.704184
14	0xbe8a8d9a	-0.27061158
15	0xbe97e32d	-0.2966551
16	0x3f13f5fa	0.57797205
17	0xbc84443e	-0.016145822
18	0xbf545e95	-0.8295682
19	0xbd6a9e1e	-0.0572797
20	0x3e52cc1b	0.20585673
21	0x3ebf806e	0.37402672
22	0x3ee05c2d	0.43820325
23	0x3d65a542	0.056065805
24	0x3f0b453b	0.5440251
25	0xbf01f010	-0.5075693
26	0xbf1831be	-0.594509
27	0x3e489afc	0.19590372
28	0x3ea48cf3	0.32138786
29	0xbf7b7abd	-0.9823416
30	0xbc1b72f9	-0.009487861
31	0x3e99c9a2	0.30036646
32	0xbeecb2c2	-0.4623013
33	0x3ef7446e	0.48294395
34	0xbef62fb5	-0.48083273
35	0x3d9de4f1	0.07709683
36	0x3f00c150	0.5029497
37	0x3f8e7e75	1.1132342
38	0x3fac616e	1.3467233
39	0x3edde096	0.43335408
40	0xbf52f8d8	-0.82410955
41	0xbeb78ab3	-0.35848007
42	0xbdfebdef	-0.12438571
43	0xbd841d78	-0.06450933
44	0xbe42f70c	-0.19039553
45	0x3ea38f80	0.3194542
46	0x3e8e19b9	0.27754
47	0xbf227285	-0.6345599
48	0x3f11e0c8	0.56983614
49	0xbedc7485	-0.43057647
50	0xbf00219c	-0.50051284
51	0xbe9f2f9e	-0.31091017
52	0xbf0656a8	-0.52475977
53	0xbf2aa87a	-0.66663325
54	0xbdf8a17b	-0.12140175
55	0x3eadb47b	0.33926758
56	0xbe01ce26	-0.12676296
57	0x3e2dcd55	0.16972859
58	0x3f34ce76	0.70627534
59	0x3d832d68	0.06405145
60	0xbdfc9f2c	-0.12335047
61	0x3ec53c03	0.38522348
62	0x3f51b415	0.8191541
63	0xbc96b674	-0.018397547

static_variable_selection.single_variable_grns.encoder_length.fc2.bias f4 [8]
0	0xbd917c55	-0.071037926
1	0xbd68ab57	-0.056804027
2	0xbd667f46	-0.05627372
3	0x3d8bf025	0.06832913
4	0xbd88a38f	-0.06671821
5	0xbd2bfc65	-0.04198875
6	0x3c10f9d6	0.008848628
7	0xbd19c939	-0.037545417

static_variable_selection.single_variable_grns.encoder_length.gate_norm.glu.fc.weight f4 [32, 8]
0	0xbe9fae40	-0.3118763
1	0x3c3ac714	0.011400003
2	0x3d37ca34	0.04487057
3	0xbeb46437	-0.35232708
4	0xbe8ee1d8	-0.2790668
5	0x3e55a4fa	0.20863715
6	0x3e427912	0.18991497
7	0xbe2d902a	-0.16949525
8	0xbe8a15e2	-0.2696982
9	0xbd39f9ab	-0.045404118
10	0x3e20549e	0.15657279
11	0xbec37955	-0.38178506
12	0xbeda5877	-0.42645618
13	0x3e247470	0.16060042
14	0xbe92812b	-0.28614172
15	0xbe9a9a17	-0.30195686
16	0x3dc6b26e	0.097020015
17	0x3ebc86ae	0.36821502
18	0xbdb363cf	-0.08759271
19	0x3e8b0c0d	0.27157632
20	0xbe0df7c4	-0.13864046
21	0xbe499e34	-0.19689256
22	0x3d906f8c	0.07052526
23	0x3d2b5e13	0.041837763
24	0xbe501d31	-0.20323636
25	0xbe6e6b92	-0.23283222
26	0xbe7d4987	-0.2473508
27	0x3e92693f	0.2859592
28	0xbebc69c0	-0.3679943
29	0xbe7a2db4	-0.24431497
30	0xbea24cab	-0.31699118
31	0xbe9888f7	-0.29791996
32	0xbe819e7c	-0.25316226
33	0xbc861b9b	-0.016370585
34	0x3e8685b5	0.26273885
35	0x3d57363f	0.052541967
36	0xbe08f554	-0.13374835
37	0x3da81488	0.08207041
38	0xbe3de1a0	-0.185431
39	0xbe6b2493	-0.2296317
40	0x3e8c8161	0.27442458
41	0xbcfd3f95	-0.030914107
42	0x3e9fa4ff	0.3118057
43	0x3e657488	0.22407734
44	0xbdb32038	-0.087463796
45	0x3d8303e8	0.063972294
46	0x3e1900e3	0.14941745
47	0x3e83a67c	0.25712955
48	0xbd9e28cd	-0.07722626
49	0xbe61db21	-0.22056247
50	0x3e6a4d29	0.22880997
51	0xbec118cb	-0.37714228
52	0xbeacd0a3	-0.33752927
53	0xbe722e03	-0.23650365
54	0xbe3063c7	-0.17225562
55	0xbeaa3e8a	-0.3325084
56	0x3acc59f9	0.0015590779
57	0xbed2be33	-0.41160735
58	0xbe813f68	-0.25243688
59	0x3ebe7a13	0.3720251
60	0x3e52eab8	0.2059735
61	0xbc9a98d6	-0.018871706
62	0xbe519686	-0.20467576
63	0x3da07ca8	0.07836276
64	0xbddf11fb	-0.108921014
65	0x3d843d89	0.064570494
66	0x3dc11f3e	0.09429787
67	0xbe2207c2	-0.15823272
68	0xbea47fb3	-0.32128677
69	0x3e366b96	0.17814478
70	0xbd50e51a	-0.05099974
71	0xbd0203a0	-0.03174174
72	0x3e212752	0.15737656
73	0x3e9d429d	0.30714884
74	0xbe9e3dd7	-0.30906555
75	0xbe31dbdd	-0.17369027
76	0xbe7be071	-0.24597336
77	0x3c971cbf	0.018446324
78	0x3e4a661e	0.19765517
79	0xbe1f6f2d	-0.15569754
80	0xbe979b82	-0.2961083
81	0x3ed4bc33	0.41549835
82	0x3ea08b11	0.313561
83	0x3dd97a3c	0.106190175
84	0xbe918200	-0.28419495
85	0x3e5503e7	0.2080227
86	0x3ea914d6	0.3302371
87	0x3eadcfc8	0.33947587
88	0x3e2ea803	0.17056279
89	0xbcd91aa7	-0.026501967
90	0x3e4eac46	0.20182905
91	0x3cd444b7	0.025911672
92	0x3ddf6363	0.109076284
93	0x3e840bef	0.25790355
94	0x3c35bc3e	0.011092244
95	0x3dd5a947	0.10432678
96	0x3e609dae	0.2193515
97	0xbe920ebe	-0.28526872
98	0x3eaae82b	0.33380255
99	0xbe377b0f	-0.17918037
100	0x3ec3005b	0.3808621
101	0xbd53972a	-0.051657833
102	0xbe8cdb24	-0.2751094
103	0x3e9836c2	0.29729277
104	0x3e72149a	0.23640671
105	0x3cdadcd0	0.02671662
106	0x3ec54428	0.38528562
107	0xbe9b9579	-0.30387476
108	0x3eadae05	0.3392183
109	0xbcee2882	-0.02907205
110	0xbdfc78e7	-0.12327748
111	0x3e7a0a11	0.24417903
112	0x3e7bf1c5	0.24603947
113	0xbceb9d4c	-0.028761528
114	0x3ec8e9b9	0.39240816
115	0x3e0112d0	0.12604833
116	0xbd76be7f	-0.060240265
117	0xbe8619b9	-0.261915
118	0x3ddd5235	0.10806695
119	0xbe143d8d	-0.14476605
120	0xbda209fe	-0.07912062
121	0x3e418112	0.18896893
122	0x3dbc2792	0.09187235
123	0xbdb14cfe	-0.08657263
124	0x3ed65a4f	0.41865775
125	0x3e507424	0.20356804
126	0x3dbb0adf	0.09132933
127	0xbe5e19b9	-0.216895
128	0xbd32b778	-0.043632
129	0xbea3f395	-0.32021776
130	0xbe5f419f	-0.21802376
131	0x3e130f93	0.1436141
132	0xbec76ea1	-0.3895159
133	0xbeb1a604	-0.34696972
134	0xbe4ba218	-0.19886053
135	0xbebe499f	-0.37165543
136	0xbeca385f	-0.39496133
137	0xba1471a4	-0.0005662686
138	0xbe0c5d30	-0.13707423
139	0xbdfbc3b7	-0.12293189
140	0xbea8ae21	-0.3294535
141	0xbda97d72	-0.0827588
142	0x3e28e1f3	0.16492443
143	0xbdfef319	-0.12448711
144	0xbde35bf8	-0.11101526
145	0x3e51bf9d	0.20483251
146	0x3d792c7b	0.060833436
147	0x3e9b2007	0.30297872
148	0x3d467178	0.048448056
149	0x3e0c8421	0.13722278
150	0x3e9dad40	0.30796242
151	0xbeaf55b7	-0.34245083
152	0x3e0ffebf	0.14062022
153	0x3e704362	0.23463205
154	0xbe3161ae	-0.17322418
155	0xbdf5f9f8	-0.120105684
156	0x3eace96d	0.3377184
157	0xbd98b9da	-0.07457323
158	0x3eca7d68	0.39548802
159	0x3d2e1535	0.042500693
160	0xbeab5718	-0.33464885
161	0xbe873f43	-0.26415452
162	0x3ea7e511	0.3279195
163	0x3e8824e1	0.26590636
164	0x3e336a42	0.17521003
165	0xbe9230da	-0.28552896
166	0x3dc073d5	0.09397093
167	0x3e803649	0.25041416
168	0xbe8fd718	-0.2809379
169	0x3e16089a	0.14651719
170	0x3db1a346	0.0867372
171	0x3ec1d225	0.3785564
172	0x3eab3bbe	0.33444017
173	0x3ebf050f	0.37308547
174	0xbe040318	-0.12891805
175	0xbdb2f51d	-0.08738158
176	0x3daadb27	0.08342581
177	0xbe9c4cd4	-0.30527365
178	0xbe888a13	-0.26667842
179	0xbcf271c0	-0.029595256
180	0xbe0e8d27	-0.13921033
181	0x3daa7348	0.083227694
182	0x3e8ac0b8	0.27100158
183	0xbebd81e2	-0.37013155
184	0xbdb81e99	-0.08990211
185	0xbd68e22d	-0.056856323
186	0xbe97f505	-0.29679123
187	0x3e3dfc4f	0.1855328
188	0x3eb1c7e6	0.34722823
189	0x3e6dcbcc	0.23222274
190	0x3e88343c	0.26602352
191	0x3e6dd451	0.23225524
192	0x3e4f35e4	0.20235401
193	0x3d96b9b7	0.07359641
194	0xbe65f82f	-0.22457956
195	0xbe06747d	-0.13130374
196	0xbe75d631	-0.24007489
197	0xbdb45fe7	-0.088073544
198	0xbeb7b60d	-0.3588108
199	0xbdea2e31	-0.114345916
200	0xbe86c6b3	-0.2632347
201	0xbe7b3830	-0.24533153
202	0x3e92a1b0	0.28638983
203	0x3e302016	0.1719974
204	0x3d92d235	0.07169
205	0x3ea88681	0.32915118
206	0x3e79d7eb	0.24398772
207	0xbdf49d72	-0.11944093
208	0xbe462f07	-0.19353877
209	0xbe2ceb45	-0.16886623
210	0x3ed2d6da	0.41179544
211	0x3e8f51bf	0.27992055
212	0x3ecea26f	0.40358302
213	0x3ed8a3cb	0.42312464
214	0x3e4f21f4	0.20227796
215	0x3e979a2e	0.29609817
216	0x3e6f4898	0.23367536
217	0x3d19283d	0.03739189
218	0x3dea2b2a	0.11434014
219	0xbd9f4344	-0.07776502
220	0xbe7d2874	-0.24722463
221	0xbeaffb4e	-0.34371418
222	0xbe24bde4	-0.16088063
223	0xbeababc5	-0.33529487
224	0xbceb8810	-0.028751403
225	0xbe2fa0da	-0.17151204
226	0x3e809d18	0.25119853
227	0xbc2a6679	-0.010400408
228	0xbe72a974	-0.23697454
229	0x3e8b7ed8	0.27245212
230	0x3e91ce95	0.28477922
231	0xbd2fa4a5	-0.042881627
232	0xbdd9b173	-0.10629549
233	0x3d83d7b4	0.064376265
234	0xbcd2ea43	-0.02574647
235	0xbe9d6576	-0.3074147
236	0x3e01426b	0.12622993
237	0xbe855e88	-0.26048684
238	0xbe58a060	-0.21154928
239	0x3e4083d8	0.18800294
240	0x3e2e5258	0.17023599
241	0xbe57ad77	-0.21062265
242	0xbe563916	-0.20920214
243	0x3d992ce6	0.07479267
244	0xbe799cfa	-0.24376288
245	0x3c0cdd49	0.00859768
246	0x3dac9513	0.08426871
247	0xbe0beead	-0.13665266
248	0x3ea8261f	0.32841584
249	0x3e09b899	0.13449325
250	0x3e28aac4	0.16471392
251	0xbe8e8a12	-0.27839714
252	0xbe3f9bb4	-0.1871174
253	0x3dcd884d	0.10035763
254	0x3d0e1b60	0.034694076
255	0x3e9fb53c	0.31192958

static_variable_selection.single_variable_grns.encoder_length.gate_norm.glu.fc.bias f4 [32]
0	0x3ab4953b	0.0013777384
1	0x3d50cb62	0.05097521
2	0x3d84447f	0.06458377
3	0x3da8f012	0.08248915
4	0xbcf70e24	-0.03015811
5	0x3b82f849	0.003996883
6	0xbd0b63e4	-0.03403081
7	0xbd040aba	-0.032236792
8	0x3c46af22	0.012126716
9	0x3d09385c	0.033501014
10	0x3d0b2184	0.03396751
11	0xbd83f468	-0.06443101
12	0xbcb44146	-0.022003781
13	0xbc5a88a9	-0.013338246
14	0xbd39a5f5	-0.045324285
15	0xbd97a326	-0.07404165
16	0x3befb02b	0.007314702
17	0xbd216a1c	-0.039407834
18	0x3d4d3083	0.050095093
19	0xbd22d5a0	-0.03975451
20	0x3c6a17e6	0.014287924
21	0x3a4ab747	0.0007732999
22	0xbb879288	-0.004137341
23	0x3be7b40f	0.007071025
24	0xbc2503a6	-0.010071671
25	0x3d03bcac	0.032162353
26	0xbcefff9c	-0.029296689
27	0xbd046d6a	-0.032330908
28	0x3bb7fae1	0.005614624
29	0xbc0c4881	-0.008562208
30	0xbccc190a	-0.024914283
31	0xb933fa0f	-0.00017163924

static_variable_selection.single_variable_grns.encoder_length.gate_norm.add_norm.norm.weight f4 [16]
0	0x3f7c11ad	0.9846447
1	0x3f70af78	0.94017744
2	0x3f792256	0.9731802
3	0x3f707dc0	0.9394188
4	0x3f6f0502	0.93367016
5	0x3f8089c0	1.0042038
6	0x3f712815	0.94201785
7	0x3f725a00	0.9466858
8	0x3f7eaef0	0.99485683
9	0x3f898b62	1.0745661
10	0x3f724c8c	0.9464805
11	0x3f884e9e	1.0648992
12	0x3f83a2ed	1.0284096
13	0x3f81820e	1.0117815
14	0x3f806025	1.0029341
15	0x3f7a774a	0.9783827

static_variable_selection.single_variable_grns.encoder_length.gate_norm.add_norm.norm.bias f4 [16]
0	0x3b2c2b11	0.0026270787
1	0x3d87c1dd	0.06628773
2	0x3da6e9a5	0.08150033
3	0x3db40f64	0.08791998
4	0xbda99519	-0.08280391
5	0x3b868e17	0.004106294
6	0xbd54a637	-0.051916327
7	0xbd47d268	-0.048784643
8	0x3bb406dd	0.005493982
9	0x3d9a0715	0.07520882
10	0x3d6b5ce7	0.057461645
11	0xbd888b81	-0.06667233
12	0xbcdcc93b	-0.026951423
13	0xbc3cbf1b	-0.0115201725
14	0xbd5491ee	-0.051896982
15	0xbda8fde3	-0.0825155

static_variable_selection.prescalers.encoder_length.weight f4 [8, 1]
0	0x3f7f2cd4	0.9967778
1	0xbe7e6860	-0.24844503
2	0x3e3ae2e0	0.18250608
3	0x3f429064	0.7600157
4	0x3f274e58	0.6535392
5	0xbefbdf38	-0.4919374
6	0xbf26fe7e	-0.65232074
7	0x3f39b1b8	0.725368

static_variable_selection.prescalers.encoder_length.bias f4 [8]
0	0xbf72a058	-0.94775915
1	0xbe4bafbf	-0.1989126
2	0x3f04f2b0	0.5193281
3	0x3ed2ee80	0.41197586
4	0x3eaa16a6	0.33220404
5	0xbf288753	-0.6583149
6	0xbf695638	-0.91147184
7	0xbf39fdb9	-0.72652775

encoder_variable_selection.flattened_grn.resample_norm.mask f4 [4]
0	0xbd9d526a	-0.07681735
1	0xbc1e65ff	-0.009667872
2	0xbc7b8629	-0.0153518105
3	0x3dab1660	0.08353877

encoder_variable_selection.flattened_grn.resample_norm.norm.weight f4 [4]
0	0x3f6c2a12	0.92251694
1	0x3f801515	1.0006434
2	0x3f7d276f	0.98888296
3	0x3f8b28ad	1.0871788

encoder_variable_selection.flattened_grn.resample_norm.norm.bias f4 [4]
0	0xbcd75eb1	-0.02629027
1	0xbd6caf1c	-0.057784185
2	0x3baf1baa	0.005343874
3	0x3db9a8b2	0.09065379

encoder_variable_selection.flattened_grn.fc1.weight f4 [4, 35]
0	0xbe571cdc	-0.21007103
1	0x3c774e94	0.015094418
2	0xbdccdd75	-0.10003177
3	0x3ec66587	0.38749334
4	0x3e1544d5	0.14577039
5	0xbe7fd9b2	-0.24985388
6	0xbd9d0001	-0.07666016
7	0xbe09179c	-0.13387913
8	0xbc66357a	-0.014050836
9	0x3d545145	0.051835317
10	0x3e2f6563	0.1712852
11	0xbe596c53	-0.21232729
12	0x3e32d212	0.17462948
13	0x3f1bf342	0.60918057
14	0x3dc56607	0.09638601
15	0x3bc3114f	0.005952991
16	0xbd052192	-0.03250272
17	0x3e0f7f0e	0.14013311
18	0xbd965c99	-0.0734188
19	0x3e2d300d	0.16912861
20	0xbeb54795	-0.35406175
21	0xbe355ce3	-0.17711215
22	0x3e9c05a2	0.30473047
23	0x3e90ea34	0.28303683
24	0xbe4bf74f	-0.1991856
25	0xbd5920cc	-0.053009793
26	0x3d0ff03b	0.03514121
27	0xbea72b00	-0.32649994
28	0x3e39c30e	0.18140814
29	0xbd1c1a48	-0.038111
30	0xbd8f64b8	-0.070016325
31	0x3d30673a	0.043067195
32	0xbd9b7b80	-0.07591915
33	0x3ecb311c	0.39685905
34	0xbe2cde92	-0.16881779
35	0x3e03554c	0.12825507
36	0x3f3fb5f0	0.7488699
37	0xbc9ce3d3	-0.019151604
38	0xbda2dc23	-0.07952144
39	0xbe2ef573	-0.17085819
40	0x3eb7382d	0.35785046
41	0xbd3890d2	-0.045059986
42	0xbeae951b	-0.34098133
43	0xbe997262	-0.2997008
44	0x3d78aff7	0.06071469
45	0x3e42adb2	0.19011572
46	0xbd80965d	-0.062786795
47	0x3e4a7cf8	0.19774234
48	0xbe4205c1	-0.18947507
49	0x3dac2607	0.08405691
50	0x3c9350a3	0.017982787
51	0xbe4fce2d	-0.20293494
52	0x3e4375a3	0.19087844
53	0x3dc5afba	0.09652658
54	0x3ee5ee8e	0.44908565
55	0x3ea84cb0	0.32871008
56	0xbdb95790	-0.09049904
57	0x3ed69a5b	0.4191464
58	0x3d8c1775	0.068404116
59	0x3d408269	0.04699937
60	0xbeb1ab10	-0.34700823
61	0xbf1fc8fe	-0.62416065
62	0xbe6d6332	-0.23182371
63	0x3e84fbc5	0.25973335
64	0x3e65c123	0.22436957
65	0xbdd8d8bf	-0.10588216
66	0x3e37731c	0.17915004
67	0x3ee8360f	0.45353743
68	0xbef8486c	-0.48492754
69	0xbd4bfb97	-0.04980048
70	0x3cdad40b	0.026712438
71	0x3db234b2	0.08701457
72	0x3e975a61	0.2956114
73	0xbe7a0d24	-0.24419075
74	0x3c360bab	0.01111118
75	0xbd512b93	-0.051066946
76	0xbdf98eef	-0.121854655
77	0x3e95daac	0.29268396
78	0xbeceb53f	-0.40372655
79	0xbded3933	-0.115831755
80	0x3e4a1b06	0.19736871
81	0x3e90786e	0.2821688
82	0x3e23703b	0.15960781
83	0x3e434732	0.19070128
84	0xbe750441	-0.23927404
85	0xbd5b397e	-0.053521626
86	0xbe23cea9	-0.15996803
87	0xbe27ee24	-0.16399437
88	0xbe800120	-0.25000858
89	0x3db02880	0.08601475
90	0x3c1a3eeb	0.009414415
91	0x3d110cde	0.03541266
92	0x3d2e8827	0.042610314
93	0xbe62dd7f	-0.22154807
94	0x3dd806f0	0.10548198
95	0x3e67cd79	0.22636975
96	0xbeb9e686	-0.36308688
97	0x3eb1d613	0.34733638
98	0xbcc86b18	-0.024465129
99	0xbe178443	-0.14796548
100	0x3cfa699b	0.030567935
101	0xbdd06f70	-0.10177505
102	0xbec4dd35	-0.38450018
103	0x3e5bb3f4	0.21455365
104	0xbdb5ae79	-0.08871169
105	0x3e1d57b5	0.15365489
106	0x3e045a72	0.12925127
107	0xbe5e8c26	-0.2173315
108	0x3ef9d2af	0.4879355
109	0x3e23cab7	0.15995298
110	0xbe513a51	-0.20432402
111	0xbea4ba9c	-0.32173622
112	0x3d54d26f	0.051958498
113	0xbe6805c2	-0.22658446
114	0x3ec44ed7	0.383414
115	0xbeea94df	-0.45816705
116	0xbd0d33c7	-0.034473207
117	0x3e34a05e	0.176393
118	0xbe49336d	-0.19648524
119	0x3deb1609	0.11478812
120	0x3e5727e1	0.21011306
121	0xbd107d01	-0.035275463
122	0xbe96a186	-0.29420108
123	0xbdc06b13	-0.09395423
124	0x3e0c0f4a	0.13677707
125	0x3ddfe560	0.10932422
126	0x3dde76eb	0.108625256
127	0x3f1407eb	0.5782458
128	0xbe32ffe4	-0.17480427
129	0xbce121fa	-0.027482022
130	0xbbe9ac12	-0.007131108
131	0x3ec0cb77	0.3765523
132	0x3d22ca64	0.039743796
133	0x3eab857f	0.33500287
134	0x3d32ff64	0.04370059
135	0x3e9bc396	0.30422658
136	0xbd68f6c7	-0.05687597
137	0xbd600e18	-0.05470094
138	0x3ed256fe	0.41081995
139	0x3d62cdf0	0.05537218

encoder_variable_selection.flattened_grn.fc1.bias f4 [4]
0	0xbcca1944	-0.02467025
1	0xbc60c871	-0.013719664
2	0x3c6b803c	0.014373835
3	0x3cbdbee7	0.023162318

encoder_variable_selection.flattened_grn.context.weight f4 [4, 16]
0	0xbb52e0e1	-0.0032177495
1	0xbe827523	-0.25479993
2	0x3edaef01	0.4276047
3	0xbe94dc44	-0.290743
4	0x3eb4f55b	0.3534344
5	0xbdd16f52	-0.10226311
6	0xbed9435e	-0.4243421
7	0xbdbc01ff	-0.09180068
8	0xbe748ff6	-0.23883042
9	0xbcaccbfa	-0.021093357
10	0xbea2fe61	-0.318347
11	0x3d03a941	0.032143835
12	0x3e94e4b4	0.29080737
13	0x3ee2a081	0.4426308
14	0xbeeb1df4	-0.4592129
15	0x3e104505	0.14088829
16	0x3e80fe4e	0.2519402
17	0x3e670cb9	0.22563447
18	0xbebbce17	-0.36680672
19	0x3eae8286	0.34083956
20	0x3e033879	0.12814511
21	0x3bd335a5	0.006445604
22	0x3e0fda30	0.14048076
23	0xbe57511a	-0.21027032
24	0x3d31297d	0.043252457
25	0xbe3fc601	-0.18727876
26	0xbe2b7d95	-0.16747124
27	0xbe2cc379	-0.16871442
28	0xbe78236f	-0.24232267
29	0x3debf0cf	0.1152054
30	0x3ede833a	0.43459493
31	0xbb8c870e	-0.0042885607
32	0xbe6b8b93	-0.23002462
33	0xbe93a5f3	-0.28837547
34	0x3e84a381	0.25905994
35	0x3eb00d2f	0.34385058
36	0xbdf6e052	-0.120545045
37	0x3ea05306	0.31313342
38	0xbd8294b1	-0.06376017
39	0x3dad811d	0.08471892
40	0x3e9e13b3	0.30874404
41	0xbe21be82	-0.15795329
42	0xbe422398	-0.1895889
43	0x3da05b86	0.07829957
44	0xbe465281	-0.1936741
45	0x3eb5a67a	0.35478574
46	0x3f07dbe0	0.5306988
47	0xbe43b80a	-0.19113174
48	0xbef0e966	-0.4705307
49	0x3ef8aaa9	0.48567703
50	0x3ecc4b4e	0.39901203
51	0x3df3e67d	0.119091965
52	0x3dd24684	0.10267356
53	0x3e01370f	0.1261866
54	0x3e9db28b	0.3080028
55	0x3e9e4709	0.3091357
56	0xbed38ee7	-0.41319963
57	0xbe864def	-0.26231334
58	0xbec18ad7	-0.3780124
59	0x3ed6e69b	0.41972813
60	0xbefc7d52	-0.49314362
61	0xbe344da9	-0.1760775
62	0xbf0223db	-0.5083596
63	0xbefbc194	-0.49171126

encoder_variable_selection.flattened_grn.fc2.weight f4 [4, 4]
0	0x3ea9eabb	0.33186898
1	0x3e7d1c9c	0.24717945
2	0xbf73cffa	-0.9523922
3	0xbf654a8f	-0.8956689
4	0xbf39e368	-0.7261262
5	0x3eded341	0.4352055
6	0x3eed8494	0.46390212
7	0x3e391d54	0.18077594
8	0x3f4bd78d	0.7962578
9	0xbd46952c	-0.048482105
10	0xbe81f4af	-0.2538199
11	0xbe905b5a	-0.28194696
12	0x3e7694d2	0.24080208
13	0xbf73fa96	-0.9530424
14	0xbfe213aa	-1.7662251
15	0xbf1fbe45	-0.62399703

encoder_variable_selection.flattened_grn.fc2.bias f4 [4]
0	0xbd6a1ae2	-0.057154544
1	0x3c0e98e6	0.008703446
2	0xbb2ce91c	-0.0026384061
3	0x3c9fde51	0.019515188

encoder_variable_selection.flattened_grn.gate_norm.glu.fc.weight f4 [8, 4]
0	0xbe104a47	-0.14090835
1	0xbf13345a	-0.5750176
2	0x3ecf2976	0.4046132
3	0xbf0ca6bf	-0.54941934
4	0x3f0a8237	0.5410494
5	0xbeb12aa4	-0.34602845
6	0x3d681e26	0.056669377
7	0x3e9ec288	0.3100779
8	0x3e76f49d	0.2411675
9	0x3f00b47b	0.5027539
10	0xbeda5322	-0.4264155
11	0x3e578f9e	0.2105088
12	0xbec740d8	-0.3891666
13	0xbd59b5d1	-0.05315191
14	0xbd2372d0	-0.039904416
15	0x3eabb7d4	0.33538687
16	0x3cdfeaf9	0.027333723
17	0xbf21bd61	-0.63179594
18	0xbea99c67	-0.33127138
19	0x3e2ecef4	0.17071134
20	0x3eb3a055	0.3508326
21	0x3f0f102f	0.5588407
22	0xbe29d62c	-0.16585606
23	0xbedbd18c	-0.4293331
24	0xbf07f373	-0.5310585
25	0x3f0d06cc	0.55088496
26	0xbf1c5918	-0.61073446
27	0xbef9fc0e	-0.48825115
28	0xbcd383b8	-0.025819644
29	0x3c5687e9	0.013093927
30	0xbebb3814	-0.36566222
31	0xbf13c010	-0.5771494

encoder_variable_selection.flattened_grn.gate_norm.glu.fc.bias f4 [8]
0	0xbcbb79a5	-0.022885153
1	0xbd2ed3d7	-0.042682495
2	0xbc1ed300	-0.009693861
3	0x3d68c46a	0.05682794
4	0x3ab7db78	0.0014027199
5	0xbd2f41a2	-0.0427872
6	0xbacc2255	-0.0015574197
7	0x3c825ff9	0.015914904

encoder_variable_selection.flattened_grn.gate_norm.add_norm.norm.weight f4 [4]
0	0x3f7c9dec	0.9867847
1	0x3f745ea3	0.95456904
2	0x3f812ecb	1.0092405
3	0x3f8b4b10	1.0882282

encoder_variable_selection.flattened_grn.gate_norm.add_norm.norm.bias f4 [4]
0	0xbd800871	-0.0625161
1	0xbd7f59a9	-0.062341366
2	0x3c0451a8	0.008076109
3	0x3dc8feb5	0.098142065

encoder_variable_selection.single_variable_grns.TEAM_ID.mask f4 [16]
0	0x3b86175d	0.0040921406
1	0x3c6b18ab	0.014349143
2	0x3bd02b11	0.00635279
3	0xbd138d0e	-0.036023192
4	0xbc28d4dd	-0.010304657
5	0x3c35a7e4	0.0110873915
6	0x3cab6b00	0.020925045
7	0xbcd33c5a	-0.025785614
8	0xbbc0b508	-0.0058809556
9	0x3c39d658	0.011342607
10	0x3c443694	0.011975903
11	0x3c6bc2d7	0.014389715
12	0x37fa5c58	2.9845323e-05
13	0x3ca9741f	0.020685254
14	0xbc92ee5d	-0.017935926
15	0xbc368bb5	-0.011141707

encoder_variable_selection.single_variable_grns.TEAM_ID.norm.weight f4 [16]
0	0x3f837d9f	1.0272712
1	0x3f821ba3	1.0164684
2	0x3f7ef083	0.9958574
3	0x3f70b312	0.9402324
4	0x3f7d0fe5	0.9885238
5	0x3f82df8f	1.0224475
6	0x3f81e34c	1.014749
7	0x3f758ae0	0.9591503
8	0x3f8010d2	1.0005133
9	0x3f8156a2	1.0104563
10	0x3f82d04d	1.0219818
11	0x3f81c0f4	1.013701
12	0x3f7bd142	0.9836618
13	0x3f81d8f0	1.0144329
14	0x3f727e26	0.9472374
15	0x3f76ae0b	0.9635932

encoder_variable_selection.single_variable_grns.TEAM_ID.norm.bias f4 [16]
0	0x3ca52c9b	0.020162871
1	0x3d6fb044	0.05851771
2	0x3d46ae68	0.04850617
3	0xbd994b33	-0.07485046
4	0xbd679d1f	-0.056546327
5	0xbd3004aa	-0.042973198
6	0x3c54d07f	0.0129891625
7	0xbc8ed277	-0.017434342
8	0xbda4dc85	-0.08049873
9	0xbbd7f493	-0.006590435
10	0x3d5f4284	0.054506794
11	0x3d5903b9	0.052982066
12	0x3d99ab44	0.075033695
13	0x3c45b9e7	0.012068248
14	0x3d343514	0.04399593
15	0xbc80bc55	-0.015714804

encoder_variable_selection.single_variable_grns.time_idx.resample_norm.mask f4 [16]
0	0xbd78b21d	-0.060716737
1	0x3d995bce	0.074882135
2	0x3c773bfa	0.015089983
3	0xbd646902	-0.055764206
4	0xbd90fddb	-0.07079669
5	0xbda6651d	-0.081247546
6	0x3d4e7002	0.050399788
7	0x3c7a6b24	0.015284333
8	0xbd7ae032	-0.061248966
9	0xbd1e9115	-0.03871258
10	0x3d736715	0.05942448
11	0x3d81da5d	0.063404776
12	0x3d3e550a	0.04646782
13	0x3d322bd8	0.043498844
14	0x3d13c01d	0.036071885
15	0xbce16fce	-0.027519133

encoder_variable_selection.single_variable_grns.time_idx.resample_norm.norm.weight f4 [16]
0	0x3f6fd373	0.9368202
1	0x3f85cfca	1.0454037
2	0x3f71597c	0.9427717
3	0x3f88989f	1.0671576
4	0x3f6fe2d5	0.93705493
5	0x3f71dc94	0.944772
6	0x3f74654d	0.9546707
7	0x3f768381	0.9629441
8	0x3f8a0a5c	1.0784411
9	0x3f815e8e	1.0106981
10	0x3f881c32	1.0633605
11	0x3f8862a7	1.0655106
12	0x3f7966a3	0.97422236
13	0x3f76215f	0.9614467
14	0x3f725c74	0.9467232
15	0x3f82c592	1.0216544

encoder_variable_selection.single_variable_grns.time_idx.resample_norm.norm.bias f4 [16]
0	0xbd311c96	-0.043240152
1	0x3da58f01	0.080839165
2	0x3d405ce4	0.046963587
3	0xbda6df70	-0.08148086
4	0xbd940e2a	-0.07229264
5	0xbdafe5bd	-0.08588741
6	0x3d85cb3a	0.06532903
7	0x3d01a1e7	0.031648543
8	0xbdc29060	-0.095001936
9	0xbd609a60	-0.054834723
10	0x3d74990e	0.059716277
11	0x3d78fd68	0.060788542
12	0x3d96f750	0.0737139
13	0x3d579905	0.052636165
14	0x3d853821	0.06504846
15	0xbd2cb013	-0.042160105

encoder_variable_selection.single_variable_grns.time_idx.fc1.weight f4 [8, 8]
0	0xbefff1d6	-0.49989194
1	0xbeabc8e6	-0.3355171
2	0xbddce6e7	-0.107862286
3	0x3dbf9afe	0.09355734
4	0xbc49fcf5	-0.012328376
5	0xbc00ea8e	-0.007868422
6	0x3ee8ea8e	0.4549145
7	0x3f07daf0	0.5306845
8	0x3f3ffbce	0.749936
9	0x3efd2fb3	0.49450454
10	0xbf454663	-0.77060527
11	0x3f1cd4a2	0.6126195
12	0x3e871371	0.2638202
13	0xbeb0d566	-0.3453781
14	0x3f921498	1.1412535
15	0x3e31d4a9	0.1736628
16	0x3e9b0d17	0.30283424
17	0x3f31dfaf	0.6948194
18	0x3f225ebd	0.6342581
19	0xbf373e78	-0.71579695
20	0xbec75f8a	-0.38940078
21	0x3e2887cc	0.16458052
22	0x3e86ec17	0.26351997
23	0x3c57aaaf	0.013163253
24	0x3da6b589	0.08140094
25	0xbd918ad2	-0.07106556
26	0x3f3b0641	0.7305642
27	0x3d44deb8	0.048063964
28	0xbc955c29	-0.018232422
29	0x3dd21807	0.10258489
30	0x3db1f5bb	0.086894475
31	0xbd89ce7c	-0.06728837
32	0x3e0e7dab	0.13915126
33	0x3e873430	0.26407003
34	0xbe13f649	-0.14449419
35	0xbe163bc1	-0.14671232
36	0x3d9266e1	0.07148529
37	0xbf8f6e9a	-1.1205628
38	0x3c6c3a12	0.014418142
39	0xbee97015	-0.45593324
40	0x3dd1ffa8	0.10253841
41	0x3f2b958c	0.67025065
42	0x3e99a372	0.3000751
43	0x3ed55df3	0.4167324
44	0xbf52eb42	-0.82390225
45	0xbda84d23	-0.08217838
46	0xbea9b915	-0.3314902
47	0xbe230c92	-0.15922764
48	0x3f868be6	1.0511444
49	0x3d44d617	0.048055734
50	0x3d8f4adb	0.069966994
51	0x3f916fea	1.1362278
52	0xbf74adfc	-0.9557798
53	0xbee1ef6b	-0.44127974
54	0xbf0826d8	-0.5318427
55	0xbe83eb91	-0.2576566
56	0x3e7dc149	0.24780764
57	0xbf2e5757	-0.6810202
58	0x3e0b300a	0.13592544
59	0x3e9d62fc	0.30739582
60	0x3e835e78	0.2565801
61	0xbee0630f	-0.43825576
62	0xbf3ec4c7	-0.7451901
63	0xbe2a0624	-0.16603905

encoder_variable_selection.single_variable_grns.time_idx.fc1.bias f4 [8]
0	0xbd6b82c2	-0.057497747
1	0xbd22fd2b	-0.03979222
2	0x3cddc53f	0.027071593
3	0xbd6dd210	-0.05806166
4	0x3b9c550c	0.0047708806
5	0xbd806b70	-0.06270492
6	0x3d89a06a	0.0672005
7	0x3d929a77	0.07158368

encoder_variable_selection.single_variable_grns.time_idx.fc2.weight f4 [8, 8]
0	0xbf6488dc	-0.8927133
1	0xbf805f57	-1.0029095
2	0x3f82a6b0	1.0207119
3	0x3dde93d7	0.10868042
4	0x3f013e96	0.50486124
5	0xbf5f1304	-0.8713839
6	0x3f290157	0.6601767
7	0x3efb1d2a	0.49045688
8	0x3e58332d	0.21113272
9	0x3dc3d7ba	0.09562631
10	0x3ef77767	0.48333284
11	0xbd8576cd	-0.065168
12	0x3f125562	0.57161534
13	0xbe7f804b	-0.24951284
14	0xbdfeb4ff	-0.12436866
15	0xbf447aba	-0.76749766
16	0xbf63e7bb	-0.8902547
17	0x3e34ed44	0.17668635
18	0x3e9afb98	0.30270076
19	0xbf713e82	-0.94236004
20	0x3dc83f33	0.09777679
21	0x3ed668ad	0.41876736
22	0x3eda6ba6	0.42660254
23	0xbe5a733e	-0.21333024
24	0x3eaa238b	0.33230242
25	0x3e3ad615	0.18245728
26	0x3e853f15	0.2602469
27	0xbf0ca8f4	-0.549453
28	0xbe8218fa	-0.2540968
29	0xbe5079df	-0.2035899
30	0x3e8ffd7f	0.2812309
31	0xbf88cf32	-1.0688231
32	0xbf24533a	-0.64189494
33	0x3dff039a	0.12451859
34	0x3dc329f6	0.09529488
35	0xbe3399fc	-0.17539209
36	0xbcd217a5	-0.02564604
37	0x3fa57287	1.2925576
38	0xbe69fe6d	-0.22850962
39	0xbf0328ec	-0.51234317
40	0x3f188de0	0.59591484
41	0xbe4e9617	-0.20174442
42	0x3ea07222	0.31337076
43	0xbf95318c	-1.1655746
44	0x3ec1978c	0.37810934
45	0xbf7a09b1	-0.9767104
46	0xbd52095d	-0.05127846
47	0xbe75b804	-0.23995978
48	0x3ca2737c	0.019830458
49	0xbd81f7d0	-0.063460946
50	0xbecc878f	-0.39947173
51	0x3ec4727d	0.38368598
52	0x3dff9534	0.1247963
53	0xbeb6df0e	-0.35717052
54	0x3c542528	0.012948312
55	0x3f020cc0	0.50800705
56	0x3dccf66e	0.1000794
57	0x3f3d2ebb	0.7389943
58	0xbefe5927	-0.49677393
59	0x3f1f31f8	0.6218562
60	0xbf6bd10d	-0.9211586
61	0x3eb49b20	0.352746
62	0x3ddcf756	0.10789363
63	0xbe43743c	-0.19087309

encoder_variable_selection.single_variable_grns.time_idx.fc2.bias f4 [8]
0	0x3d767776	0.06017252
1	0xbd8ee001	-0.06976319
2	0x3d7fdfab	0.062469166
3	0xbbe201ce	-0.006897188
4	0xbd78aa0d	-0.060709048
5	0xbbd6ed36	-0.0065590395
6	0xbc788e2f	-0.015170618
7	0x3d317c0a	0.043331183

encoder_variable_selection.single_variable_grns.time_idx.gate_norm.glu.fc.weight f4 [32, 8]
0	0x3e092496	0.13392863
1	0x3e88cd56	0.2671916
2	0x3e5f7152	0.21820572
3	0xbea47d26	-0.3212673
4	0x3c70c553	0.014695483
5	0x3d584631	0.052801315
6	0xbdb05ba0	-0.08611226
7	0xbece1be1	-0.40255645
8	0x3e1b6298	0.1517433
9	0xbe20f224	-0.1571737
10	0x3e9734fb	0.29532608
11	0x3e98d436	0.29849404
12	0xbe5451b1	-0.20734288
13	0xbca3da43	-0.020001536
14	0x3e15d36b	0.14631431
15	0xbe852fad	-0.26012936
16	0x3e8e8807	0.27838156
17	0x3e729b05	0.23691948
18	0xbd314ae7	-0.043284323
19	0x3e20492e	0.15652916
20	0xbdb1b28d	-0.08676634
21	0x3d3c522e	0.04597681
22	0xbed1173f	-0.40838048
23	0x3ed4def2	0.41576344
24	0x3e019962	0.12656167
25	0x3e077775	0.13229163
26	0x3e5d0778	0.2158488
27	0x3e7d2ada	0.24723378
28	0x3d421606	0.047384284
29	0x3ead06fb	0.33794388
30	0x3e2d5133	0.16925506
31	0xbec71ac1	-0.388876
32	0xbda23f35	-0.07922212
33	0x3e5a21ea	0.21302
34	0xbe941ac5	-0.28926674
35	0xbeb4b989	-0.35297802
36	0xbdb423c5	-0.08795885
37	0xbe957e7b	-0.2919806
38	0xbd5f9115	-0.05458172
39	0x3e2a6812	0.16641262
40	0xbed0e3af	-0.4079871
41	0x3e9d2a0e	0.30696148
42	0xbeb2dfc4	-0.34936345
43	0x3d17366e	0.036917143
44	0x3e0a486f	0.13504194
45	0x3e0781a1	0.13233043
46	0x3eb37799	0.35052183
47	0xbebad16d	-0.36487904
48	0xbe9934d3	-0.29923114
49	0xbe828529	-0.25492218
50	0x3e6b0bc8	0.22953713
51	0x3e9b3180	0.30311203
52	0x3e607f30	0.21923518
53	0x3e44f50f	0.19234107
54	0xbdaf322d	-0.08554492
55	0xbe8cc930	-0.27497244
56	0x3e996b5a	0.29964715
57	0x3ec5e30a	0.3864978
58	0x3e992aae	0.29915375
59	0xbeaea433	-0.3410965
60	0x3e6c95e3	0.23104052
61	0x3e9c8237	0.30568096
62	0xbd54696b	-0.051858347
63	0x3e5a6b00	0.2132988
64	0xbe8dd25d	-0.27699557
65	0x3e39024e	0.18067285
66	0xbe806412	-0.25076348
67	0x3ec359f4	0.38154566
68	0x3e59fa87	0.21286975
69	0xbe1f6d79	-0.15569104
70	0x3e2aee6f	0.16692518
71	0xbe808dab	-0.25108084
72	0xbec479ab	-0.38374075
73	0xbdadac12	-0.084800854
74	0x3df26e63	0.11837461
75	0xbc9e6021	-0.019332947
76	0xbeb222d9	-0.34792212
77	0x3d2825bc	0.04105161
78	0xbcb63262	-0.022240821
79	0xbe8da46f	-0.27664515
80	0xbd4db50a	-0.05022148
81	0xbc37162c	-0.01117472
82	0xbe15037b	-0.14552109
83	0xbe331ad7	-0.17490707
84	0xbeb46070	-0.35229826
85	0x3e5f9e90	0.2183783
86	0xbe68465c	-0.2268309
87	0x3a5dc644	0.0008460025
88	0xbe81ce90	-0.25352907
89	0x3d47f7e6	0.0488204
90	0x3e61047d	0.21974368
91	0xbe43f676	-0.19136986
92	0xbd6d4f20	-0.057936788
93	0xbc63236b	-0.013863425
94	0x3d861656	0.06547229
95	0xbe6761e7	-0.2259594
96	0x3dda81bb	0.106692754
97	0xbdfc832a	-0.12329705
98	0x3e428b0a	0.18998352
99	0xbebed9e3	-0.3727561
100	0x3e55506a	0.20831457
101	0xbdde78dd	-0.108628966
102	0x3e3f8b72	0.18705538
103	0xbe15287e	-0.14566228
104	0x3e933dce	0.2875809
105	0xbcf87a6e	-0.030331817
106	0xbd37248c	-0.04471259
107	0xbdd73ded	-0.10509858
108	0x3c676d08	0.014125116
109	0xbed144e9	-0.40872887
110	0xbe0d7773	-0.13815098
111	0x3ec8cf91	0.3922086
112	0x3e29ae12	0.16570309
113	0xbe06d11a	-0.13165703
114	0xbeb6dd5c	-0.3571576
115	0x3e9593ae	0.29214233
116	0x3e2658fe	0.16244885
117	0x3dd3c7c4	0.10340837
118	0x3e70d2c3	0.23517899
119	0x3ea82c94	0.3284651
120	0xbe6a637e	-0.22889516
121	0xbe264c97	-0.16240154
122	0xbe8c6443	-0.27420244
123	0xbd4b349d	-0.049610723
124	0xbbb7de4e	-0.0056112176
125	0x3e7e5500	0.24837112
126	0xbe2ec65b	-0.17067854
127	0x3daf2134	0.08551255
128	0xbdcf88ee	-0.10133539
129	0x3e845a1e	0.25850004
130	0xbd42669b	-0.047461133
131	0xbd5c0e56	-0.05372461
132	0x3e8a9d56	0.27073163
133	0xbec5fd59	-0.3866985
134	0x3e0a3e75	0.13500388
135	0xbe8c5ca5	-0.27414432
136	0x3dbf650a	0.093454435
137	0x3eaccd6d	0.33750477
138	0xbeac9d28	-0.3371365
139	0xbdefb08e	-0.11703597
140	0xbd29c0a5	-0.041443486
141	0x3e3d6872	0.18496874
142	0xbe60960c	-0.21932238
143	0xbe95a437	-0.29226848
144	0xbe86765c	-0.26262176
145	0xbe286ff8	-0.16448963
146	0x3e1e4ed7	0.15459763
147	0x3e56c3a0	0.20973063
148	0x3d65dca3	0.05611862
149	0xbeb89b7b	-0.36056122
150	0xbe860094	-0.26172316
151	0x3eaea178	0.34107566
152	0x3ec2c0d7	0.3803775
153	0x3de1c79b	0.110244
154	0x3e934508	0.28763604
155	0x3e987730	0.29778433
156	0x3d4b9404	0.049701706
157	0xbe160e98	-0.14654005
158	0xbd0d7478	-0.0345349
159	0xbe9937b1	-0.29925302
160	0xbdf9f2e8	-0.12204534
161	0x3eb96ffa	0.36218244
162	0x3ec87e6c	0.39158952
163	0x3e031854	0.12802249
164	0xbc294b5b	-0.010332908
165	0x3ed36bff	0.41293332
166	0x3dc2874d	0.09498463
167	0xbe535dec	-0.20641297
168	0x3e3149a2	0.17313245
169	0x3ebca00e	0.36840862
170	0xbe9073db	-0.2821339
171	0xbe8a1fc4	-0.2697736
172	0xbd37b6f0	-0.044852197
173	0x3e831a5d	0.2560605
174	0xbbcec8a4	-0.0063105393
175	0xbe5e6540	-0.21718311
176	0xbdee7bc4	-0.116447
177	0x3e4b6a8e	0.19864866
178	0x3dbe5b01	0.09294701
179	0xbe7b4851	-0.24539305
180	0xbeb7962a	-0.35856754
181	0x3e819d99	0.2531555
182	0xbe9b8a9e	-0.30379194
183	0x3d60a83e	0.05484795
184	0x3d7e4aac	0.06208293
185	0x3e927c26	0.28610343
186	0xbe7344a9	-0.2375666
187	0xbeaa21f4	-0.3322903
188	0xbd47a3ea	-0.048740305
189	0x3ebd66a9	0.36992386
190	0x3e972e75	0.2952763
191	0x3ebf756a	0.37394267
192	0xbe303e99	-0.17211379
193	0x3eb8ef43	0.36120042
194	0x3e5c07fc	0.21487421
195	0xbea12564	-0.3147384
196	0xbe6781a5	-0.22608049
197	0xbe1f3d7f	-0.15550803
198	0xbe6f3787	-0.23361026
199	0xbe1a2c4c	-0.1505596
200	0xbe3353a9	-0.17512383
201	0x3d8bca17	0.06825655
202	0xbe2d4385	-0.16920288
203	0x3d8fbc96	0.07018392
204	0xbe7b7c6b	-0.2455918
205	0x3eb4b317	0.35292885
206	0x3ea4fd1d	0.3222436
207	0xbeb9867e	-0.36235422
208	0xbd8afca9	-0.06786472
209	0xbeadca82	-0.33943564
210	0xbe687906	-0.22702417
211	0x3e21eea4	0.1581369
212	0xbe32218a	-0.17395607
213	0xbc483bea	-0.012221316
214	0x3de9093c	0.113787144
215	0xbcb06889	-0.021534221
216	0x3e8e3328	0.27773404
217	0x3d7cc73a	0.061713435
218	0xbde81381	-0.11331845
219	0x3e8d47df	0.27593896
220	0x3c82a2aa	0.015946705
221	0x3e6d2099	0.23156966
222	0xbeaea5d6	-0.34110898
223	0xbe5625ee	-0.20912907
224	0xbe8a6684	-0.27031338
225	0xbeb979d3	-0.36225757
226	0xbd0cb8f1	-0.03435606
227	0x3ebf1496	0.37320393
228	0xbe4a1f6a	-0.19738546
229	0xbac888b5	-0.0015299531
230	0x3ddfae11	0.109218724
231	0xbe7b7dec	-0.24559754
232	0x3d42aa0a	0.047525443
233	0xbe49c36a	-0.19703451
234	0xbdb117ea	-0.08647139
235	0xbe1ba0e7	-0.15198098
236	0xbeb90eb0	-0.36144018
237	0xbec8af57	-0.39196274
238	0xbd0ab697	-0.033865537
239	0xbd17cec3	-0.037062418
240	0xbe502805	-0.20327766
241	0x3e574d35	0.21025546
242	0xbcf439cf	-0.029812722
243	0x3ea871c9	0.3289931
244	0xbdb5ae1a	-0.08871098
245	0xbeb0262e	-0.3440413
246	0x3e2e50b2	0.1702297
247	0xbe70469a	-0.23464432
248	0x3e5cb82a	0.21554628
249	0xbda6a730	-0.08137357
250	0xbd351686	-0.044210933
251	0x3df7e59c	0.121043414
252	0x3e78da16	0.24301943
253	0xbe93b67f	-0.2885017
254	0xbc026c9d	-0.007960466
255	0xbe2b624b	-0.16736715

encoder_variable_selection.single_variable_grns.time_idx.gate_norm.glu.fc.bias f4 [32]
0	0xbd1781d7	-0.03698906
1	0x3d8bd8c7	0.06828456
2	0x3d322472	0.04349179
3	0xbd895b91	-0.06706918
4	0xbd2722fe	-0.040804856
5	0xbd5b2e38	-0.053510875
6	0x3d2e6a87	0.04258206
7	0x3ca9ac5f	0.020712076
8	0xbda0d038	-0.078522146
9	0xbcc98f52	-0.024604473
10	0x3d2de426	0.042453907
11	0x3d2cb4c9	0.042164598
12	0x3d574bb3	0.052562427
13	0x3d23bc47	0.039974477
14	0x3d4a854e	0.049443536
15	0xbd14fe7e	-0.036375515
16	0x3c5e448a	0.013566146
17	0xbd2979c1	-0.04137588
18	0x3c4df217	0.012569926
19	0x3d2d19b6	0.042260848
20	0xbcd640ed	-0.026154006
21	0x3cef16f7	0.029185755
22	0xbcd237cc	-0.025661372
23	0xbb47b2fe	-0.0030471678
24	0xbc0be0c1	-0.008537472
25	0x3c44401f	0.011978178
26	0xbc1c24cd	-0.009530258
27	0xbc95a0fb	-0.018265238
28	0x3bc0052a	0.0058599906
29	0x3ce7003a	0.02819835
30	0x3c0d158a	0.008611092
31	0x3b0a9420	0.0021145418

encoder_variable_selection.single_variable_grns.time_idx.gate_norm.add_norm.norm.weight f4 [16]
0	0x3f71e10a	0.9448401
1	0x3f7c82e6	0.98637235
2	0x3f713bfc	0.94232154
3	0x3f8992f7	1.0747975
4	0x3f6e42c8	0.9307065
5	0x3f75f01c	0.960695
6	0x3f70a326	0.93998945
7	0x3f74f602	0.9568788
8	0x3f8921a2	1.0713389
9	0x3f7ce7c1	0.9879113
10	0x3f86e3f6	1.0538318
11	0x3f89181d	1.0710484
12	0x3f7b0d42	0.98067105
13	0x3f75fe20	0.9609089
14	0x3f70827a	0.9394909
15	0x3f81f53a	1.0152962

encoder_variable_selection.single_variable_grns.time_idx.gate_norm.add_norm.norm.bias f4 [16]
0	0xbd1328e6	-0.035927676
1	0x3da58b0a	0.0808316
2	0x3d6050d9	0.054764602
3	0xbda19eb6	-0.078916
4	0xbd8bed40	-0.06832361
5	0xbda6fd23	-0.08153751
6	0x3d870217	0.065921955
7	0x3d12fb15	0.03588398
8	0xbdbb7412	-0.09152998
9	0xbd52fb3e	-0.051509134
10	0x3d55a256	0.05215677
11	0x3d811101	0.06302071
12	0x3d97f80b	0.07420357
13	0x3d6d1556	0.057881676
14	0x3d933054	0.07186952
15	0xbd1d5d37	-0.038418975

encoder_variable_selection.single_variable_grns.relative_time_idx.resample_norm.mask f4 [16]
0	0xbaa4a16b	-0.0012560313
1	0x3d808fc8	0.06277424
2	0xbc2af1ed	-0.010433656
3	0xbd8cf164	-0.06881979
4	0xbbba671c	-0.005688561
5	0x3cfcda68	0.030865863
6	0x3977ac1c	0.00023619871
7	0xbc42c82b	-0.011888544
8	0xbd8373f1	-0.064185984
9	0xbd204a9a	-0.039133646
10	0xbc68e99d	-0.014215854
11	0xbcd7ef8f	-0.026359348
12	0x3d77d720	0.060507894
13	0x3d42053d	0.047368277
14	0x3d55d51f	0.0522052
15	0xbd4dbb73	-0.050227594

encoder_variable_selection.single_variable_grns.relative_time_idx.resample_norm.norm.weight f4 [16]
0	0x3f7c1169	0.98464066
1	0x3f8527b7	1.0402745
2	0x3f80a7b2	1.0051177
3	0x3f6de27b	0.92923707
4	0x3f82b006	1.0209968
5	0x3f88989c	1.0671573
6	0x3f8212a0	1.0161934
7	0x3f7b8ad5	0.98258716
8	0x3f79cee5	0.9758132
9	0x3f76b840	0.96374893
10	0x3f77429c	0.9658601
11	0x3f701a0b	0.9378974
12	0x3f87a589	1.0597392
13	0x3f8733a4	1.0562634
14	0x3f87aca8	1.0599566
15	0x3f7258ea	0.9466692

encoder_variable_selection.single_variable_grns.relative_time_idx.resample_norm.norm.bias f4 [16]
0	0x3bf18270	0.0073702857
1	0x3dab7bbe	0.08373211
2	0x3b8b693d	0.0042544887
3	0xbda74b39	-0.081686445
4	0xbd3f76fa	-0.046744324
5	0xbd85bcec	-0.065301746
6	0xbc26f542	-0.01019031
7	0x3c86470b	0.016391298
8	0xbdc074c7	-0.093972735
9	0xbd505e3e	-0.050871126
10	0x3d0cae8b	0.034346145
11	0x3d8397b6	0.06425421
12	0x3da074ea	0.078347996
13	0x3d4bc423	0.049747597
14	0x3d618326	0.055056714
15	0xbd57d787	-0.052695777

encoder_variable_selection.single_variable_grns.relative_time_idx.fc1.weight f4 [8, 8]
0	0xbeaf307d	-0.3421668
1	0x3e13a208	0.14417279
2	0xbe106deb	-0.1410443
3	0xbe05fdc2	-0.13085082
4	0xbf1ba896	-0.60804117
5	0x3ef001ea	0.4687646
6	0xbea88c79	-0.32919672
7	0x3e385c6c	0.18004006
8	0xbe329af1	-0.17441918
9	0xbe4629d0	-0.19351888
10	0x3e447b27	0.19187604
11	0xbe3e9e0d	-0.18614979
12	0xbf10a144	-0.5649607
13	0xbebcdf25	-0.36888996
14	0x3ecb9bb6	0.39767236
15	0xbf3da046	-0.7407268
16	0xbe6ba058	-0.23010385
17	0xbf0c89f4	-0.54898
18	0xbe5b2593	-0.21401052
19	0x3f114e85	0.56760436
20	0xbf38eab0	-0.72233105
21	0x3e48d006	0.19610605
22	0x3ececef3	0.40392265
23	0x3f617873	0.88074416
24	0xbdd93ac2	-0.1060691
25	0x3e3983cb	0.18116681
26	0x3f6cb7cd	0.9246796
27	0xbb977c37	-0.004622962
28	0xbee44a42	-0.44587904
29	0xbe2f6666	-0.17128906
30	0x3d8e4e0a	0.069484785
31	0x3e6f856a	0.23390737
32	0x3e2a461b	0.16628306
33	0xbda42453	-0.08014741
34	0xbdba3244	-0.09091619
35	0xbee3d3cd	-0.4449753
36	0x3e3135c9	0.17305674
37	0x3e6ba315	0.2301143
38	0xbe9ef931	-0.31049493
39	0x3e75abe2	0.2399135
40	0x3fa39da8	1.2782488
41	0xbf4fcd1e	-0.8117236
42	0xbd741b46	-0.059596322
43	0xbe8f82ad	-0.28029385
44	0xbf0bded8	-0.5463691
45	0x3e315192	0.17316273
46	0x3e0ae0ee	0.13562366
47	0xbd9e7685	-0.077374496
48	0x3dfcf253	0.12350907
49	0x3dbd7bc7	0.09252124
50	0x3ec87499	0.39151457
51	0x3e847c3f	0.25876042
52	0xbed83f18	-0.42235637
53	0x3eaba6aa	0.33525592
54	0x3f4ea36e	0.80718124
55	0xbf159fcd	-0.5844696
56	0xbe90c6d8	-0.28276706
57	0xbf83eafe	-1.0306089
58	0x3e37d2bd	0.17951484
59	0x3e28b4eb	0.16475265
60	0x3f5e00a3	0.8671972
61	0xbe511014	-0.2041629
62	0x3ee55f51	0.44799283
63	0x3de96466	0.113961026

encoder_variable_selection.single_variable_grns.relative_time_idx.fc1.bias f4 [8]
0	0x3c90540d	0.017618204
1	0xbbf50c96	-0.007478307
2	0xbd812aa0	-0.06306958
3	0xbd4499e2	-0.047998317
4	0x3d732496	0.059361063
5	0x3bb6dd64	0.005580591
6	0xbd92071c	-0.07130262
7	0xbd83c961	-0.06434894
