ml/lightning_logs/lightning_logs/version_0/checkpoints/epoch=1-step=100.ckpt (torch, 561396 bytes, 820 tensors)

input_embeddings.embeddings.TEAM_ID.weight f4 [30, 11]
00000000: 76f5 2f3e 5e15 84bf 4332 c33e dd7f 27bf
00000010: a961 efbd df3e b03b 7386 24be eb79 70bf
00000020: 5638 20c0 650d afbf 5d94 3a3d e405 693e
00000030: d990 e9be 396c d6bf 96d4 d8bd dd86 803f
00000040: f4cb 973f b750 c0bf 3638 8fbe 8f39 6c3e
00000050: b0a6 86bf 155c b6be 94e0 44bf ebd7 0cbe
00000060: a54a 56bf ad32 a53f 244b a53e 554a aabf
00000070: d20c 1b3e 9259 1a3f ca1d 0ebf ac9c cebe
00000080: f978 9f3e f55d d83e 0441 90bf ee42 3c3e
00000090: d664 343f 0d74 8a3f fbf6 86bf 01dd c8bf
000000a0: 1b12 163f eb42 7a3f d8b3 d8bf 9ce8 693f
000000b0: 6b3c 7f3e b03d 623f c9e4 9c3f 71d1 e3bf
000000c0: e03f e3bd 81e1 91be 627b 363f 89ed f1be
000000d0: 2c83 b23e 026d d5bd bb68 843f fac8 c63e
000000e0: 20b5 bdbe fc6f 013f 63ad b53f 22f0 e7bf
000000f0: 1cae ae3f a57d 403e a2ed f7bf 9cdc e6bf
00000100: 2820 9c3f 750a 193f cc6c 7b3e db1b 063f
00000110: 6713 cdbe e1d8 dfbe 2249 833f bcab bebf
00000120: 0789 a7bf aac4 15c0 ea72 403f 5ac5 993f
00000130: e3ed 22bf fa27 11be b364 d6bf a62c 96bf
00000140: 82ae 183c f3be 9d3e 2ee2 d13e 8c0e 4a3f
00000150: df57 68bf 4c38 d93f c7ce 79bf 2bb8 e8bf
00000160: 9b9a 0e3e 72ad 353f 00af bdbf 6f8e 41bf
00000170: 096e 24bf 5038 383f 5270 683e c1e6 a53f
00000180: e895 1a3f d013 bebf 3695 20bf 86d1 e1bf
00000190: 4225 033f 8366 83bd 28d2 8c3e 27d6 cdbf
000001a0: 1d57 9d3f 429f 1e3f 233b 353f 51a1 833f
000001b0: 2f29 d03f 158f 65bf b9b8 263f bcd9 88bf
000001c0: 3bd4 5dbf 359e 2c3f 747c ac3e 6062 303f
000001d0: 9934 3cbf 1cab 26bf 252c ae3c ab41 51bf
000001e0: 6b21 883d c996 04bf 86cc 88bf b966 2f3f
000001f0: 234e 3a3f e340 01bf d0b8 13c0 318c 453f
00000200: d5fa e53e e6e1 c73c 6a16 563f 5b27 4c3e
00000210: 2422 9dbf 9469 773f c655 9abe 83a6 283f
00000220: 20ca 0e3f cba8 42bf 5b92 293f 135a 20bf
00000230: 273f aebf be1e dbbe e67a bcbe 5cee 21c0
00000240: 1ecb a4be 1d1f 09bf 8444 b73c af0f 9ebf
00000250: a4a5 6f3f 8da0 b3bf bc46 96bd ba67 ae3e
00000260: 4eeb acbe 3c45 583f f47e 8f3e 2e5f 1e3e
00000270: 10a7 56bf 9ad4 6a3f dc7a c53d e5ea 25bf
00000280: 7d6a 12c0 93aa eebe 698c fc3e 68b1 80bf
00000290: e784 e03f 9206 4c3f eb06 283f c980 cf3e
000002a0: 2334 cfbe a309 88be a632 e7bf 4848 2a3f
000002b0: 8d58 9dbf c2e1 a63f dfeb 88bf 43be 073f
000002c0: bfa8 9c3e 9db6 48bf 04a5 7ebe e1b4 b1be
000002d0: e674 35bf 38a0 21bf df7a 393f 7fc7 1e3c
000002e0: a8ea aebf 14bc 303f 2b2f 6dbf 9141 363f
000002f0: 07a5 23be 24ef 0ebf 9156 08bf 2ef6 aabf
00000300: 0043 7b3f 800d e7bf 4b1a 07bf 5a7c 153f
00000310: 2ce9 f03e 06a2 893e 7ec4 afbf f822 87be
00000320: 1c7f d6be 956b 07bf 0de5 b9bf 724b 563f
00000330: ee23 b03e 9473 e63f 96e0 c7bf 77ee 883f
00000340: 035b aa3e 1735 95bf f9d6 c93f 09a8 24bd
00000350: 81b4 e33e 4bfc a23f 4175 ebbe 4f02 933e
00000360: 017c f0be 7bea 293f 3fe1 093f e4bc d03d
00000370: c193 8fbf 651a bdbe 53bf ce3f 006d 84bf
00000380: acd7 39bf d2fe b03f 1a93 9e3f bb8f 1ebf
00000390: b575 34be f9d7 a33d ab1b 573f de34 b9bf
000003a0: f1c8 b33f ba4e d03f 2b61 e8bd c2a5 683f
000003b0: cd05 be3f 2251 803e 4c45 0a3e be40 0dc0
000003c0: 1217 dbbe 9ace 4a3f 6429 a8be 1c1f 57bf
000003d0: a9c4 4dbf b0e1 8b3f 7ece 813f 8047 0e3e
000003e0: 6d55 a5bf 0a67 97bf 7554 623f ba09 0440
000003f0: c537 91be 57bb a3bf 6bab b63e 66e5 d2bf
0.1718348 -1.0319021 0.38124284 -0.6542948 -0.11688549 0.0053785886 -0.16066913 -0.9393603
-2.5034385 -1.3675963 0.045551647 0.22756153 -0.45618322 -1.6751777 -0.105874225 1.0041157
1.1859117 -1.5024632 -0.27972573 0.23068832 -1.0519619 -0.35617128 -0.7690518 -0.13754241
-0.8370765 1.290609 0.3228389 -1.3303934 0.1514161 0.60292923 -0.55514205 -0.40353906
0.31146982 0.42259184 -1.1269841 0.18384907 0.70466363 1.0816666 -1.0544122 -1.5692445
0.58621377 0.9775836 -1.6929884 0.9137056 0.24925391 0.8837538 1.225732 -1.7798291
-0.110961676 -0.28492358 0.7128202 -0.47251537 0.348657 -0.10421182 1.0344461 0.38825208
-0.3705225 0.505615 1.4193538 -1.8120158 1.3646884 0.1879793 -1.9369395 -1.8036075
1.2197313 0.5978158 0.24553221 0.52386254 -0.40053865 -0.43720153 1.0256693 -1.4896159
-1.3088692 -2.3401284 0.75175345 1.2013352 -0.63644236 -0.14175406 -1.6749481 -1.1732376
0.00931895 0.30809745 0.40992874 0.78928447 -0.9075908 1.6970305 -0.9758114 -1.8181204
0.13926165 0.7096778 -1.4819031 -0.7560796 -0.642304 0.71960926 0.22699097 1.2961046
0.6038499 -1.4849796 -0.6272768 -1.7642066 0.51228726 -0.06416037 0.27504086 -1.6080979
1.229221 0.6196176 0.7079336 1.0283605 1.6262568 -0.8967145 0.65125614 -1.0691447
-0.86651963 0.67428905 0.336887 0.6890011 -0.7351776 -0.6510484 0.021261284 -0.81740826
0.06646999 -0.5179258 -1.0687416 0.6851612 0.7277548 -0.50489634 -2.308155 0.7716704
0.44917932 0.024399709 0.8362795 0.19936888 -1.2276044 0.96645474 -0.30143565 0.65879077
0.5577717 -0.7603881 0.66238946 -0.6263744 -1.3613023 -0.42796892 -0.36812514 -2.5301733
-0.32186216 -0.535631 0.022371538 -1.2348536 0.9361212 -1.4033371 -0.0733771 0.34063512
-0.33773273 0.84480643 0.28026545 0.15465996 -0.8384867 0.91730654 0.09642574 -0.64811546
-2.2877495 -0.46614513 0.49325874 -1.005414 1.7540559 0.79697526 0.65635556 0.40527943
-0.40469465 -0.26569852 -1.8062332 0.6651654 -1.2292649 1.3037646 -1.0696982 0.5302469
0.30597493 -0.78403646 -0.24867636 -0.34708312 -0.708815 -0.631351 0.7245311 0.009691118
-1.3665361 0.69036984 -0.926501 0.71193796 -0.15980922 -0.5583365 -0.5325709 -1.3356378
0.9814911 -1.8050995 -0.52774495 0.5839287 0.47052896 0.26881427 -1.373184 -0.26393867
-0.41893852 -0.5289853 -1.4523026 0.8370887 0.34402412 1.8004022 -1.5615413 1.0697774
0.3327256 -1.1656827 1.576873 -0.040199313 0.4447365 1.2733244 -0.45987895 0.287127
-0.46969607 0.66373414 0.53859323 0.10192278 -1.1216966 -0.369342 1.6152138 -1.0345764
-0.72594714 1.3827765 1.2388642 -0.61938065 -0.17623027 0.08000178 0.8402659 -1.4469259
1.4045697 1.6274025 -0.11346658 0.90877926 1.484552 0.250619 0.13502997 -2.2070765
-0.4279104 0.792215 -0.3284408 -0.84031844 -0.80378205 1.0928249 1.0141141 0.13894463
-1.2916695 -1.182832 0.8841012 2.0630937 -0.2836286 -1.2791547 0.35677657 -1.6476257

prescalers.encoder_length.weight f4 [8, 1]
00000000: ba96 76bf 3829 263e 20ef 4d3e 288f c13e
00000010: 660e 21bf c47c f4be a000 423e b0e2 853e
-0.9632374 0.16226661 0.2011075 0.37804532 -0.62912595 -0.4775144 0.18945551 0.2614951

prescalers.encoder_length.bias f4 [8]
00000000: 3c63 dabe 4270 75be c5f2 82bf b3af 8cbe
00000010: 2621 003f 4395 2f3f cb67 363f 853a 923d
-0.42653835 -0.23968604 -1.0230337 -0.27477798 0.5005058 0.6858713 0.71252126 0.07140068

prescalers.time_idx.weight f4 [8, 1]
00000000: be0a 03bf a0df 47bf 10f4 38be e0ad b93e
00000010: 0014 eeba 18a0 5ebf 865b 42bf 503f 12bf
-0.51188266 -0.780756 -0.18061852 0.3626547 -0.001816392 -0.86963034 -0.75920904 -0.5712786

prescalers.time_idx.bias f4 [8]
00000000: 7e5e b1be ea47 d0be b515 b8be c95a bbbe
00000010: 1907 153f 92fe 253f c0d4 ef3e fe20 263f
-0.34642404 -0.40679866 -0.3595406 -0.365927 0.58213955 0.6484157 0.46842003 0.6489409

prescalers.relative_time_idx.weight f4 [8, 1]
00000000: 3c2c 7e3f 206c 4f3d 842b a53e 2efb 363f
00000010: 9c1c 93be a80d 86be 9c05 bf3e 7612 213f
0.99286246 0.050640225 0.32259762 0.7147702 -0.28732765 -0.26182294 0.37308967 0.62918794

prescalers.relative_time_idx.bias f4 [8]
00000000: 2c25 743f 338d e7be aa03 7abe e544 d83e
00000010: 4968 303f c431 703e b274 3ebf abce ee3e
0.9536922 -0.45224914 -0.2441546 0.42240062 0.68909127 0.23456484 -0.7439681 0.4664205

prescalers.PTS.weight f4 [8, 1]
00000000: 741f b83e 2cf7 c3be d0c6 9f3d 04d6 5cbf
00000010: 407d 48bd f058 5f3e f8c7 41be 580d 68be
0.35961497 -0.38274515 0.07801592 -0.8626406 -0.048947573 0.2181127 -0.18923938 -0.2266134

prescalers.PTS.bias f4 [8]
00000000: 296e 0ebf bd29 c0be e356 65bf 8dd4 0b3f
00000010: abbd 75bf 4c8a 9bbe 57e8 b13e cdc5 393f
-0.5563684 -0.37531844 -0.89585704 0.546212 -0.95992535 -0.3037895 0.34747574 0.72567445

static_variable_selection.flattened_grn.resample_norm.mask f4 [2]
00000000: 3081 d1bc e82b e53c
-0.025574297 0.027975038

static_variable_selection.flattened_grn.resample_norm.norm.weight f4 [2]
00000000: 514c 873f 5e4c 873f
1.0570165 1.057018

static_variable_selection.flattened_grn.resample_norm.norm.bias f4 [2]
00000000: 705e 5abc f062 5a3c
-0.01332818 0.013329253

static_variable_selection.flattened_grn.fc1.weight f4 [2, 19]
00000000: c26e 25be 4b8e 4fbe 9482 c13e d97f 1cbd
00000010: 210a 9b3e 9553 33bf a4da 8d3e bd2b e8be
00000020: 5948 b3bb 94b4 8cbe 7242 8a3d f561 e8be
00000030: 01cd 5ebf e616 51bd 495f 39be 332a cbbe
00000040: eff6 613e f9f1 ee3d 7c19 293e 069f 943d
00000050: 781c 62ba 7b12 883e eecd 973e b0c6 4a3f
00000060: d7cb 9a3c 9d0c e1bc 7bb0 e83d b51c 323f
00000070: 4cff febe f725 ba3d ac89 a63e 1da8 e03c
00000080: 7add 7c3d 99f4 d73e 68d2 5d3e adc2 f2bd
00000090: d79b 87be 890b 9b3e
-0.16155532 -0.20269124 0.37794936 -0.038207863 0.30281165 -0.7004941 0.27705872 -0.4534587
-0.005471271 -0.2748152 0.06750955 -0.45387235 -0.8703156 -0.05104723 -0.18102755 -0.39680633
0.22066854 0.11667246 0.16513628 0.07256894 -0.0008625458 0.265766 0.296493 0.79209423
0.018896027 -0.027471835 0.11361786 0.69575053 -0.4980415 0.090892725 0.3252691 0.027423913
0.061734654 0.421788 0.21662295 -0.11853538 -0.26486084 0.30282238

static_variable_selection.flattened_grn.fc1.bias f4 [2]
00000000: 712f 2dbd da15 b5bc
-0.04228157 -0.022105146

static_variable_selection.flattened_grn.fc2.weight f4 [2, 2]
00000000: a9f6 eebf 0aca 5b3f 0907 313f c904 1b3f
-1.8669025 0.8585516 0.6915136 0.60554177

static_variable_selection.flattened_grn.fc2.bias f4 [2]
00000000: d0d2 71bc 9070 75bc
-0.014759734 -0.01498045

static_variable_selection.flattened_grn.gate_norm.glu.fc.weight f4 [4, 2]
00000000: 9113 37bf a70f 243f c208 79bf cc45 00bf
00000010: 23f4 7d3e 505f 503f 14e6 6bbf 7398 4e3e
-0.7151423 0.64086384 -0.9727899 -0.501065 0.24800162 0.81395435 -0.92147946 0.20175342

static_variable_selection.flattened_grn.gate_norm.glu.fc.bias f4 [4]
00000000: 6f37 69bc d341 883c 0452 94bc f7a5 e03c
-0.014234408 0.01663295 -0.018105514 0.027422888

static_variable_selection.flattened_grn.gate_norm.add_norm.norm.weight f4 [2]
00000000: d190 6f3f d290 6f3f
0.9358035 0.93580353

static_variable_selection.flattened_grn.gate_norm.add_norm.norm.bias f4 [2]
00000000: 8f18 5abd 8d18 5a3d
-0.053246077 0.05324607

static_variable_selection.single_variable_grns.TEAM_ID.mask f4 [16]
00000000: e1d9 ed3b 73ca 95bd 9b01 11bd 6532 3c3d
00000010: c251 bfbc e61f 3e3d c295 a53d 2012 163d
00000020: 63c2 c23b 0892 48bd 2680 06bc fcbe d2bd
00000030: ec87 9f3d 13b0 373d 7dab 233d b621 89bd
0.007258639 -0.07314005 -0.03540192 0.045946497 -0.023354415 0.04641714 0.08085205 0.03663838
0.005943583 -0.04896739 -0.008209264 -0.10290334 0.07789597 0.04484565 0.039958466 -0.06695883

static_variable_selection.single_variable_grns.TEAM_ID.norm.weight f4 [16]
00000000: 0c4d 7e3f 6e19 603f 5b88 6d3f 3657 853f
00000010: b529 763f 4b86 863f 7159 8b3f a497 863f
00000020: d5ae 813f 7fca 7d3f 93f5 7a3f 0b4f 5c3f
00000030: 8f0e 8b3f 26c1 8c3f deee 883f d835 693f
0.99336314 0.875388 0.92786187 1.041724 0.9615739 1.0509733 1.088667 1.0515027
1.013148 0.9913711 0.98030967 0.8605811 1.0863818 1.0996444 1.0697896 0.91097784

static_variable_selection.single_variable_grns.TEAM_ID.norm.bias f4 [16]
00000000: 557e 39bd b3db b9bd 3b29 a3bc 6c89 69bc
00000010: ce22 cfbc 647f 4ebc 4f67 4abd fd03 eebc
00000020: ac06 6ebd cdac 1e3e 7c90 923c edaa e03d
00000030: bf57 a4bc 4528 d13d 3096 44bd 6cd6 b4bd
-0.045286495 -0.090751074 -0.019917121 -0.014253955 -0.02528515 -0.0126036145 -0.04941493 -0.029054636
-0.05811183 0.15495606 0.017891161 0.109701015 -0.020061372 0.10212759 -0.047994792 -0.0882996

static_variable_selection.single_variable_grns.encoder_length.resample_norm.mask f4 [16]
00000000: 71d3 42bd da62 183d 2cfc 223d 0bfd 4c3c
00000010: 52e1 26bc b9b0 133d cc46 513c 2a3f 873b
00000020: 75ff 163c 97b6 13bd 7a66 cabc 7b37 533d
00000030: 2b1f 6abd d65a 823d abb4 c6bc c163 46bd
-0.047564927 0.037203647 0.03979127 0.012511502 -0.0101855565 0.036057208 0.012773227 0.004127403
0.009216179 -0.036062803 -0.024707068 0.051566582 -0.05715863 0.06364982 -0.024256071 -0.048434976

static_variable_selection.single_variable_grns.encoder_length.resample_norm.norm.weight f4 [16]
00000000: 6555 713f 6057 853f 261b 853f 4377 813f
00000010: 424f 7c3f d253 853f 4ba9 7f3f e594 823f
00000020: 742f 7f3f 5e38 823f 18d9 7c3f 03ce 8a3f
00000030: 4e93 6e3f 4500 893f d040 783f 4111 703f
0.94270927 1.041729 1.039891 1.0114521 0.9855844 1.0416205 0.99867696 1.0201689
0.9968178 1.0173452 0.9876876 1.084412 0.9319352 1.0703207 0.96973896 0.9377633

static_variable_selection.single_variable_grns.encoder_length.resample_norm.norm.bias f4 [16]
00000000: 68de 503d 0f33 2cbd e9d6 95bd 1bb2 fdbc
00000010: 129f 333a e924 37bd aaad 84bd a7c1 193d
00000020: 33ac 19bd ffea 153e d6f8 c93c d2bb ce3d
00000030: ee61 83bd 49fe 843d 5bd7 f9bc c6c6 83bd
0.050993353 -0.04204088 -0.073163815 -0.030968716 0.00068520114 -0.044712935 -0.06478436 0.037538197
-0.037517738 0.14640425 0.024654787 0.10094418 -0.06415163 0.064938135 -0.030498197 -0.064343974

static_variable_selection.single_variable_grns.encoder_length.fc1.weight f4 [8, 8]
00000000: ae88 983d e098 86bf 5db6 2cbd 3fb3 e6bd
00000010: e8f6 5cbf 6988 c5be 2b13 babd 58b5 773e
00000020: 6ac3 8d3d ecfd f13e e1c1 7dbf 6eb3 e43d
00000030: 4e70 033f 2582 ddbe ba86 653e 965e e33d
00000040: ba1e 763f 1cc6 9f3d d95f 5b3e 4541 ed3e
00000050: 0f46 173d d12e f73e 43d1 9f3d c088 563f
00000060: 420a 2cbf ed5f 89be 340c c0be 53a2 393e
00000070: e473 dd3e 4f00 9dbe af6e 2abf 8be1 fe3e
00000080: f7b2 953f 748f 99be 950f af3d aaa6 753e
00000090: a2a2 663e 1cc8 c3be 1eea ddbe 3713 83be
000000a0: f02f 6b3e bf0f ac3d 9154 0b3e a8f6 7b3c
000000b0: f141 f7be e811 debe 4222 3bbf 72a4 5c3c
000000c0: 3bbc 9dbe 71e9 b83e 81c5 a8be 7eb2 bb3e
000000d0: c167 49bf b634 c83e 78e5 25bf 464e ae3d
000000e0: 1cc3 0abd 2c6c 8b3f ef49 a9be bfad 03bf
000000f0: 9646 e83d c19f 543f 5f76 ca3e 3d57 ebbe
0.074479446 -1.0515404 -0.042166103 -0.11264657 -0.8631425 -0.38580635 -0.09085687 0.24190271
0.06922038 0.4726404 -0.9912396 0.11167036 0.5134324 -0.43263355 0.22414675 0.11102025
0.96140635 0.07801458 0.21423282 0.4633886 0.036932047 0.48277906 0.078035854 0.83802414
-0.6720315 -0.26830998 -0.3750931 0.18128328 0.4325248 -0.30664298 -0.6657514 0.4978145
1.1695241 -0.2999226 0.08547894 0.23989359 0.22522977 -0.3823861 -0.4334268 -0.25600597
0.22967505 0.08401441 0.13606478 0.015378632 -0.48292497 -0.43373036 -0.7309915 0.013466941
-0.3080767 0.36115602 -0.32963184 0.36659616 -0.7867394 0.39102715 -0.64803267 0.08511023
-0.033877477 1.0892386 -0.3306422 -0.5143699 0.11341588 0.83056265 0.39543435 -0.45964995

static_variable_selection.single_variable_grns.encoder_length.fc1.bias f4 [8]
00000000: 951a e3bc 0666 e93d 10b5 a03d 58b4 a73c
00000010: 8c18 be3c ba76 49bd bf6c edbc 01cd 083e
-0.027722636 0.113964126 0.07847035 0.020471737 0.023205064 -0.049185492 -0.028982518 0.13359453

static_variable_selection.single_variable_grns.encoder_length.fc2.weight f4 [8, 8]
00000000: c356 b7be 0aca 97bf badf 08bf c8d1 18bf
00000010: 32a8 5e3e 64a1 abbe cda1 2bbf 4887 7fbe
00000020: efbc f8be 6dd4 093f d19f 5f3e ff60 903d
00000030: 8512 643f 55dd f73d ad7c c3be edc0 a43d
00000040: 0bf7 a6be a53f 71bc 0144 c03c 00ef c13d
00000050: a1f7 acbe d6a5 55bf fe1d c8bd f982 263d
00000060: 7d7b 0e3f faeb 9bbf 2064 86be 5da2 fdbd
00000070: 22ed ab3e 1b07 353e 1729 08bf 424a 17bf
00000080: 4c43 8f3f 83b1 23be 8a53 b4be 2a1e 2ebd
00000090: 44ad 26be 8a99 1ebc d3b8 673d 6b5c 103f
000000a0: 0fd1 093f 7e2b 0d3f 6b8c f43e baec 83bf
000000b0: 4ec1 a2bd 304b 4fbf 5ae7 fcbe 583e 38bc
000000c0: d438 d9be 1423 7ebe 4c30 623f b64a 593e
000000d0: d593 e5bd e38b 5c3e 0f93 b73e 98c4 5abd
000000e0: e0d0 dcbd 4f5b 91bd b6bf 17bf f768 07bf
000000f0: c26a 43bf e21c 2bbe 8c84 f83e 33f9 23be
-0.3580838 -1.1858532 -0.5346638 -0.596951 0.21743849 -0.3352157 -0.67043763 -0.2495395
-0.48581645 0.5383976 0.21838309 0.070497505 0.8909076 0.121027626 -0.38181058 0.0804461
-0.32610354 -0.014724647 0.023469927 0.09469414 -0.33782676 -0.8345617 -0.097713456 0.04065225
0.5565718 -1.2181389 -0.26248264 -0.12384484 0.33579355 0.17678492 -0.531877 -0.59097683
1.1192412 -0.15985684 -0.35219985 -0.042509235 -0.16277033 -0.009680161 0.056572746 0.5639102
0.53834623 0.5514449 0.4776338 -1.0306618 -0.07947026 -0.809741 -0.49395257 -0.011245333
-0.4242617 -0.24818069 0.88354945 0.21219906 -0.11209837 0.21537738 0.35854384 -0.053410143
-0.10782027 -0.07097494 -0.592769 -0.5289454 -0.76334774 -0.16710237 0.48538625 -0.1601303

static_variable_selection.single_variable_grns.encoder_length.fc2.bias f4 [8]
00000000: f4d7 0fbd 01b3 b73d 8043 ce3d 7168 f2bd
00000010: 6125 ef3d 35de 3d3d 3117 473d 4de5 8cbd
-0.03511806 0.08969689 0.10071468 -0.11836327 0.11677051 0.04635449 0.0486061 -0.06879673

static_variable_selection.single_variable_grns.encoder_length.gate_norm.glu.fc.weight f4 [32, 8]
00000000: f81c 973e d178 94bd e37b be3e 19a4 b43e
00000010: d885 ef3d 41ec 5e3d 43b9 8a3e 4412 94be
00000020: 9040 0abe 39b8 1e3e 8a7d 56be 84b5 84be
00000030: b1a7 773e cba6 77bd 554e b43e 3aaf aebe
00000040: cc84 0ebe fb17 10bd f995 5ebe 3f6e 793e
00000050: eb0e 25be 8a61 29bc 67a5 fa3c 096a e13c
00000060: ea06 b2be 9669 97be 3420 36be 2eb0 15be
00000070: e759 afbe dfa0 6ebd 1590 07be 9292 d73c
00000080: cf75 6cbe e9ae a43e 4581 053c 4c57 a53e
00000090: 6a89 c3be df3b 053e 078e 893e 71d9 083e
000000a0: cb04 143e f052 c03e 4835 d7be 1a3d 8b3e
000000b0: c9fc 19be 4f1c 683e 0637 b7be 2743 60be
000000c0: 6da2 a4be 5859 66be 8867 843c 73ac 853c
000000d0: 0d9d adbd f560 063e 6e98 573e bdde 94be
000000e0: c678 2bbe df9c 273e 5b53 96be 9a51 d7be
000000f0: 73a0 953e 22f6 a9bd 59d5 5e3d b9f3 91bd
00000100: 3ae8 793e 5545 84be d734 5bbe 01c3 5abd
00000110: 0098 813e 94b2 73bb abcb 98bc f283 8f3e
00000120: c8c9 83be a750 713e 1217 f93e 1850 94be
00000130: 5f5f b63e cade eebc 91cf 243d d376 3a3e
00000140: edc4 863e c538 41bc d2a1 623e 3e73 813e
00000150: 88f0 a53d d47c f63c 67f6 30be 33ea 8c3e
00000160: 563c 82be 96f1 e3bd 6cd9 863b 9e46 95be
00000170: 08fa da3e 113d d63d 1ff6 013e 8a97 05be
00000180: f66d 8dbe 6cad 1a3d 3dba 18be 2f9b ae3e
00000190: cd45 6bbe 5701 b73e 8aa7 8f3d 50a1 223d
000001a0: f019 bcbe ede0 833e f4ef 0cbe 0673 b1be
000001b0: 2735 983d 4fbb 5a3e aa11 803e 23df 51be
000001c0: de41 58be 24eb 07be 7305 1d3e 7218 a53d
000001d0: 6144 cfbe 606d b3bd d2d5 7bbe 745b ad3e
000001e0: ed4d 9d3e 8efa ca3e bfa1 d4be 0098 e03e
000001f0: 6f11 6ebe fe89 94be 7ac2 b93e 62b7 683e
00000200: f9a3 18be bdf3 97bd 5eae b8be c919 913e
00000210: d389 bfbc 7ee2 833e b995 67be b7e3 9e3e
00000220: d67d 9b3e be44 9dbe fbfb 86be 9706 af3c
00000230: 8925 eebc a263 5bbd 6042 b13e 128e 223d
00000240: 8169 6a3d e5eb 59be def1 093e 47cc b0be
00000250: 190b 073e 24c5 c03e 6e6d 3f3e 5494 0e3c
00000260: 92c6 b6bc b847 a53d ee40 b83e 4e5a bbbe
00000270: bcb9 463d c95a e0bc f4b8 7e3e 198e 9cbe
00000280: 8cb7 01be 35fe fbbd d5e2 9f3e 0781 debd
00000290: 98d0 93be 5ee7 933e fb55 4ebe 17da 453e
000002a0: 4662 04be 53f6 fcbd 48e5 8bbe c058 52bd
000002b0: 8662 bc3e e715 c0be 08ac 43be 4088 f0b9
000002c0: 991a 6b3e 7972 aabe 1c8d c6bd 9edd 953e
000002d0: 7905 b1bc cc5b 2e3d 2cf6 a73e 79f8 89be
000002e0: bade abbe 836f 953d dead 3f3e 2276 dcbd
000002f0: 9f57 b0be bb84 85be a85d 97be 3bf0 39be
00000300: bb55 6abe 7818 66be bdd1 95be 1cc9 ae3e
00000310: 5df8 513d af15 963d f2cd b0be 6054 883e
00000320: e1da aabe 7280 1d3e 5689 ad3e 9e56 80be
00000330: a0ea 7ebe d746 51be 6d37 c0be 9cef ba3e
00000340: cb4b bbbe 4156 05be 8c40 9d3e 9c1a db3c
00000350: 83ef 463e 7499 a0bb b4c2 f7bb 7c27 bfbe
00000360: 97e7 323d 61b0 b93e ac21 bbbe 03dc c5be
00000370: c5d6 ca3d 047e 14be dc49 813e 2438 dbbd
00000380: 63c0 543d 5dbd a03e 4607 903e f908 453e
00000390: 0b1b 2b3e da3a 973d 7d83 923e dbbf f0bc
000003a0: f457 4cbe 1461 3bbd 5b2d 223e a0a4 db3d
000003b0: 0dea 2bbe 9f47 b8be c1a9 e33d 07ea 7a3d
000003c0: 94c4 ec3c 2a22 16be 4200 bf3e d65b 0dbd
000003d0: aa06 74be 36ac 5a3e 6ae5 97bd 47ce c43d
000003e0: 9d29 c8be eef2 9e3e f418 5e3e e8e6 253e
000003f0: 9516 003e 4b85 b93d 8c5e e1bd 50dc 593e
0.2951429 -0.072496064 0.37203893 0.35281447 0.116954505 0.054424528 0.27094468 -0.28920186
-0.13501191 0.15499963 -0.20946327 -0.25919735 0.24185063 -0.0604618 0.35216013 -0.34118062
-0.13917845 -0.03517912 -0.21736898 0.24358462 -0.16118972 -0.0103381965 0.030596448 0.027516382
-0.347709 -0.29572743 -0.17785722 -0.14617988 -0.34248278 -0.058258887 -0.13238557 0.026315007
-0.23091815 0.32164696 0.008148496 0.32293165 -0.38190776 0.1301112 0.2686617 0.13364197
0.14454953 0.37563276 -0.42032838 0.27195054 -0.15037836 0.22667049 -0.35784167 -0.21900617
-0.3215517 -0.2249502 0.016162649 0.016317582 -0.08477221 0.13122924 0.21054241 -0.29076186
-0.1674529 0.16368435 -0.2936047 -0.42054445 0.29223976 -0.08298899 0.054402683 -0.071265645
0.24404994 -0.25834146 -0.21406876 -0.053408626 0.2531128 -0.0037185298 -0.018651804 0.28030354
-0.25739884 0.23565923 0.48650414 -0.28967357 0.35619637 -0.029158968 0.040237013 0.1820939
0.26322117 -0.01179332 0.22132042 0.25283235 0.08102518 0.03008882 -0.17281495 0.2752243
-0.25436658 -0.11130063 0.004115274 -0.2915544 0.42768884 0.10460866 0.12691544 -0.13046089
-0.27622956 0.037763044 -0.14914794 0.3410277 -0.22975846 0.3574321 0.070143774 0.03970462
-0.3673854 0.25757542 -0.1376341 -0.34658068 0.07432013 0.21360515 0.25013477 -0.20495276
-0.21118876 -0.13273293 0.1533411 0.08061303 -0.40481856 -0.08761096 -0.24593285 0.33858836
0.30723515 0.39644283 -0.41529652 0.43865967 -0.23248838 -0.2901153 0.36281186 0.22726205
-0.149063 -0.07419536 -0.36070532 0.28339985 -0.02338115 0.25758737 -0.22615708 0.31033108
0.30369443 -0.3071651 -0.2636412 0.021365447 -0.029070633 -0.053561814 0.34620953 0.03968627
0.057229523 -0.21281393 0.13471171 -0.3453085 0.13187827 0.37650406 0.18694088 0.008702356
-0.022311483 0.0807032 0.35987037 -0.36592335 0.048516974 -0.02738704 0.24875242 -0.30577162
-0.12667674 -0.123043455 0.31227747 -0.10864454 -0.28870082 0.28887457 -0.20149986 0.19321476
-0.12928113 -0.1235167 -0.27323365 -0.05135417 0.36793917 -0.3751671 -0.19108593 -0.0004587788
0.22959365 -0.3329046 -0.09694883 0.29270643 -0.021609055 0.042568013 0.32805002 -0.26947382
-0.33568364 0.0729666 0.18718669 -0.107647195 -0.3444185 -0.26077828 -0.29563642 -0.18158047
-0.22884266 -0.22470272 -0.2926158 0.3413781 0.05126225 0.073283546 -0.34532124 0.26626873
-0.33370116 0.15381029 0.33893842 -0.25066084 -0.2489419 -0.2043718 -0.37542287 0.36510932
-0.36581263 -0.13021185 0.30713308 0.026746087 0.19427304 -0.0049011055 -0.007561052 -0.37334812
0.043677893 0.3626738 -0.36549127 -0.38644418 0.09904245 -0.14501196 0.25251663 -0.10704067
0.051941287 0.31394473 0.2813055 0.19241704 0.16709535 0.07384272 0.28615943 -0.029388359
-0.19955426 -0.045746878 0.15837614 0.10724759 -0.16788502 -0.35992143 0.11116362 0.061258342
0.02890233 -0.1466147 0.37304884 -0.03451141 -0.23830667 0.21354756 -0.07416804 0.09609657
-0.39094248 0.31044716 0.21689206 0.16201365 0.12508614 0.09058627 -0.110043615 0.21275449

static_variable_selection.single_variable_grns.encoder_length.gate_norm.glu.fc.bias f4 [32]
00000000: bbf6 2a3d 84ab 00bd 5e40 81bd 7d57 c2bc
00000010: c01b 5a3b d743 21bd 2926 27bd 42f6 0b3d
00000020: 5679 0bbd 9f06 0d3e 0050 963c a434 863d
00000030: b741 37bd 2bcf 643d 26de dbbc 879f 64bd
00000040: 2063 c4bc eeb4 f53b be09 b6bc d103 4ebc
00000050: d8fd b4bb 24df cc3c d08b 8cbb 2dae 9fbb
00000060: c3ab 9cbc 0d7c 373c e5d5 1ebb f25b 403c
00000070: 9a0a 723c d193 d9bc fb61 8abc 20c3 2a3d
0.041739207 -0.03141357 -0.06311105 -0.023723358 0.00332807 -0.039371338 -0.040807877 0.034170397
-0.03405126 0.13772057 0.018348694 0.06553009 -0.044740405 0.055861633 -0.026839327 -0.0558162
-0.023973048 0.007498375 -0.022221442 -0.012574152 -0.0055234246 0.025008745 -0.004289128 -0.0048730583
-0.019124871 0.01119901 -0.0024236378 0.0117406715 0.014773035 -0.026559742 -0.016892424 0.041689992

static_variable_selection.single_variable_grns.encoder_length.gate_norm.add_norm.norm.weight f4 [16]
00000000: 53ad 713f 207b 843f e368 7f3f 648b 7c3f
00000010: 79f2 793f b8ee 853f 7041 7e3f a590 823f
00000020: f9b5 773f 014e 883f b0bd 7e3f 2963 8d3f
00000030: f224 723f 7223 893f c539 793f a1e9 773f
0.94405097 1.0350075 0.9976942 0.98650193 0.9763561 1.0463476 0.993186 1.0200392
0.96762043 1.0648805 0.9950819 1.1045886 0.94587624 1.0713942 0.97353774 0.96840864

static_variable_selection.single_variable_grns.encoder_length.gate_norm.add_norm.norm.bias f4 [16]
00000000: ddbe 513d 7300 2abd 4c2e 9dbd 9894 8cbc
00000010: ed70 cb3b 18c7 3bbd baf9 81bd bfec 423d
00000020: 2d44 10bd 700e 143e 4a4e ed3c bb1c f13d
00000030: 70c8 65bd 838f 8b3d 0bfc d8bc 915e 58bd
0.051207412 -0.041504335 -0.07674846 -0.017160699 0.00620853 -0.045844167 -0.0634646 0.04758906
-0.035221267 0.14458632 0.028967995 0.11773058 -0.056099355 0.06814482 -0.026487371 -0.05282456

static_variable_selection.prescalers.encoder_length.weight f4 [8, 1]
00000000: ba96 76bf 3829 263e 20ef 4d3e 288f c13e
00000010: 660e 21bf c47c f4be a000 423e b0e2 853e
-0.9632374 0.16226661 0.2011075 0.37804532 -0.62912595 -0.4775144 0.18945551 0.2614951

static_variable_selection.prescalers.encoder_length.bias f4 [8]
00000000: 3c63 dabe 4270 75be c5f2 82bf b3af 8cbe
00000010: 2621 003f 4395 2f3f cb67 363f 853a 923d
-0.42653835 -0.23968604 -1.0230337 -0.27477798 0.5005058 0.6858713 0.71252126 0.07140068

encoder_variable_selection.flattened_grn.resample_norm.mask f4 [4]
00000000: e7fc 1abd a916 113d 9f9e 97bd 2770 c13d
-0.037838843 0.035422 -0.074033014 0.094452195

encoder_variable_selection.flattened_grn.resample_norm.norm.weight f4 [4]
00000000: 05ac 7b3f 72ed 843f 82b6 6a3f a4b3 8a3f
0.98309356 1.0384963 0.91684735 1.0836072

encoder_variable_selection.flattened_grn.resample_norm.norm.bias f4 [4]
00000000: a20f 48bb 6164 dcbb c839 a5bd b4e0 ae3d
-0.0030526896 -0.0067258333 -0.080676615 0.085389525

encoder_variable_selection.flattened_grn.fc1.weight f4 [4, 35]
00000000: c66b 71be 6f52 db3d 8c8f c7bd e321 d6bd
00000010: 69b6 54be 30e9 0abd 847d 943e 9983 2cbe
00000020: 9d07 ab3e 80a0 7dbd ebac 9b3e aa5c b03d
00000030: 2d47 d4bd d384 e1be 622d ba3a 2ece 9dbe
00000040: 73e3 a53c d03c c53e 035f c53e f02c b63d
00000050: 91f3 b23d 1494 f93d d473 78be 62d1 bd3c
00000060: 6080 cfbe 8500 b73e b2b7 b73e b1d6 5a3e
00000070: 4a28 0a3e 7c53 7cbd fe67 87be 5468 923e
00000080: 2861 8dbe 4625 90be 72aa 303e 49a8 e3be
00000090: cc0d 88be bcd5 d8bd 45b3 9abd 6966 773e
000000a0: bab2 bf3d 5811 a03e afdc ad3c 6fd8 913b
000000b0: b817 b23e 4b1b 66be 388e 9a3e ab94 c13c
000000c0: 50bd 7abe 6f1e adbd eb7d 3c3e 06c9 223e
000000d0: 6cef ee3e 1c90 04b9 8c24 1abe 3cf3 d2be
000000e0: 2aec e23e d3a2 633d d435 723c 303f a43e
000000f0: 563f 313d 2de4 b63d 9539 d6be ba24 abbd
00000100: 519c 6d3d a5e8 4d3d a378 143e 88ff 033e
00000110: 30fb d03d 4b3c 15bd e8c1 a33d 49ff 8b3e
00000120: 1986 993d 537f 6bbf 7fd0 d43d 1f21 013e
00000130: 5056 f2bc 44b5 80bd f0f5 603e 6f79 6c3e
00000140: 71a2 003f cacf a53d 539a 1c3e 119f 97be
00000150: c538 8dbd 607a 0bbd 4985 d0be 3987 09be
00000160: 13c9 093f 6be7 c73d aca0 c5be 7ed1 7a3e
00000170: 54e6 5c3e 5319 67be 5006 63bd b1e1 4b3e
00000180: 9e60 ef3d 7aec 9f3e 914e 50be 4686 05be
00000190: 79e2 b7bd b23d 033e 30c2 783e f810 b2be
000001a0: 91cb b73e e26c eabd e3cf abbe 46d8 eb3d
000001b0: 0fac b2bd 6971 1ebf 1ff1 b33e 413b 043e
000001c0: ee37 aa3e 415d cebd 9cb3 b8bb 96ee 23be
000001d0: b79c bcbe 0aab c93e a19b 17be 82b9 efbb
000001e0: cd90 b43e 80f7 e4be 0cde 633e 0a93 273e
000001f0: f4b1 6a3e ea25 aabd 476e 57bd f06d 6c3d
00000200: ce8f 053f 1243 e4be 053c 8d3d 0f03 913e
00000210: 2a40 acbd 15a6 63be 655f d5bd 650e fc3c
00000220: b3f6 21bd 2823 64be acf2 38be fec6 ee3b
-0.23576269 0.10709082 -0.09744176 -0.10455682 -0.20772709 -0.03391379 0.2900201 -0.16847076
0.33404246 -0.061920643 0.30405363 0.08611424 -0.10365138 -0.4404665 0.0014204199 -0.30821365
0.020250058 0.3852296 0.3854905 0.0889529 0.08737863 0.12186447 -0.24262935 0.02317113
-0.4052763 0.35742584 0.35882336 0.21370961 0.13491932 -0.061603054 -0.26446527 0.2859522
-0.27613187 -0.28153437 0.1725252 -0.4446433 -0.26573026 -0.105876416 -0.07553724 0.2416016
0.09360261 0.31263232 0.021223394 0.0044508497 0.3478372 -0.22471349 0.3018663 0.02363046
-0.2448628 -0.0845307 0.18407409 0.15896997 0.4666704 -0.00012642186 -0.15053004 -0.41201198
0.44320804 0.055575203 0.014783341 0.32079458 0.043273292 0.0893024 -0.41840807 -0.083566144
0.058010403 0.050270695 0.14499144 0.12890446 0.1020416 -0.036434453 0.07995969 0.27343205
0.0749628 -0.91991156 0.1039133 0.12610291 -0.029582173 -0.06284574 0.21968818 0.23093198
0.50247866 0.08096273 0.15293245 -0.29613546 -0.068955936 -0.034052253 -0.40726689 -0.1343049
0.5382244 0.09760936 -0.38599145 0.24493977 0.21572238 -0.22568254 -0.055425942 0.19910313
0.1168835 0.31235105 -0.2034247 -0.13039503 -0.08978743 0.12816504 0.24292827 -0.3477857
0.35897496 -0.11446549 -0.33557042 0.1151586 -0.08724224 -0.618918 0.35144898 0.12913229
0.33245796 -0.100763805 -0.0056366455 -0.16008982 -0.36838314 0.39388305 -0.14805461 -0.0073158154
0.35266724 -0.44720078 0.22252673 0.16364685 0.22919446 -0.08308013 -0.052595403 0.057722032
0.52172554 -0.4458242 0.068962134 0.28322646 -0.08410676 -0.22231324 -0.10418586 0.030768583
-0.03954191 -0.22279036 -0.18061322 0.0072869053

encoder_variable_selection.flattened_grn.fc1.bias f4 [4]
00000000: 8102 47bd 83ed 13bc de24 f03b 81f3 98bc
-0.048586372 -0.009028795 0.0073286137 -0.0186708

encoder_variable_selection.flattened_grn.context.weight f4 [4, 16]
00000000: a226 903e f2c2 99be c942 ad3e b520 6c3e
00000010: bb54 713e 0a35 253d 6f4d 61be bcf7 0dbf
00000020: d2a2 c83e d844 52bb 6ea6 87be a199 3ebe
00000030: 3779 bbbd 3bf8 ad3e 7dfd 6e3e c909 3b3e
00000040: 50b1 283e 2270 bc3e 4a78 ff3d 5464 29be
00000050: c5b1 a3be cb7b e1be 082b b7be 5dc8 923e
00000060: 8b2d 92be a986 c43e 2364 053f 5e15 fcbd
00000070: f50d 9f3e 1e3c 083f 5d0c 663d a00c c5bd
00000080: 0e5f 853e 1747 3fbe 91fc a4be 730a ae3e
00000090: 5fab 913e 1533 f93d 8629 7b3e 8dc1 893e
000000a0: 67c2 533d 8ae8 7dbe b1ce 213e a975 633e
000000b0: 1002 5d3e f84c eabe 9be4 fbbd b6fa 8c3e
000000c0: 9012 9ebe df45 ba3e c71f 62be 12d2 60be
000000d0: 818f 1fbd aafc 4b3e eec4 08bf aa82 a73e
000000e0: 1820 a33d c505 21bd 5ef5 b1bd ceea b8bd
000000f0: 71e8 b63d 0380 033f 3c70 f43e 37c4 883e
0.28154474 -0.30031544 0.33840016 0.23059352 0.23567478 0.040333785 -0.22002195 -0.5545614
0.39186722 -0.003208449 -0.26494163 -0.18613292 -0.09153979 0.33978447 0.23338886 0.18265451
0.1647389 0.368043 0.12474115 -0.16542178 -0.31971565 -0.4403976 -0.35775018 0.2866849
-0.28550372 0.38383988 0.5210592 -0.12308763 0.31065336 0.5321673 0.056164134 -0.09621549
0.26049083 -0.18679462 -0.32223943 0.33992347 0.28451058 0.12167946 0.24527559 0.2690548
0.05169907 -0.24795738 0.15801503 0.22212853 0.21582818 -0.45761847 -0.122994624 0.27535027
-0.30873537 0.36381432 -0.22082435 -0.21955135 -0.038955215 0.19920602 -0.5342549 0.32716876
0.07965106 -0.039312143 -0.08689378 -0.090291604 0.089310534 0.51367205 0.47741878 0.267122

encoder_variable_selection.flattened_grn.fc2.weight f4 [4, 4]
00000000: 37ee 023f dde7 cbbe 5e44 b7b9 3a16 97bf
00000010: e3a4 c93e 4dfa 1ebd f9c1 0bbf 61c3 0d3f
00000020: 7dc7 9abe 4fa7 24bf cef0 44be b1fd 0cbf
00000030: cdab 4abe 813b 1c3f c47d 71bf 317f 293f
0.51144737 -0.39825335 -0.00034955418 -1.1803658 0.3938361 -0.038812924 -0.54592854 0.5537625
-0.30230322 -0.6431779 -0.19232485 -0.550746 -0.197921 0.61028296 -0.9433253 0.66209704

encoder_variable_selection.flattened_grn.fc2.bias f4 [4]
00000000: 8768 2dbd 69bc 74bd fe2d 5f3d b49d a53c
-0.042336013 -0.059749994 0.05448722 0.0202168

encoder_variable_selection.flattened_grn.gate_norm.glu.fc.weight f4 [8, 4]
00000000: 4ca3 1d3f 9b88 003f 17a7 e5bd 265c c9be
00000010: 4d0b 2e3f 4e55 8cbc dfdc 20bf 88b2 6c3d
00000020: 6f10 3a3e 42d6 083f ddfa 17bf 0e6d 6c3e
00000030: bce1 38be cb38 4dbe 05b7 193f 3489 be3d
00000040: 9f0a ddbe 7142 eabe 310c 56be a97e 993e
00000050: 5890 f93d f692 ba3e bc37 8cbd 8915 0cbe
00000060: 1a66 943e 1823 153f 6b4d 623e 9185 3abf
00000070: 21ec e73e 7efd 1ebf 939b 84bd cac4 d1be
0.61577296 0.50208443 -0.112135105 -0.39328116 0.67985994 -0.01713052 -0.6283702 0.05778745
0.18170331 0.5345193 -0.5936716 0.23088476 -0.18054861 -0.20041196 0.6004489 0.09303513
-0.43172166 -0.45753816 -0.20903088 0.29979447 0.121857345 0.36440247 -0.06846568 -0.1368009
0.28984147 0.58256674 0.22099845 -0.72860056 0.4529734 -0.6210555 -0.06474986 -0.4097045

encoder_variable_selection.flattened_grn.gate_norm.glu.fc.bias f4 [8]
00000000: 4395 41bc ec21 22bb 4522 44bd b377 423d
00000010: a7e5 fd3b e78e a83a f69c ffbc c855 87bc
-0.011815372 -0.0024739457 -0.047884244 0.047477435 0.007748324 0.0012859971 -0.031202774 -0.016520396

encoder_variable_selection.flattened_grn.gate_norm.add_norm.norm.weight f4 [4]
00000000: bc9e 823f 9c77 893f 8fae 6a3f 92a6 8a3f
1.0204692 1.0739627 0.91672605 1.0832083

encoder_variable_selection.flattened_grn.gate_norm.add_norm.norm.bias f4 [4]
00000000: 3bbc e2bc f7d1 f7bc 900a a6bd 4b46 be3d
-0.027677646 -0.030251486 -0.081074834 0.09290751

encoder_variable_selection.single_variable_grns.TEAM_ID.mask f4 [16]
00000000: 11d8 f63c 70a6 f2bc b353 21bc 3fc0 04bc
00000010: 7e98 903a b673 3dbc 3192 193c b1d8 63ba
00000020: 24cd 593c 1e88 f63b f35f 023d 3146 67bc
00000030: 76ef 12bd 2581 a6bc 4589 90bb 72ff 243d
0.030132325 -0.02962038 -0.009846616 -0.008102476 0.0011031774 -0.011563232 0.009373234 -0.00086916523
0.013293538 0.0075235507 0.031829786 -0.014115856 -0.0358729 -0.020325253 -0.004410895 0.040282674

encoder_variable_selection.single_variable_grns.TEAM_ID.norm.weight f4 [16]
00000000: 03ff 873f 2625 783f 97a9 7e3f 9fb5 7c3f
00000010: 54ac 7d3f 780b 763f 3e04 833f 56fd 7d3f
00000020: bcc2 853f 9600 843f 9eee 863f 6fb2 7d3f
00000030: f77c 713f 1476 793f ddc7 7d3f e42c 8c3f
1.0624698 0.96931684 0.99477524 0.9871463 0.99091077 0.9611125 1.023567 0.99214685
1.0450053 1.0312679 1.054157 0.99100393 0.94331306 0.974458 0.9913309 1.09512

encoder_variable_selection.single_variable_grns.TEAM_ID.norm.bias f4 [16]
00000000: 9413 733d b8c1 9c3c e2f1 6f3d 8e16 bebc
00000010: 9ac3 60bd a106 9abd d335 5c3c 7bd9 30bd
00000020: 2898 8a38 108a 31bd 534f 7bbd 3cec e63c
00000030: c6f8 3fbd 90e9 b83c 4e0b 8539 b160 aa3d
0.059344843 0.019135341 0.058580287 -0.023204114 -0.05487404 -0.075207956 0.013440567 -0.043176156
6.608694e-05 -0.043344557 -0.061354946 0.028188817 -0.04686811 0.022572309 0.0002537616 0.08319224

encoder_variable_selection.single_variable_grns.time_idx.resample_norm.mask f4 [16]
00000000: 3ae5 1cbc 65e7 4abc 61e5 67ba b531 533c
00000010: 0ddc 413c 274b 1339 3658 813c de9e 32bb
00000020: 2c91 253c aaf1 b0bc 04e7 e4bc 6ec6 143c
00000030: d568 cbbc 045a 1c3d 1036 d0bb 2063 803b
-0.009576136 -0.01238427 -0.0008846131 0.012890269 0.011832249 0.00014047009 0.015789133 -0.0027255337
0.010105412 -0.02159961 -0.027942188 0.009080512 -0.024830261 0.038171783 -0.006354101 0.0039180666

encoder_variable_selection.single_variable_grns.time_idx.resample_norm.norm.weight f4 [16]
00000000: e934 7c3f acd2 7a3f cdff 7e3f fbae 813f
00000010: 38be 823f 5ed8 7c3f 8432 853f 15a8 7b3f
00000020: 5ed5 843f 7f90 783f ff78 753f affd 813f
00000030: 35b3 783f c34f 863f 061a 7f3f f423 823f
0.98518234 0.9797771 0.9960907 1.0131525 1.02143 0.9876765 1.0406041 0.9830335
1.0377614 0.97095484 0.9588775 1.0155543 0.9714845 1.0493091 0.99649084 1.0167222

encoder_variable_selection.single_variable_grns.time_idx.resample_norm.norm.bias f4 [16]
00000000: 1f95 a13c 02f9 ab3c b62a fb3b 1d94 14bc
00000010: a5cb efbc 81f0 c33a 057d f2bc 269e aabc
00000020: d688 843c f873 f5bc b1e6 24bd b3d7 213c
00000030: 8280 d7bc 0a9f 713d cd5b f139 0810 cf3c
0.019724427 0.02099276 0.0076650036 -0.009068516 -0.02927191 0.0014948995 -0.02960063 -0.020827364
0.01617853 -0.029962525 -0.040259067 0.009878087 -0.026306394 0.058989562 0.000460355 0.025276199

encoder_variable_selection.single_variable_grns.time_idx.fc1.weight f4 [8, 8]
00000000: fe1d 203f 0aac 433f 3e57 063f d8e7 b23d
00000010: 3740 253e 99d0 7cbe 93d2 15bf fbe7 11bf
00000020: 3d9f 8ebd 2dcd 24be 7227 643f c1b8 ec3e
00000030: 1aab 6cbe 6378 323c 453f 37be 3e9a a7be
00000040: ae26 dbbd 8be2 9bbe ab94 60be 0a50 e03f
00000050: ec39 c03e bd17 81be 354b 673f 4eec 333f
00000060: cf19 7e3b dd63 9e3e 9410 01bf 739e 913e
00000070: e2c7 f43e 82d7 353f 5948 403f 1c38 aa3b
00000080: ad92 3d3e c8be 29be 9c1a 98bd fa19 9b3c
00000090: 5a47 893e 9aad 62bf fd92 8abe ab12 43be
000000a0: fc2a bbbe 47e8 733e 42c8 1e3f 6867 043f
000000b0: fd01 453e fe30 f0be 62cf 3c3e 2753 aa3e
000000c0: 3953 edbe 4fc8 70be 7439 2fbf a6ad 8bbe
000000d0: b24e 9a3c 8576 5e3e 799d 4e3f 6296 e13e
000000e0: 08e9 073f 6832 a83e 4c8f 543d aa1f 12be
000000f0: ff39 893f c861 66bf 0bdb 6fbd f004 bd3b
0.62545764 0.76434386 0.5247687 0.08735627 0.16137777 -0.24688949 -0.58524436 -0.569946
-0.06963966 -0.16093893 0.8912269 0.46234706 -0.23112145 0.01089296 -0.17895229 -0.32734865
-0.10700737 -0.30446276 -0.21931712 1.7524426 0.3754419 -0.25213423 0.9034913 0.7028245
0.0038772707 0.30935565 -0.5041592 0.284412 0.47808748 0.71031964 0.75110394 0.005194677
0.18512984 -0.16576684 -0.0742695 0.018933285 0.2681225 -0.88546145 -0.27065268 -0.1905009
-0.36556232 0.23819076 0.6202432 0.51720285 0.1923904 -0.46912378 0.18438485 0.33266565
-0.46352556 -0.23513912 -0.6844704 -0.2728092 0.018836353 0.21724899 0.80709034 0.44060045
0.5308995 0.32850957 0.05189447 -0.14269891 1.0720824 -0.8999295 -0.058558505 0.005768411

encoder_variable_selection.single_variable_grns.time_idx.fc1.bias f4 [8]
00000000: 9a6b 203b 4420 aa3a 4c7c 7f3c d831 5a3c
00000010: bd7d 19bc 1412 283c a82a fdba 8874 71bc
0.0024478198 0.0012979587 0.0155935995 0.013317548 -0.009368357 0.010258216 -0.0019315081 -0.014737256

encoder_variable_selection.single_variable_grns.time_idx.fc2.weight f4 [8, 8]
00000000: f25c 02bf 78c6 9d3d 530c 993d 191c 4c3f
00000010: 9770 bb3f caf3 173e c3e8 11be c45e febe
00000020: 1998 82be 5910 c4be 4bca 2f3f b807 a63e
00000030: 3a75 14bf 69fd 923e 98c5 7ebe 5b19 e13e
00000040: 64f6 97bd 5611 4c3f b143 f2bc 2387 8bbe
00000050: f991 ccbd 343c f4bd 252c 69bf a477 9a3e
00000060: 3680 7abf 9279 903e 9ea5 23bf c07e 7cbe
00000070: 3745 f13e 4105 cfbe d46a 383f 06a5 6f3f
00000080: a73b 413f 002c 91bf 3772 2a3f 29c3 50bf
00000090: b807 003e 0d2b 503d 44aa 913e b4cb b73e
000000a0: f875 0cbf 82a8 13bf 8fcc aabe 30d6 973d
000000b0: 5254 7d3e 654d 20bf d28b fd3d 9048 dd3e
000000c0: d7dc 313e dd90 583d 9d54 0c3f 0c59 123e
000000d0: 8db6 d8bd 35fe e63d 4e4c 23bf 2643 4c3f
000000e0: 6ffe 10bf 462a 713e 3672 d93d e533 143d
000000f0: 3ad1 a6be 6027 27be 1dcc 273f ccdc de3e
-0.50923073 0.077038705 0.07473054 0.79730374 1.4643735 0.14839092 -0.14248948 -0.49681675
-0.25506666 -0.38293722 0.6866805 0.32427764 -0.57991374 0.28708962 -0.24880064 0.43964657
-0.07420042 0.7971395 -0.029573293 -0.2725154 -0.099887796 -0.11925545 -0.91082984 0.30169404
-0.97851884 0.2821775 -0.63924587 -0.24657726 0.4712312 -0.40433696 0.72038007 0.9361118
0.7548165 -1.1341553 0.6658053 -0.8154779 0.12502944 0.050822306 0.28450215 0.358976
-0.54867506 -0.57679 -0.3335919 0.074139 0.24739197 -0.62618095 0.12380184 0.43219423
0.173694 0.052872527 0.5481661 0.14291781 -0.10581694 0.11278955 -0.63788307 0.7978996
-0.56638235 0.23551282 0.10617487 0.036182303 -0.32581502 -0.16323614 0.6554583 0.4352783

encoder_variable_selection.single_variable_grns.time_idx.fc2.bias f4 [8]
00000000: a6db cf3b d3fe 843b c5ac b7bb e196 86bc
00000010: ab06 90bb 91ad 55bc a22c 38bb d71b 603c
0.006343323 0.0040586977 -0.0056053125 -0.016429367 -0.004395326 -0.01304187 -0.0028102775 0.013678513

encoder_variable_selection.single_variable_grns.time_idx.gate_norm.glu.fc.weight f4 [32, 8]
00000000: d872 9e3e ed22 7a3c d69a 7b3d d324 98be
00000010: 292e 1b3e 34f7 35bd c7be 7ebe 4597 afbd
00000020: e6ac 833e 7f37 c3be f7de b4be cb56 debb
00000030: db5e 883e 2575 76bd c9ec a13d efe9 93be
00000040: 5714 b8be 1b3f a33d 9f8f 19be 1fb1 1b3e
00000050: 9d1e 54be 6984 45bd c3d1 95bd 3075 ba3e
00000060: 108d 923e 10b4 31be 9c1b 333d 83c2 bfbe
00000070: 2ed8 ea3d ed9f 8f3e db25 80bb 1e88 2dbe
00000080: 3f78 f23d 5020 dc3b 6173 b43e cb7a 373e
00000090: b031 9fbe 8a61 b13d d7f0 9cbe 3f4d 27bd
000000a0: d70a 213e adcf 4abd 25e9 93be 6dcb 14be
000000b0: 98c8 df3c 8587 873e 3877 263e 948c c53e
000000c0: d10a f6bd a47d 023e 626e dc3d d71e 18bd
000000d0: f61d bc3e 80f9 a43e cc5f 77be 9867 cdbe
000000e0: 9438 c8be 321f a9be e062 983e 43a5 94be
000000f0: 9184 3fbd 1baf eebd 8f9f 86be 654f 40be
00000100: af4e 8dbe 26e5 35be f011 433d 4386 7c3d
00000110: b9d8 a2be b345 7c3e fa9d c13d d195 843e
00000120: f9ef fc3d 15f4 953e 3f09 adbe 1c0f dd3d
00000130: 3bd5 96be fcc3 833e fc1c 75be eed0 0e3e
00000140: 8206 823d 3b65 e23c 2db2 a23e 1eb8 aa3e
00000150: 3716 8c3e 475c 46bd e9a8 e7bd b11b 103e
00000160: 52c3 9ebd 76b7 99bd 27f6 94be 394c c4bd
00000170: 43b1 bebe 3d8a 19be fd01 0cbe 62ae 653d
00000180: 2a12 603e 3be5 173b 4d9c 883e 3a88 3e3e
00000190: 3ada 123e f17e f23d 4bd9 aebc 5716 80bd
000001a0: 7bc7 2dbe e6e0 ecbd 3e08 843e 07c7 b6be
000001b0: 1862 4c3e e648 93be 1fd2 a1be c883 89be
000001c0: 796a 813c 06e7 f43d 21fd c93d a8bc 60be
000001d0: 84a2 22bd 1d1e 9abe 0588 2b3e a47c 50bd
000001e0: b2b0 09be 09d7 8f3e 104f 14be 7474 6d3d
000001f0: 0fe1 a9bd 2d24 813e 0ee8 253e 53c2 433c
00000200: e71e 063e 02d6 113e aa00 3abd 2b88 c5bd
00000210: 641d 613e 0a89 cc3d 6f47 cfbc 115c 29be
00000220: 7c7f 80be 3f1c 073e af67 7a3e f284 a7be
00000230: 360d 623e 65d9 cf3d 87cd 273e 5990 9f3d
00000240: 4ebb af3e cfe3 86bd 03c4 ffbd 4012 9dbe
00000250: 3a64 25be 6613 4d3e 5782 193e 9c33 2fbe
00000260: c1d8 663e 1860 84be 66f5 b23e f8c8 a03c
00000270: c8e7 bbbe 48bb 183e 88fa c13e c589 ca3d
00000280: 24d3 183e d124 32be b923 383e f4f7 6b3e
00000290: 4d74 acbe c516 a63e e893 893e 8458 c6bb
000002a0: 31b9 41be a0b4 733e 79fa 8dbe f27a 78be
000002b0: 671f a83d d866 4b3e d042 7c3e 9428 0a3e
000002c0: 5055 5abe ae88 66be 7115 b6be 3810 bcbe
000002d0: 1b20 bf3e e0c6 c53e d22f b3be 36ac dfbd
000002e0: b97b 48be 02b5 be3e 25c4 9c3e ddf3 063e
000002f0: 482b 51be 4bdd bd3e 1656 3bbe 900d aebe
00000300: 49e9 8b3e 350a 843e 81d2 1dbc d04b 693b
00000310: fdd8 9c3d 26bb 02be 2370 043e 8f7f 313e
00000320: 4b35 b4be c3aa a03d 800c 703e f9ab 67be
00000330: 75b0 933d 2d22 343e 3567 023d 0c2a afbe
00000340: 3611 8fbe 46b0 06bd cb85 8bbe 0947 a63e
00000350: fc79 adbd 06e4 003e 5ef2 8e3d 9809 23be
00000360: 1ad0 c8bc 8602 813e 5504 9dbe e193 223e
00000370: 2a3e c23c a4d0 943e d646 b03d cdc8 b53e
00000380: 0e73 12be 7208 183e 5578 a93e d85d b4bc
00000390: 93cf c5be dbf5 ddbd 083a 9dbe 3e18 943d
000003a0: 99e9 bdbe df46 61be e4f4 8dbe 9eac bcbe
000003b0: 348a fbbc 6140 2abe c87d b93e 3695 a5be
000003c0: 90f1 70be 2ad7 553d fd72 22bc a53b 363e
000003d0: 8fa2 8abe a687 93be c217 9e3d 1cdb 74be
000003e0: 45b2 bd3e 52d7 443e 132c c4be 2360 c2be
000003f0: e651 8e3e 0c01 2dbe 631c b1be c162 efbd
0.30946994 0.015267116 0.06142696 -0.29715595 0.15154327 -0.044425204 -0.24877463 -0.08573774
0.2571785 -0.38128278 -0.3532636 -0.006785249 0.2663487 -0.06017031 0.07906491 -0.28889415
-0.35953018 0.07971021 -0.14996193 0.15204285 -0.20714803 -0.04822198 -0.073153995 0.36417532
0.28623247 -0.17353845 0.043727502 -0.37453088 0.11467014 0.280517 -0.0039107627 -0.16946456
0.11839341 0.006717719 0.35244277 0.17917936 -0.31092596 0.08661182 -0.30652496 -0.040845152
0.15726791 -0.04951446 -0.28888813 -0.14530726 0.02731733 0.2647058 0.16256416 0.38583815
-0.12013782 0.1274324 0.10763241 -0.037138786 0.36741608 0.32221603 -0.24157637 -0.40118098
-0.39105666 -0.33031613 0.29762936 -0.29032335 -0.046757285 -0.116544925 -0.2629361 -0.18780287
-0.27599093 -0.17763194 0.04762453 0.06165148 -0.3180597 0.24635963 0.0945396 0.2589555
0.12350459 0.29287782 -0.33796117 0.107938975 -0.29459557 0.25735462 -0.23936838 0.13946888
0.063488975 0.027636161 0.31776562 0.33343595 0.273607 -0.048427846 -0.11311514 0.14073063
-0.07752098 -0.075056955 -0.2909405 -0.09584851 -0.37244615 -0.1499414 -0.13672633 0.056074508
0.21881929 0.0023177403 0.26681748 0.18606654 0.1434106 0.118406184 -0.021343848 -0.06254261
-0.16970627 -0.115663335 0.25787538 -0.3569872 0.19959295 -0.28766555 -0.31605622 -0.26858354
0.01579784 0.11958127 0.09862734 -0.21946967 -0.03970577 -0.301011 0.16751106 -0.050900117
-0.1344631 0.28093746 -0.14483285 0.057972386 -0.0829488 0.25222912 0.16201803 0.011948186
0.13097726 0.14241794 -0.04541079 -0.096451126 0.21983868 0.099870756 -0.025302617 -0.16539027
-0.25097263 0.13194369 0.24453615 -0.32718617 0.22075352 0.101488866 0.16386996 0.07791204
0.3432259 -0.0658642 -0.12488558 -0.30677986 -0.16151515 0.20026931 0.14991127 -0.17109531
0.22543623 -0.25854564 0.3495285 0.01962708 -0.36700273 0.14915192 0.37886453 0.09889559
0.14924294 -0.17396857 0.17982377 0.23043805 -0.3368248 0.32439247 0.26870656 -0.0060530324
-0.18918301 0.23799372 -0.27730158 -0.2426565 0.082091145 0.1986345 0.24634862 0.13492042
-0.21321607 -0.22513077 -0.35563233 -0.36731124 0.37329182 0.38628292 -0.34997422 -0.109215185
-0.19578446 0.37247473 0.30618396 0.13178964 -0.20426667 0.37082896 -0.18294558 -0.33994722
0.2732642 0.25789037 -0.009632708 0.0035598166 0.07658575 -0.12766704 0.12933402 0.17333816
-0.3519691 0.0784507 0.23442268 -0.22624196 0.07211391 0.17591162 0.031836707 -0.34211767
-0.27942818 -0.03288295 -0.27250513 0.3247607 -0.08470532 0.12586984 0.069798216 -0.15921628
-0.024513293 0.25197238 -0.30667368 0.15876724 0.023711283 0.2906543 0.08607261 0.3550476
-0.14301702 0.14846972 0.3309962 -0.022017404 -0.3863493 -0.10837909 -0.30708337 0.07231186
-0.37092283 -0.21999691 -0.277259 -0.36850446 -0.030705549 -0.16626121 0.36228776 -0.323404
-0.23529649 0.05220715 -0.009915111 0.1779619 -0.27077147 -0.2881443 0.07719375 -0.23911709
0.3705007 0.19222763 -0.38314876 -0.37963971 0.2779686 -0.1689493 -0.3459197 -0.11688758

encoder_variable_selection.single_variable_grns.time_idx.gate_norm.glu.fc.bias f4 [32]
00000000: c2e5 3b3c fc96 e13b 1624 853b 1800 d3bb
00000010: da17 a1bc 2d90 643b cf29 a4bc b3d9 3bbc
00000020: 3f8f 1a3c ff44 10bc b718 f0bc 2fa9 143c
00000030: 2e1f 6ebc ae9a e43c 84ce f937 a8b3 733c
00000040: 0497 07bb 1a1b 63b8 6fca 593b 7701 ccb9
00000050: eb89 34bb badd 373b 5357 333b 21f7 ce3b
00000060: c54d 7dba 8d0f 4bbc dada 48bb 7113 bf3a
00000070: 20d9 f23a c90b 0dbd d88c 80b8 284e ee3a
0.011468353 0.006884454 0.0040631397 -0.00643922 -0.019664694 0.0034875975 -0.020039467 -0.011465478
0.009433567 -0.008805512 -0.02930866 0.00907354 -0.014533801 0.027905788 2.977928e-05 0.014874376
-0.0020689378 -5.4146258e-05 0.0033232232 -0.00038911004 -0.0027548026 0.0028055743 0.0027365282 0.006316081
-0.00096627726 -0.012393844 -0.0030648024 0.0014577938 0.0018527843 -0.034435067 -6.12975e-05 0.0018181251

encoder_variable_selection.single_variable_grns.time_idx.gate_norm.add_norm.norm.weight f4 [16]
00000000: e7a8 7b3f 3f5f 7a3f a659 7e3f b154 813f
00000010: cc6c 823f e065 7e3f 9d5b 863f 6b47 803f
00000020: d212 833f 9348 743f 87e1 733f f408 843f
00000030: 2df7 793f f125 813f 3d63 7f3f c9cf 823f
0.983046 0.97801584 0.9935554 1.0103971 1.0189452 0.993742 1.0496708 1.0021795
1.0240119 0.9542324 0.95266 1.0315232 0.97642785 1.0089704 0.997608 1.0219661

encoder_variable_selection.single_variable_grns.time_idx.gate_norm.add_norm.norm.bias f4 [16]
00000000: 491a a33c 7e00 c03c 7c5f 613c 79e4 01bc
00000010: 3626 0cbd 2bb5 fbb9 5136 23bd b677 e6bc
00000020: 20b7 de3b 102b 16bd f5e9 3abd ef15 723c
00000030: 8161 f1bc 9423 7f3d 636d 11ba fcab d33c
0.019909995 0.023437735 0.013755675 -0.007928007 -0.03421613 -0.0004800943 -0.039846722 -0.028133254
0.0067967325 -0.03666216 -0.045633275 0.014775737 -0.029465439 0.06228979 -0.0005547611 0.025838844

encoder_variable_selection.single_variable_grns.relative_time_idx.resample_norm.mask f4 [16]
00000000: a3dc 943d 4881 943c e26d 53bd cf7b 253d
00000010: 13a9 893d b62d c93c 7a2b 9f3c c368 71bd
00000020: 4ff8 993d 6a82 65bd 4263 aabd 28fe 373c
00000030: 5d32 083d da9d acbd e595 f43b 90ce 443d
0.072686456 0.018128052 -0.051618464 0.040401276 0.067217015 0.02455793 0.01942991 -0.0589378
0.07518064 -0.056032576 -0.08319713 0.011230029 0.033251155 -0.08428545 0.007464158 0.048048556

encoder_variable_selection.single_variable_grns.relative_time_idx.resample_norm.norm.weight f4 [16]
00000000: 89fd 893f 21e2 823f 1dd9 6c3f a751 853f
00000010: 6249 8b3f 3415 863f e7fd 823f d5e1 6b3f
00000020: 7ef0 8a3f 52bd 683f 0366 643f 3378 813f
00000030: 9a31 853f ebc2 663f b96d 7d3f 2ea2 873f
1.0780498 1.0225259 0.9251879 1.0415543 1.088177 1.0475221 1.0233735 0.9214147
1.0854642 0.9091388 0.8921816 1.0114807 1.0405762 0.9014117 0.9899555 1.0596368

encoder_variable_selection.single_variable_grns.relative_time_idx.resample_norm.norm.bias f4 [16]
00000000: 04e7 823d b4b9 813d 5514 963d d0d6 23bd
00000010: 61cf b5bd 0f91 8fbd 33f3 71bd 0afc b4bd
00000020: 2575 993d fe6b a2bd 4690 e5bd e7ee 823c
00000030: 4ace 33bd 6824 bd3d 79a4 3f3c 733c cd3d
0.06391719 0.06334248 0.07328097 -0.039999783 -0.08877445 -0.070100896 -0.059069823 -0.08837135
0.07493047 -0.07930754 -0.112091586 0.015983058 -0.043897904 0.092354596 0.011696928 0.100212954

encoder_variable_selection.single_variable_grns.relative_time_idx.fc1.weight f4 [8, 8]
00000000: 185f a8be 0e47 bbbe ec6d 11bf eb46 373e
00000010: 6315 003f 9db8 1bbd 6fb7 a9bf b04c c73e
00000020: 212d 56be e42c d13d d5fc 65bf 083b 8cbf
00000030: f0b4 103f c862 dcbc 77e6 9e3e 4a96 31bf
00000040: 0de9 8fbe 3e6d 273f e727 afbe 8717 203f
00000050: 05fd ee3d 5888 933d 0b01 3ebf b494 65bf
00000060: 8020 e63e e2ea 01bf 29b2 3ebe cff2 a83e
00000070: 0b58 3f3f 73e0 513d a523 b6be 87e1 83be
00000080: d26f 27be 49d9 b63d cac7 b23b c5a4 27bf
00000090: 3570 26be 64e6 0abf c375 383f 4ee7 873e
000000a0: c14a be3e 11f1 ebbe e27e 22be dbf6 bb3e
000000b0: 108b 073e dc45 053f e9cc 0c3f c6f0 e63d
000000c0: 634e 853f 6a45 5e3f fcd8 7b3e 130f b93c
000000d0: a780 523e 34b2 3cbf 9123 333f 9001 53be
000000e0: cd04 073f fbcd 3a3e f368 1b3d 7297 6dbe
000000f0: 6f0d 2bbf ed45 16be 6de3 a3bd 685f 03bf
-0.3288505 -0.36577648 -0.5680835 0.17898147 0.50032634 -0.038017858 -1.3259104 0.38925695
-0.20915653 0.1021364 -0.89838916 -1.0955515 0.5652609 -0.026902571 0.31035206 -0.6936995
-0.2810749 0.65401065 -0.3421013 0.625359 0.116693534 0.0720374 -0.7422034 -0.8968003
0.4494667 -0.5074903 -0.1862265 0.32997748 0.7474372 0.051239442 -0.3557407 -0.25758
-0.1635125 0.089281626 0.0054559456 -0.65485793 -0.16253741 -0.542578 0.7205469 0.2654366
0.37166408 -0.46082357 -0.15868714 0.36711773 0.13236642 0.5205972 0.5500017 0.11276393
1.0414547 0.8682467 0.24594492 0.022590196 0.2055689 -0.73709416 0.69976145 -0.20606065
0.527417 0.18242638 0.037941884 -0.23202303 -0.66817373 -0.14675112 -0.080023624 -0.51317453

encoder_variable_selection.single_variable_grns.relative_time_idx.fc1.bias f4 [8]
00000000: 4546 a33d bdcf 903d 4f16 893d 4726 47bd
00000010: 9894 43bd c11a a13d e599 a0bd cb69 a3bd
0.07972387 0.07070873 0.06693708 -0.04862049 -0.047749132 0.07866431 -0.07841853 -0.07979163

encoder_variable_selection.single_variable_grns.relative_time_idx.fc2.weight f4 [8, 8]
00000000: ff7f 5f3f fccd 833f 94d5 b43c fa6a 663c
00000010: 2306 b73e 51e7 17be 6e2a 84bf a426 6dbf
00000020: baff 2d3f 9ccb 913d b734 283f d6b2 c6bd
00000030: e28e 13bf 63bc 6e3f 18ae 0cbf c08f a1be
00000040: 0be9 fa3e 3121 a2bd 07a6 b1be b9e7 fabe
00000050: de80 b2be 2427 e13d 85cf afbe b5b6 60be
00000060: 0b3f 28bd fdd2 af3e 4dcd fc3c fa93 42be
00000070: 9c6e f5be d055 e8be 5078 863e 1880 28bf
00000080: fbf3 0abd 2ba2 6bbe b585 35bf a768 a9be
00000090: 7362 7d3f d658 0fbf 0fdb b2be 4cab 29be
000000a0: 9e30 38bf 6a46 e43c b0f3 3b3e 48c5 fdbe
000000b0: 3226 0bbf 4988 983e 5e36 bc3e 9947 b0be
000000c0: edef ed3e 207e 703e 93cd 373d 45d9 cb3d
000000d0: cced 543f 4501 8dbf 4570 043f 109d ba3e
000000e0: 8a39 32bf 2e0f 83bf 9aae f1be dd02 89be
000000f0: dc27 4bbe e74f 8f3f 3c62 f6be 246c 8d3d
0.8730468 1.0297236 0.022074498 0.014063591 0.3574687 -0.14834334 -1.0325449 -0.92637086
0.6796833 0.071189135 0.65705436 -0.09702079 -0.57639897 0.93256205 -0.54953146 -0.31554985
0.49005923 -0.07916487 -0.3469698 -0.49004915 -0.34863943 0.109937936 -0.34338012 -0.21944697
-0.041075747 0.3434066 0.030859614 -0.19001761 -0.4793595 -0.4537797 0.26263666 -0.65820456
-0.033924084 -0.23011081 -0.70907146 -0.33087656 0.98978347 -0.5599493 -0.34932753 -0.16569251
-0.71949184 0.027865607 0.18354678 -0.49564576 -0.54355156 0.29791477 0.3676023 -0.34429625
0.4647211 0.23485613 0.044873785 0.0995355 0.8317535 -1.1016012 0.5173381 0.36447954
-0.6961905 -1.0239007 -0.47203523 -0.26759997 -0.19839424 1.1196259 -0.48121822 0.06905392

encoder_variable_selection.single_variable_grns.relative_time_idx.fc2.bias f4 [8]
00000000: 3562 4c3d e068 a73d 43a4 153d 0886 833d
00000010: 8e1d 6dbc 4d9e 56bd 538b 49bd a5fb 07bd
0.049898345 0.081743 0.036533605 0.06422049 -0.014472378 -0.05239706 -0.049205136 -0.03319897
