ml/best_model/version_64/checkpoints/epoch=19-step=1000.ckpt (torch, 632680 bytes, 930 tensors)

input_embeddings.embeddings.TEAM_ID.weight f4 [30, 11]
0.9354445 -0.18804947 0.747696 0.5152133 -0.40942743 -1.3032722 0.07572976 -0.61818594
-1.1524681 0.77837694 -0.06572263 2.072176 0.096733615 0.7404491 0.54761523 -0.66768813
-0.66762096 -0.26796457 1.5881809 -0.3576888 0.30811897 -1.0492295 0.8593635 -0.6117911
0.9706481 -0.6667789 -0.0052708066 0.3515559 -0.22263232 1.7405305 -1.5448211 0.62011015
0.20289503 2.1587305 0.4281334 1.1919 -0.9181592 -1.9869044 -1.3199868 0.20477912
-0.8484932 -0.62522 -0.8136063 2.0875297 0.04704282 0.49346158 -1.7179354 0.5802181
1.2641019 1.8790056 0.3194828 -0.20816174 -0.21283443 -0.24916118 0.988739 -0.3813605
-0.6770898 -0.44107983 0.24654922 -0.40989426 0.8322718 1.4216146 0.5203246 2.0610797
0.44570583 -0.25628838 0.811173 1.9300191 -1.2733428 -1.2409208 -0.4877025 2.2799184
2.5811508 -0.25260064 -1.0892627 1.6729697 0.37888148 -0.2651268 -1.5474981 -0.45427662
1.2602834 1.4352213 -1.3701012 1.0359846 -1.2732118 -0.057745643 -1.0422481 -0.7148994
1.1271615 0.6585994 1.1308943 -0.5862264 -1.781187 -1.3988041 1.1047975 1.5934758
-0.9748452 -1.3437173 0.13931656 -1.514838 -0.87883955 0.030990476 1.5551798 -0.29142532
-0.91475314 -0.5846747 -0.35727093 -0.47281504 1.1885471 -0.69062734 -1.65254 -0.32753497
0.34226048 0.2719521 -1.0557739 0.06942629 1.9193543 -0.21735495 -0.5806062 -2.27148
1.4767554 -0.15954533 -0.40258017 0.13444503 0.40476543 0.28572908 -1.018612 1.0487782
0.527347 -1.4794375 -1.0108485 1.5856916 0.69268954 -1.6643866 -2.3826022 1.3481336
2.1549172 -1.1382629 -1.7322849 -0.01370853 -1.4806082 -0.7466038 1.3229877 -1.3135659
0.77772975 -0.9055531 -0.33508977 -0.54624426 1.8033991 -1.0126413 1.2166783 -0.012416962
0.6965238 -0.5498308 -0.5029503 -0.07878652 -0.38847512 -0.32819074 -0.53854424 0.6446362
-0.56752014 -1.0133526 1.1489866 0.23009627 -1.8344325 0.0058338004 -0.3412228 1.722735
1.2648361 0.46855205 0.8464578 1.5480813 -0.91193855 0.6697907 0.23702934 -0.32946476
0.42842185 0.10748666 -0.45093745 -0.17915016 0.45001358 2.334365 0.29345354 -0.2916235
0.7060993 1.3396754 -0.90812147 -0.17499061 0.4931878 0.08123857 0.12437205 0.4861188
0.1390075 -1.6640843 0.52412605 0.27112952 0.5370506 0.19616681 1.1090801 -0.43750018
0.56868434 -0.8211059 2.3563676 -0.032223593 0.65508676 -0.04607248 0.47195742 -2.3671112
-0.7333402 1.8541461 -0.6948277 -0.82603604 -2.6025548 -0.5498125 0.36611235 0.339659
-1.9227052 0.6576013 0.5316883 -0.56977373 -1.273204 0.16782996 2.6466403 -1.5473377
-0.9941905 -1.5229563 0.17305271 1.0401354 -0.7771482 0.8853182 0.28793216 -0.81130314
0.20215684 -0.45148286 -0.27129832 -0.1899656 1.6360569 0.4507648 -0.6556591 0.14614925
0.28030324 -0.77233016 -1.0241705 1.1973355 2.0406754 0.6401908 0.6427504 -0.052467313
0.7400106 1.5541503 -0.31100217 -0.068330206 -0.4239296 0.94947827 0.7323071 2.125152
00000000: 4a79 6f3f 0a90 40be 0169 3f3f 05e5 033f
00000010: 79a0 d1be a0d1 a6bf 3418 9b3d 6f41 1ebf
00000020: 1384 93bf b643 473f 9699 86bd 889e 0440
00000030: 461c c63d 128e 3d3f 8330 0c3f 9ced 2abf
00000040: 35e9 2abf a732 89be 8349 cb3f fd22 b7be
00000050: c5c1 9d3e 274d 86bf 3fff 5b3f 579e 1cbf
00000060: 657c 783f 06b2 2abf bbb6 acbb 23ff b33e
00000070: baf9 63be b4c9 de3f b3bc c5bf 8abf 1e3f
00000080: b7c3 4f3e a428 0a40 4d34 db3e 2e90 983f
00000090: 7b0c 6bbf e252 febf 54f5 a8bf 9eb1 513e
000000a0: da36 59bf 6b0e 20bf 8148 50bf 169a 0540
000000b0: f9af 403d ffa6 fc3e 4fe5 dbbf 2c89 143f
000000c0: 17ce a13f 4183 f03f 4093 a33e 5a28 55be
000000d0: 45f1 59be 1c24 7fbe 001e 7d3f af41 c3be
000000e0: c255 2dbf 37d5 e1be 6677 7c3e a9dd d1be
000000f0: c40f 553f 78f7 b53f fe33 053f bbe8 0340
00000100: 8e33 e43e 3b38 83be 09a9 4f3f de0a f73f
00000110: e6fc a2bf 7ed6 9ebf 24b4 f9be 2fea 1140
00000120: 9331 2540 df54 81be f66c 8bbf df23 d63f
00000130: c1fc c13e b3be 87be 6b14 c6bf f296 e8be
00000140: f750 a13f 55b5 b73f 7a5f afbf 259b 843f
00000150: 9bf8 a2bf b286 6cbd 6368 85bf a603 37bf
00000160: d446 903f f899 283f 25c1 903f ef12 16bf
00000170: f0fd e3bf 030c b3bf 016a 8d3f 04f7 cb3f
00000180: 748f 79bf eefe abbf 00a9 0e3e 36e6 c1bf
00000190: a1fb 60bf bddf fd3c 2210 c73f b335 95be
000001a0: 432d 6abf 3ead 15bf 37ec b6be d014 f2be
000001b0: 5022 983f f4cc 30bf 6e86 d3bf aab2 a7be
000001c0: c43c af3e 4e3d 8b3e 9923 87bf 5f2f 8e3d
000001d0: 67ad f53f 4c92 5ebe 9ca2 14bf ee5f 11c0
000001e0: 5206 bd3f da5f 23be fd1e cebe f5ab 093e
000001f0: 6a3d cf3e 154b 923e e161 82bf 5d3e 863f
00000200: 3700 073f 355e bdbf 7c63 81bf f1f7 ca3f
00000210: 1a54 313f 9f0a d5bf 8e7c 18c0 a48f ac3f
00000220: 2aea 0940 99b2 91bf 83bb ddbf be99 60bc
00000230: 9284 bdbf 6d21 3fbf a957 a93f ed22 a8bf
00000240: 4c19 473f 54d2 67bf e390 abbe aad6 0bbf
00000250: c8d5 e63f 3b9e 81bf 1dbc 9b3f 8370 4bbc
00000260: 624f 323f b6c1 0cbf 5ac1 00bf d45a a1bd
00000270: 36e6 c6be 9e08 a8be 09de 09bf e106 253f
00000280: 0049 11bf 8ab5 81bf fe11 933f 5b9e 6b3e
00000290: afce eabf 7729 bf3b c1b4 aebe 9582 dc3f
000002a0: 26e6 a13f 0ee6 ef3e 75b1 583f 8727 c63f
000002b0: ce74 69bf 6777 2b3f d2b7 723e 9baf a8be
000002c0: 1c5a db3e f721 dc3d 46e1 e6be 2473 37be
000002d0: 2e68 e63e 3c66 1540 8b3f 963e ad4f 95be
000002e0: ecc2 343f 7c7a ab3f a67a 68bf bd30 33be
000002f0: 1c83 fc3e 6860 a63d c6b6 fe3d 90e4 f83e
00000300: fb57 0e3e b700 d5bf 202d 063f 7dd1 8a3e
00000310: 267c 093f f4df 483e 56f6 8d3f 0600 e0be
00000320: 4c95 113f ff33 52bf bace 1640 e3fc 03bd
00000330: c4b3 273f 7fb6 3cbd 67a4 f13e c07e 17c0
00000340: 2fbc 3bbf a954 ed3f 3ae0 31bf 1977 53bf
00000350: 4290 26c0 83c0 0cbf 1473 bb3e c9e7 ad3e
00000360: 341b f6bf 8f58 283f b91c 083f b1dc 11bf
00000370: 59f8 a2bf 9edb 2b3e 8e62 2940 290f c6bf
00000380: 4583 7ebf 3bf0 c2bf bb34 313e 2823 853f
00000390: 2ff3 46bf 37a4 623f d86b 933e 90b1 4fbf
000003a0: 3402 4f3e c328 e7be 9de7 8abe 5886 42be
000003b0: 506a d13f a5ca e63e 46d9 27bf 26a8 153e
000003c0: e883 8f3e 6eb7 45bf 0518 83bf 4a42 993f
000003d0: 6d9a 0240 8be3 233f 4a8b 243f f7e7 56bd
000003e0: 5671 3d3f 66ee c63f ad3b 9fbe b5f0 8bbd
000003f0: 4d0d d9be 0211 733f 7a78 3b3f 7e02 0840

input_embeddings.embeddings.OPPONENT_ID.weight f4 [30, 11]
0.5803077 -0.44053885 -1.0404073 0.6735821 0.11436615 1.132409 -0.7398741 -0.90900725
0.30377492 -0.107895374 -0.61255425 -0.18872195 0.8028306 0.9872484 -1.1044865 0.74762887
0.5962272 -0.13781987 1.3426566 -0.9792289 -0.8299052 0.2390438 -0.06036793 0.8090004
-0.4400064 1.8493866 0.12031011 -0.04222539 -0.0039823693 -0.39326322 0.9699208 0.98547983
0.28621566 -1.8526853 0.3669723 -0.017864523 0.71810603 -0.14664496 1.0507987 -0.98078024
-0.37263554 -0.23297733 -1.1363888 -0.25350276 0.22580968 -0.4433914 -1.1856736 1.4538602
0.37454757 -0.12956938 -0.71523875 0.3008008 1.421649 -0.36251423 -0.81445074 -0.5858698
-1.3589084 0.20366275 0.48225418 0.40766907 0.4890761 -1.4661623 -0.9602332 -0.43435505
0.43730387 -1.2312936 0.75617766 -0.2946271 0.8340432 0.71897614 0.85444015 0.72366464
0.3432563 0.14467701 -1.3495444 -2.2749445 -1.0862982 0.029805 -0.023621095 0.26837856
0.5728684 -2.3158324 -0.12749432 -1.128313 -0.57160866 0.68120736 0.35557196 0.139349
-1.4776247 1.307559 0.42474622 0.59561664 0.7416297 0.36681145 -2.1205738 0.95134425
0.19302157 -0.13116346 -1.0284851 -0.8422265 -1.5710765 0.21713278 1.0353302 0.89710385
1.3922462 -1.0739297 0.23321778 0.14153615 1.476033 -1.4849457 1.316956 0.17718695
0.9107898 -0.078719035 0.30932388 1.1333116 1.7686473 0.29908082 -0.87747175 0.30593497
-0.062623255 1.8827813 0.8738761 -1.1699599 1.5136707 0.44551587 -1.4114691 -0.36614496
2.3749456 0.7010295 -1.0667119 0.047052737 -0.16208869 0.6546738 -0.44179693 0.89971673
-0.42429394 -1.401107 -0.8024414 0.49643144 0.0454705 -0.327044 0.42939505 -0.84233445
2.4024909 0.2945826 -0.1553952 1.42991 0.23365772 0.9298409 -0.6599835 -0.5384135
-0.3207944 0.8806249 0.59705585 -0.7589962 -1.8552114 0.77516043 -1.0548079 -0.5067312
-0.60260135 -0.49607712 0.2643204 0.75297093 0.23683059 -0.3927374 -1.7928847 1.0259742
-0.3590531 -1.8883204 -1.1189425 0.41746578 0.7912129 0.7968377 -0.7181312 -0.45931387
-0.059368055 0.80844694 1.1216422 -0.39038545 -2.3160233 -1.5894805 -0.07628383 0.32628578
-0.3832445 0.11453202 0.86004245 0.773873 1.2716169 -0.3216734 0.43463936 0.9340502
0.053164765 1.7253786 1.0975511 -1.3535517 -0.42756414 -0.29749858 -0.88006866 2.5204601
0.8159789 0.7368744 -0.114061825 -0.93420756 -0.88997805 0.06584812 1.9066356 0.04742434
-0.70872164 -0.24512108 -0.71959716 -0.60056806 1.1946164 -1.0300392 0.05326934 -0.4766859
-0.52613163 -0.5799422 0.9857362 0.47507125 0.0049457774 1.3154209 -0.86142904 -0.576646
-0.6236847 -0.40556085 -0.5519737 0.7434145 -1.0345819 1.4739041 -0.15400651 -0.47981462
-1.4684047 1.4233437 -0.6549012 -2.079667 0.3888349 -0.006599996 -2.551036 0.5063772
-1.6647192 -1.2007322 2.4687617 -0.9397709 0.12850682 0.01585202 -1.1142414 -2.051321
0.44159618 -0.0074381633 -1.2541882 -1.1832757 -0.30449733 -0.8344277 0.03258281 -2.4745345
00000000: 0c8f 143f 4f8e e1be 112c 85bf e06f 2c3f
00000010: cd38 ea3d c7f2 903f 6468 3dbf b3b4 68bf
00000020: 6388 9b3e 40f8 dcbd 5bd0 1cbf 5440 41be
00000030: 4e86 4d3f 50bc 7c3f d05f 8dbf 9b64 3f3f
00000040: 59a2 183f a720 0dbe 2cdc ab3f bfae 7abf
00000050: ab74 54bf e6c7 743e 5d44 77bd a61a 4f3f
00000060: 8548 e1be b3b8 ec3f 2665 f63d 88f4 2cbd
00000070: 897e 82bb cc59 c9be bb4c 783f 6848 7c3f
00000080: dc8a 923e cb24 edbf cbe3 bb3e 9f58 92bc
00000090: ccd5 373f 192a 16be 9280 863f 6a14 7bbf
000000a0: 16ca bebe 9c91 6ebe 3075 91bf 1dcb 81be
000000b0: a73a 673e 3304 e3be 27c4 97bf 1718 ba3f
000000c0: b3c4 bf3e d6ad 04be e319 37bf 9002 9a3e
000000d0: 98f8 b53f 779b b9be d87f 50bf 90fb 15bf
000000e0: b6f0 adbf f88c 503e 05ea f63e 00ba d03e
000000f0: 2f68 fa3e 35ab bbbf d8d1 75bf c963 debe
00000100: 4be6 df3e 079b 9dbf dc94 413f 5dd9 96be
00000110: db83 553f d20e 383f 97bc 5a3f 1642 393f
00000120: 4abf af3e 3626 143e dfbd acbf b198 11c0
00000130: d20b 8bbf 9e29 f43c 0781 c1bc ea68 893e
00000140: 81a7 123f 9936 14c0 df8d 02be 8f6c 90bf
00000150: f254 12bf 9b63 2e3f 870d b63e 81b1 0e3e
00000160: ce22 bdbf 185e a73f 5678 d93e 557a 183f
00000170: 72db 3d3f b6ce bb3e 7bb7 07c0 4c8b 733f
00000180: 72a7 453e b74f 06be 66a5 83bf 289c 57bf
00000190: 0919 c9bf 0e58 5e3e b385 843f 99a8 653f
000001a0: 2035 b23f 8776 89bf a4d0 6e3e daee 103e
000001b0: a6ee bc3f b312 bebf 0492 a83f 7f70 353e
000001c0: 8529 693f 7237 a1bd b35f 9e3e 5b10 913f
000001d0: 0963 e23f 1f21 993e fda1 60bf 82a3 9c3e
000001e0: 9f40 80bd fafe f03f 58b6 5f3f 3fc1 95bf
000001f0: f6bf c13f a81a e43e 05ab b4bf 5a77 bbbe
00000200: 1cff 1740 ab76 333f 048a 88bf 5fba 403d
00000210: 94fa 25be b498 273f 3533 e2be d653 663f
00000220: 0e3d d9be 7957 b3bf cd6c 4dbf 432c fe3e
00000230: 463f 3a3d 5072 a7be abd9 db3e 3ba3 57bf
00000240: 69c2 1940 88d3 963e eb1f 1fbe 4a07 b73f
00000250: f843 6f3e 0e0a 6e3f aef4 28bf 78d5 09bf
00000260: 2a3f a4be a270 613f a7d8 183f 934d 42bf
00000270: 9177 edbf ea70 463f f203 87bf 23b9 01bf
00000280: 1544 1abf d2fd fdbe 0155 873e b4c2 403f
00000290: b883 723e e014 c9be 3f7d e5bf 1f53 833f
000002a0: cfd5 b7be 7cb4 f1bf 8239 8fbf 13be d53e
000002b0: ee8c 4a3f 8efd 4b3f 72d7 37bf 302b ebbe
000002c0: eb2b 73bd 61f6 4e3f f991 8f3f 9ae0 c7be
000002d0: ba39 14c0 1974 cbbf b23a 9cbd ee0e a73e
000002e0: a038 c4be c48f ea3d be2b 5c3f 8a1c 463f
000002f0: 58c4 a23f 60b2 a4be 0d89 de3e ea1d 6f3f
00000300: 4cc3 593d 35d9 dc3f 8e7c 8c3f 2f41 adbf
00000310: b0e9 dabe bc51 98be 2e4c 61bf 384f 2140
00000320: fee3 503f cda3 3c3f 3f99 e9bd 3a28 6fbf
00000330: 9ad5 63bf 61db 863d a30c f43f 0640 423d
00000340: c86e 35bf 0501 7bbe 8537 38bf d4be 19bf
00000350: 31e9 983f 53d8 83bf f430 5a3d 2d10 f4be
00000360: 90b0 06bf 1877 14bf 3559 7c3f 8a3c f33e
00000370: 3010 a23b b65f a83f 9d86 5cbf 129f 13bf
00000380: cda9 1fbf aca5 cfbe 264e 0dbf 6a50 3e3f
00000390: 2e6d 84bf e4a8 bc3f e2b3 1dbe 43aa f5be
000003a0: aff4 bbbf 2030 b63f 9ba7 27bf 4419 05c0
000003b0: 5e15 c73e c744 d8bb 2c44 23c0 f0a1 013f
000003c0: 8515 d5bf 98b1 99bf 3100 1e40 d394 70bf
000003d0: 4b97 033e 18dc 813c 769f 8ebf d848 03c0
000003e0: e518 e23e d6bb f3bb 3d89 a0bf 9475 97bf
000003f0: 13e7 9bbe 0e9d 55bf 8d75 053d c65e 1ec0

input_embeddings.embeddings.is_home.weight f4 [2, 1]
0.7110305 -0.6480408
00000000: 1806 363f 00e6 25bf

input_embeddings.embeddings.day_of_week.weight f4 [7, 5]
0.35096848 3.2206547 -0.009903826 1.6834795 -0.3208924 -1.1519902 -0.75887156 0.0055110515
-0.3153465 0.85667276 -0.4261255 -1.1340828 -0.7002309 0.053744864 0.42805398 -1.0355897
-1.159258 -1.2042297 0.17187762 0.4227352 -2.3087578 1.7106583 -0.9687315 -0.064014606
1.510072 -0.4875795 -0.11383712 -0.63557774 0.46137407 1.1302652 0.13756423 -0.87377125
0.1139182 1.4923611 1.5269601
00000000: 24b2 b33e 351f 4e40 a843 22bc 427c d73f
00000010: 024c a4be 6a74 93bf 6845 42bf 0d96 b43b
00000020: 1975 a1be e84e 5b3f 1f2d dabe a029 91bf
00000030: 5542 33bf 9323 5c3d e429 db3e 348e 84bf
00000040: 9162 94bf 3324 9abf b000 303e c070 d83e
00000050: b0c2 13c0 daf6 da3f cafe 77bf 171a 83bd
00000060: 0a4a c13f 05a4 f9be 7023 e9bd 39b5 22bf
00000070: 3939 ec3e 88ac 903f a3dd 0c3e 79af 5fbf
00000080: f24d e93d b005 bf3f 6e73 c33f

input_embeddings.embeddings.WL.weight f4 [2, 1]
0.31090754 1.7904512
00000000: 462f 9f3e 812d e53f

prescalers.encoder_length.weight f4 [8, 1]
0.039491057 -0.5177455 0.69661665 0.11745286 0.2930243 -0.640828 -0.23172784 -0.6179062
00000000: 60c1 213d f88a 04bf 7855 323f 208b f03d
00000010: 4807 963e 4e0d 24bf 104a 6dbe 1a2f 1ebf

prescalers.encoder_length.bias f4 [8]
0.42378208 -0.7107297 0.7639664 0.41284826 -0.928123 -0.68319386 -0.8500158 -0.49785182
00000000: f7f9 d83e 62f2 35bf 4d93 433f d960 d33e
00000010: 7899 6dbf cbe5 2ebf a39a 59bf 6fe6 febe

prescalers.time_idx.weight f4 [8, 1]
0.5730752 0.056557298 0.9878162 0.12445974 -0.5674701 0.6658726 -0.48136008 -0.5383853
00000000: 0eb5 123f a0a8 673d 86e1 7c3f c0e4 fe3d
00000010: b845 11bf a076 2a3f d474 f6be 9ed3 09bf

prescalers.time_idx.bias f4 [8]
-0.06901287 1.112426 -1.2623434 0.2192662 -0.047957458 -0.21514325 0.105755605 -1.0773888
00000000: 9f56 8dbd fa63 8e3f 7894 a1bf 5287 603e
00000010: 0a6f 44bd 834e 5cbe 6596 d83d e0e7 89bf

prescalers.opponent_WL_rolling_avg.weight f4 [8, 1]
0.92112243 -0.069671035 -0.5452285 -0.015994668 -0.74410915 0.52821815 -0.15311444 0.08329594
00000000: aece 6b3f b0af 8ebd 1894 0bbf 4007 83bc
00000010: f07d 3ebf 4e39 073f 08ca 1cbe 1097 aa3d

prescalers.opponent_WL_rolling_avg.bias f4 [8]
0.7177431 -0.15957837 0.6627555 0.90619195 -0.39947277 -0.5441842 0.6674049 -0.21504177
00000000: 03be 373f 8368 23be 58aa 293f 32fc 673f
00000010: b287 ccbe a84f 0bbf 0cdb 2a3f e933 5cbe

prescalers.relative_time_idx.weight f4 [8, 1]
-0.8282994 -0.24683654 -0.25711238 -0.60312045 -0.56572485 -0.29486609 0.37968433 -0.48147154
00000000: 6e0b 54bf b8c2 7cbe 3ca4 83be 1a66 1abf
00000010: 58d3 10bf b0f8 96be fc65 c23e 7083 f6be

prescalers.relative_time_idx.bias f4 [8]
0.58870757 -0.068582475 -0.6999198 -0.13560188 0.37197262 0.78429854 -0.8423762 -0.28194398
00000000: 8ab5 163f f874 8cbd f22d 33bf 38db 0abe
00000010: 3273 be3e cac7 483f f7a5 57bf f65a 90be

static_variable_selection.flattened_grn.resample_norm.mask f4 [3]
0.28983378 -0.0012912493 -0.25746435
00000000: 1865 943e 233f a9ba 5ed2 83be

static_variable_selection.flattened_grn.resample_norm.norm.weight f4 [3]
1.097 1.0955528 1.1877549
00000000: 7f6a 8c3f 133b 8c3f 5a08 983f

static_variable_selection.flattened_grn.resample_norm.norm.bias f4 [3]
0.048754156 0.01309039 -0.08852986
00000000: 70b2 473d 1379 563c 254f b5bd

static_variable_selection.flattened_grn.fc1.weight f4 [3, 30]
-0.21542671 0.2894771 -0.20655896 0.2542007 -0.122443646 0.48693538 0.09143511 0.4478264
-0.2480639 -0.2650906 0.107617974 -0.70729584 0.28466013 -0.57257754 0.44523406 -0.4300693
-0.30290237 0.017122613 -0.5477378 0.2684093 0.19005129 -0.3042173 -0.1406119 -0.27173167
0.15153098 0.22129655 -0.05274681 -0.29351017 -0.1750722 -0.03250882 0.56473756 0.22573254
-0.11765809 0.15768957 0.12705667 -0.004743076 -0.06747973 -0.022125913 0.18246983 -0.29967493
-0.40395504 -0.23306051 -0.36985785 -0.028808007 0.29329312 0.481029 -0.092480354 -0.38511056
0.32627028 0.2137077 0.8491311 -0.3515952 -0.057942953 -0.28981465 -0.0881433 0.20045938
-0.4985939 -0.54772717 -0.28463998 -0.2886368 -0.26236296 -0.28125152 0.07341227 0.31893137
0.30137923 -0.17646094 -0.30171216 0.058268774 -0.12321664 -0.28790435 0.06199872 -0.49717367
0.35961533 -0.3712067 -0.4017832 -0.01338718 -0.2015136 0.14794934 0.30648503 -0.23195517
0.4880075 0.15259653 -0.32269806 -0.10103316 -0.35951513 -0.013966425 0.5322217 0.32383776
0.079088144 0.21283753
00000000: d298 5cbe 5836 943e 3184 53be 9826 823e
00000010: bcc3 fabd 984f f93e 5542 bb3d 8049 e53e
00000020: 7704 7ebe f5b9 87be d066 dc3d 5711 35bf
00000030: f9be 913e 7194 12bf b8f5 e33e 0b32 dcbe
00000040: 0516 9bbe b944 8c3c 8b38 0cbf f26c 893e
00000050: ce9c 423e 5fc2 9bbe 91fc 0fbe 6a20 8bbe
00000060: f02a 1b3e 909b 623e 0a0d 58bd f746 96be
00000070: 2046 33be f827 05bd a492 103f 6e26 673e
00000080: baf6 f0bd 6079 213e 251b 023e ce6b 9bbb
00000090: d032 8abd 6741 b5bc 5fd9 3a3e fe6e 99be
000000a0: 32d3 cebe 6aa7 6ebe 025e bdbe c5fe ebbc
000000b0: 842a 963e 6f49 f63e 5766 bdbd 362d c5be
000000c0: e60c a73e 31d6 5a3e a860 593f 4904 b4be
000000d0: 9755 6dbd 9662 94be 7984 b4bd 3945 4d3e
000000e0: b347 ffbe d937 0cbf 55bc 91be 34c8 93be
000000f0: 7054 86be 3300 90be 2c59 963d f94a a33e
00000100: 614e 9a3e 2db2 34be 047a 9abe 3dab 6e3d
00000110: 0159 fcbd 3368 93be 5ff2 7d3d 8c8d febe
00000120: 801f b83e ce0e bebe 87b6 cdbe e755 5bbc
00000130: 9559 4ebe 0880 173e 9beb 9c3e a885 6dbe
00000140: 1edc f93e 4442 1c3e ae38 a5be 79ea cebd
00000150: 5e12 b8be 6fd3 64bc ae3f 083f 10ce a53e
00000160: f7f8 a13d 15f2 593e

static_variable_selection.flattened_grn.fc1.bias f4 [3]
0.054485828 0.21467103 -0.09296661
00000000: 882c 5f3d b9d2 5b3e 4765 bebd

static_variable_selection.flattened_grn.fc2.weight f4 [3, 3]
-0.73523104 -1.353053 0.24479151 -0.4374144 0.99043405 -0.8891838 -0.08653085 0.23913002
-0.20955741
00000000: 1a38 3cbf d730 adbf a0aa 7a3e c8f4 dfbe
00000010: 168d 7d3f 8da1 63bf 1637 b1bd 80de 743e
00000020: 3896 56be

static_variable_selection.flattened_grn.fc2.bias f4 [3]
-0.13511081 -0.013086353 0.15053228
00000000: 7d5a 0abe 2568 56bc 2225 1a3e

static_variable_selection.flattened_grn.gate_norm.glu.fc.weight f4 [6, 3]
-0.33167183 -0.5724316 0.27100623 -0.03621588 -0.13461097 0.5350719 0.45975822 -0.2613289
-0.13376492 0.7199415 0.63248837 -0.68391335 0.32966608 0.1693552 -1.1484185 -0.04220471
-0.13916026 0.084938824
00000000: e4d0 a9be e18a 12bf 54c1 8a3e 1a57 14bd
00000010: 75d7 09be 79fa 083f 6e65 eb3e e7cc 85be
00000020: acf9 08be 164e 383f c2ea 213f f214 2fbf
00000030: fec9 a83e 736b 2d3e 61ff 92bf d9de 2cbd
00000040: 0780 0ebe 68f4 ad3d

static_variable_selection.flattened_grn.gate_norm.glu.fc.bias f4 [6]
-0.16168554 0.036456585 0.02026805 0.18027706 -0.32755926 0.040574957
00000000: e590 25be 8053 153d 2e09 a63c 8d9a 383e
00000010: d9b5 a7be ed31 263d

static_variable_selection.flattened_grn.gate_norm.add_norm.norm.weight f4 [3]
1.0274764 0.74398226 0.9964786
00000000: 5984 833f 9f75 3e3f 3919 7f3f

static_variable_selection.flattened_grn.gate_norm.add_norm.norm.bias f4 [3]
0.16889414 -0.18516117 0.041967113
00000000: 96f2 2c3e e49a 3dbe b5e5 2b3d

static_variable_selection.single_variable_grns.TEAM_ID.mask f4 [16]
-0.13508098 -0.25501233 -0.216764 0.12490257 0.14991322 0.16961189 0.045266483 0.52454627
-0.02834701 -0.044565406 -0.17926724 0.127037 -0.18178587 -0.117113724 -0.010785446 -0.06571993
00000000: ab52 0abe fa90 82be 62f7 5dbe ebcc ff3d
00000010: da82 193e bdae 2d3e 5969 393d aa48 063f
00000020: fd37 e8bc 378a 36bd d591 37be fd15 023e
00000030: 1326 3abe 52d9 efbd 70b5 30bc 2c98 86bd

static_variable_selection.single_variable_grns.TEAM_ID.norm.weight f4 [16]
0.78739595 0.7801474 0.6838725 1.1754848 1.175329 1.1722486 1.1910403 1.6230422
1.0094031 1.0529305 0.99969554 1.2176883 0.92145896 0.7850659 1.1482699 0.9195485
00000000: c892 493f bdb7 473f 4512 2f3f 4976 963f
00000010: 2e71 963f 3e0c 963f 0274 983f d9bf cf3f
00000020: 1f34 813f 6dc6 863f 0cec 7f3f 36dd 9b3f
00000030: bce4 6b3f 14fa 483f 82fa 923f 8867 6b3f

static_variable_selection.single_variable_grns.TEAM_ID.norm.bias f4 [16]
0.122789174 0.09986121 0.11270253 -8.263732e-05 -0.028232072 0.3869326 -0.32722935 0.06614662
0.06288394 0.06624601 -0.06635649 0.035193484 -0.17164649 -0.34686786 -0.14733262 -0.07692224
00000000: e478 fb3d 0984 cc3d 96d0 e63d 934d adb8
00000010: f246 e7bc 081c c63e 9b8a a7be e177 873d
00000020: 4cc9 803d fdab 873d e9e5 87bd 0b27 103d
00000030: 19c4 2fbe aa98 b1be 5dde 16be 6889 9dbd

static_variable_selection.single_variable_grns.OPPONENT_ID.mask f4 [16]
-0.24808969 -0.18484952 0.32634723 0.06977245 0.06518424 -0.07634119 -0.21128917 -0.32091445
0.17704873 -0.052791193 0.09315101 -0.096452266 0.28870344 0.1900668 0.03535065 0.0173407
00000000: 390b 7ebe 3149 3dbe fc16 a73e dce4 8e3d
00000010: 517f 853d c558 9cbd 305c 58be e64e a4be
00000020: 434c 353e 943b 58bd f5c5 be3d c488 c5bd
00000030: f0d0 933e dfa0 423e d8cb 103d 150e 8e3c

static_variable_selection.single_variable_grns.OPPONENT_ID.norm.weight f4 [16]
0.80054164 0.7760151 1.3465949 0.7497123 1.2400587 0.9705649 0.3882603 0.32392704
0.92623377 1.0063896 1.0398927 0.6796933 1.4820138 1.1668901 1.0141873 1.1475197
00000000: 4cf0 4c3f eda8 463f 395d ac3f 25ed 3f3f
00000010: 3eba 9e3f f176 783f 0eca c63e c4d9 a53e
00000020: a81d 6d3f 60d1 803f 341b 853f 6100 2e3f
00000030: a1b2 bd3f a85c 953f e4d0 813f ede1 923f

static_variable_selection.single_variable_grns.OPPONENT_ID.norm.bias f4 [16]
0.22698537 -0.21837443 0.022249075 -0.17491211 0.09878107 0.27954775 0.2307792 0.35062236
-0.05220305 0.047533475 -0.36384934 0.045796875 -0.09582876 0.04097249 -0.19513018 -0.14691767
00000000: da6e 683e 8c9d 5fbe b143 b63c 291c 33be
00000010: bb4d ca3d e220 8f3e 6251 6c3e c684 b33e
00000020: ded2 55bd 76b2 423d 764a babe 8195 3b3d
00000030: de41 c4bd c5d2 273d 35d0 47be 9671 16be

static_variable_selection.single_variable_grns.encoder_length.resample_norm.mask f4 [16]
0.010911836 0.01294426 0.006360243 -0.0061055925 -0.03818175 0.021821288 -0.0120055955 0.026423788
0.002470058 -0.014831637 0.08238304 -0.047356103 -0.00398683 0.0056849523 0.024035687 -0.022579098
00000000: 8fc7 323c 2914 543c 9669 d03b 6c11 c8bb
00000010: 7764 1cbd 8fc2 b23c 1eb3 44bc b376 d83c
00000020: b2e0 213b 6500 73bc 70b8 a83d 79f8 41bd
00000030: f4a3 82bb d648 ba3b 7de6 c43c cdf7 b8bc

static_variable_selection.single_variable_grns.encoder_length.resample_norm.norm.weight f4 [16]
1.066229 0.9643706 1.019541 0.9246935 1.0093915 1.109995 1.0090634 1.1780134
1.0061417 0.9823674 1.1148819 0.9601315 1.0208298 1.0230705 1.057133 1.0023048
00000000: 317a 883f fee0 763f 5280 823f b7b8 6c3f
00000010: be33 813f 5114 8e3f fd28 813f 25c9 963f
00000020: 40c9 803f 6e7c 7b3f 73b4 8e3f 2ecb 753f
00000030: 8daa 823f f9f3 823f 2250 873f 864b 803f

static_variable_selection.single_variable_grns.encoder_length.resample_norm.norm.bias f4 [16]
0.070443936 -0.10343926 -0.034879215 -0.123280466 0.0127954325 0.079007275 0.01121826 0.2645599
0.006584566 0.009592467 -0.14117719 0.0331124 -0.03810506 -0.040635124 -0.062176798 -0.00726189
00000000: e944 903d f6d7 d3bd 82dd 0ebd 787a fcbd
00000010: efa3 513c 91ce a13d cbcc 373c 6574 873e
00000020: 58c3 d73b b929 1d3c c190 10be dea0 073d
00000030: 0d14 1cbd 0471 26bd 19ad 7ebd 26f5 edbb

static_variable_selection.single_variable_grns.encoder_length.fc1.weight f4 [8, 8]
-0.6165562 -0.10387274 0.32399368 0.77753943 -0.25600365 0.6837632 0.18055761 -0.041491143
-0.27953562 -1.0985637 -0.37694335 -0.74079037 0.45428067 0.25131756 -0.02970138 -0.08285479
-0.01786436 0.28175035 0.089005314 0.42071372 -0.505038 0.55219936 -0.1929894 0.26123002
-0.35843202 -0.22801532 -0.22086397 0.7135868 -0.31563282 0.062351186 -0.32285666 -0.095204175
-0.74831235 -0.2712264 -0.1871002 -0.19245724 -0.25410128 -0.35961217 0.46896946 -0.7534866
-0.03204627 -0.015673304 0.033292685 0.18004689 0.34400383 -0.6623173 -0.32429686 0.16105983
-0.9574138 -0.40084487 0.22329941 -0.26084045 0.3702916 -0.47127417 0.018670863 0.25570378
-0.1603212 -0.05406067 0.058584668 0.23724662 0.5370286 -0.36395234 0.054124355 -0.113089465
00000000: a1d6 1dbf 3bbb d4bd 80e2 a53e d30c 473f
00000010: e912 83be 1b0b 2f3f 18e4 383e 9ef2 29bd
00000020: 4b1f 8fbe bc9d 8cbf b8fe c0be 70a4 3dbf
00000030: 7a97 e83e b2ac 803e 4f50 f3bc c6af a9bd
00000040: 4758 92bc 9541 903e 6b48 b63d ca67 d73e
00000050: 2c4a 01bf f05c 0d3f 039f 45be f1bf 853e
00000060: 6784 b7be d97c 69be 2a2a 62be a0ad 363f
00000070: a09a a1be f563 7f3d 784d a5be 68fa c2bd
00000080: 6691 3fbf 30de 8abe 3297 3fbe 8313 45be
00000090: 9019 82be 161f b8be c41c f03e 7fe4 40bf
000000a0: f342 03bd 4d65 80bc e95d 083d 365e 383e
000000b0: 4521 b03e a08d 29bf 3d0a a6be deec 243e
000000c0: 1219 75bf 8a3b cdbe 9aa8 643e e18c 85be
000000d0: dc96 bd3e d94a f1be a3f3 983c 9beb 823e
000000e0: 3e2b 24be b96e 5dbd 7af6 6f3d c7f0 723e
000000f0: b57a 093f f657 babe 80b1 5d3d 739b e7bd

static_variable_selection.single_variable_grns.encoder_length.fc1.bias f4 [8]
0.023767669 -0.012755516 -0.054707877 0.08113701 -0.08204844 -0.09009074 0.028670575 0.04666906
00000000: 6ab4 c23c 83fc 50bc 5e15 60bd 292b a63d
00000010: 0309 a8bd 7e81 b8bd 8ede ea3c 0e28 3f3d

static_variable_selection.single_variable_grns.encoder_length.fc2.weight f4 [8, 8]
0.54482305 0.17063253 -0.028399488 0.23147875 0.23238069 -0.7371733 0.13992782 0.57267976
0.28278667 -0.05296287 0.13662472 -0.101702645 1.176414 -0.38802022 -0.29644695 -0.22041602
0.21628447 -0.3620169 -0.08656672 -0.15743504 -0.2565559 0.34511974 -0.3368734 -0.18171749
-0.33278245 -0.07289911 -0.23347843 0.16843289 -0.085963234 0.090523146 -0.4811269 -0.57921934
-0.774319 0.21769717 0.6116474 1.095826 0.13253708 0.7109264 -0.2869173 -0.51511747
0.08791236 -0.03797607 -0.5856965 0.5995767 0.023646884 -0.13962567 -0.1632018 0.2364351
-0.1872763 0.31491312 0.65147513 -0.34457996 0.05687341 0.597258 0.1107455 0.74587077
0.53765035 -0.081113964 0.045753717 -0.4149246 0.89577496 -0.19493479 -0.59971905 -0.48289192
00000000: 8679 0b3f 4bba 2e3e 0ba6 e8bc c408 6d3e
00000010: 34f5 6d3e 64b7 3cbf 3d49 0f3e 249b 123f
00000020: 6ac9 903e 98ef 58bd 5ae7 0b3e 7a49 d0bd
00000030: bc94 963f 96aa c6be e5c7 97be bdb4 61be
00000040: ad79 5d3e 475a b9be e449 b1bd a736 21be
00000050: 4c5b 83be 89b3 b03e ac7a acbe 2614 3abe
00000060: 7662 aabe 214c 95bd f814 6fbe ac79 2c3e
00000070: 7e0d b0bd 3364 b93d 4456 f6be b847 14bf
00000080: c539 46bf 02ec 5e3e ed94 1c3f 0744 8c3f
00000090: cdb7 073e 46ff 353f d3e6 92be bdde 03bf
000000a0: 650b b43d cc8c 1bbd 35f0 15bf dc7d 193f
000000b0: 1cb7 c13c 08fa 0ebe 5f1e 27be 0b1c 723e
000000c0: 5cc5 3fbe 4b3c a13e 13c7 263f c96c b0be
000000d0: 18f4 683d e6e5 183f 89ce e23d 63f1 3e3f
000000e0: 74a3 093f 141f a6bd 4068 3b3d ff70 d4be
000000f0: 8251 653f fc9c 47be 3087 19bf 9c3d f7be

static_variable_selection.single_variable_grns.encoder_length.fc2.bias f4 [8]
0.102539256 -0.014320364 0.04946925 0.0005679439 -0.0063923593 0.0355819 -0.05603784 -0.074006006
00000000: 1a00 d23d f69f 6abc 45a0 4a3d 12e2 143a
00000010: ff76 d1bb 54be 113d ef87 65bd 7690 97bd

static_variable_selection.single_variable_grns.encoder_length.gate_norm.glu.fc.weight f4 [32, 8]
-0.2425612 -0.17165764 0.05652672 -0.2061562 0.3427796 -0.020726942 -0.21905066 0.053340282
-0.21380433 0.32200986 -0.058643483 0.05998087 -0.2749218 0.30676726 -0.34671587 0.06693539
-0.2376912 0.12717529 0.11326658 -0.2146812 0.34297425 -0.20216656 0.16900246 -0.104170986
-0.27289045 0.03538423 0.37634206 0.21285306 0.26853487 0.26687136 -0.11336588 -0.06930527
0.29608682 -0.24187684 0.30281284 -0.23415498 0.41874847 0.3576602 -0.38192284 -0.35322472
0.19930764 0.3052951 -0.19149901 -0.13038267 -0.20413162 -0.08368291 -0.30890873 0.023829559
-0.14143743 -0.22186273 -0.1871582 0.19116367 0.17906974 0.3719908 0.079101704 0.30123287
0.25170153 0.25704357 0.28124362 -0.081685446 -0.07524861 0.3823353 -0.13712536 -0.34694842
-0.2411107 0.34980744 -0.066598214 0.31950012 0.21009819 0.032361437 -0.19838342 0.25610507
-0.19171512 -0.07790836 -0.35227767 0.3202244 -0.185766 0.16275668 0.122233845 0.2963846
0.3581925 0.22519983 -0.103936024 -0.25205916 -0.21770641 0.2211802 -0.01801325 -0.3373148
0.22093134 -0.35873663 0.17594792 -0.052935705 -0.18933955 0.036301862 0.12356511 -0.27418956
-0.16674988 0.17653917 0.1455692 -0.03485899 0.2815177 -0.14078803 0.16371858 0.23202667
-0.13223597 0.37308922 0.20901133 0.3930439 -0.091493085 -0.021775639 0.08596161 -0.011084283
-0.2090021 -0.2999056 0.28277615 -0.2851136 -0.13944447 -0.2824717 0.3487421 -0.3505697
0.09136077 0.10509433 -0.1804444 0.14342834 0.1972857 0.23018458 0.2864222 -0.3748778
-0.28899685 -0.09054129 0.0074844602 0.2761093 -0.24442104 -0.010755107 0.31358215 0.3243541
0.32600674 0.23318616 -0.23488441 0.14387214 -0.28761846 -0.008448576 0.08826872 -0.19152574
-0.14807834 -0.3746397 -0.08983864 -0.28691587 0.21560565 -0.30188423 0.14025834 0.23386478
0.18100666 -0.33001158 -0.14020593 -0.3379117 0.34811473 0.07707398 -0.2166277 -0.010334003
0.16482309 -0.21587229 0.37067246 -0.26399642 0.16495804 0.023939433 0.007250377 -0.1783335
-0.12194433 0.096588485 0.07840286 -0.10859749 -0.40392736 -0.0008560729 -0.12563057 0.102041155
-0.16936709 -0.10725183 0.28265232 -0.030327212 0.20764436 -0.28972468 -0.017355328 -0.1579385
0.19844458 -0.23187089 -0.09057786 0.347929 0.103575155 -0.36296657 -0.116033405 -0.33790627
-0.004046985 -0.13283 -0.29814127 -0.2166083 0.26648208 -0.21256506 -0.13617162 0.31403497
-0.2655343 0.14484572 -0.34680602 0.36848885 0.022967085 0.20947556 0.05176676 0.20630851
0.25212225 0.33075082 -0.02407351 -0.35794425 0.17544061 0.25716886 -0.05883948 -0.34936744
0.24702658 0.15574294 0.012921835 0.06014561 0.25409898 -0.16378535 -0.27213258 0.017196143
-0.10067241 0.15786938 -0.03153492 -0.10240877 -0.24393457 0.14119425 -0.19100131 -0.024677318
0.24806313 0.36383033 0.018840462 0.1549342 0.12307715 0.14280203 0.36025047 -0.093287595
-0.36975044 0.12949738 0.1324963 0.13369912 -0.20875515 -0.29652387 -0.3465279 -0.37130404
0.15173574 -0.22589658 -0.32786918 0.35268593 0.33879 0.18670015 -0.3969624 0.12356968
00000000: f761 78be 05c7 2fbe 9088 673d 9c1a 53be
00000010: cf80 af3e 8ccb a9bc d14e 60be 577b 5a3d
00000020: 86ef 5abe 7ade a43e 2634 70bd 80ae 753d
00000030: 8dc2 8cbe 9910 9d3e be84 b1be 6c15 893d
00000040: 5265 73be 3d3a 023e 4ff8 e73d 63d5 5bbe
00000050: 529a af3e c004 4fbe fb0e 2d3e 9957 d5bd
00000060: 4cb8 8bbe 0eef 103d e8af c03e 27f6 593e
00000070: 677d 893e 5da3 883e 5f2c e8bd ecef 8dbd
00000080: b198 973e 90ae 77be 490a 9b3e 53c6 6fbe
00000090: 3366 d63e 3d1f b73e 648b c3be dfd9 b4be
000000a0: 4d17 4c3e a44f 9c3e 5118 44be 0983 05be
000000b0: e107 51be f261 abbd 4929 9ebe 3536 c33c
000000c0: f9d4 10be fc2f 63be 66a6 3fbe 69c0 433e
000000d0: 0f5e 373e 9475 be3e 1300 a23d 323b 9a3e
000000e0: 06df 803e 379b 833e 2aff 8f3e b34a a7bd
000000f0: f11b 9abd 74c1 c33e 976a 0cbe 39a3 b1be
00000100: b9e5 76be f619 b33e a564 88bd 8595 a33e
00000110: fb23 573e 6d8d 043d 0625 4bbe 3420 833e
00000120: f850 44be 6b8e 9fbd bd5d b4be 74f4 a33e
00000130: 7139 3ebe b0a9 263e bd55 fa3d b9bf 973e
00000140: 0265 b73e c99a 663e 69dc d4bd e60d 81be
00000150: 6eee 5ebe 107d 623e 8690 93bc 87b4 acbe
00000160: d33b 623e 54ac b7be b12b 343e 1cd3 58bd
00000170: 3ae2 41be 43b1 143d b40f fd3d 9362 8cbe
00000180: 7bc0 2abe afc6 343e 1810 153e 4dc8 0ebd
00000190: 1723 903e bd2a 10be d8a5 273e 6698 6d3e
000001a0: de68 07be 8d05 bf3e 1107 563e 0d3d c93e
000001b0: ba60 bbbd d362 b2bc a40c b03d da9a 35bc
000001c0: a604 56be 3a8d 99be 09c8 903e 69fa 91be
000001d0: 88ca 0ebe 21a0 90be 538e b23e df7d b3be
000001e0: 5b1b bb3d b23b d73d 6bc6 38be e1de 123e
000001f0: 4305 4a3e 82b5 6b3e eea5 923e fcef bfbe
00000200: 65f7 93be b66d b9bd 3440 f53b 335e 8d3e
00000210: 8249 7abe 3036 30bc d78d a03e be11 a63e
00000220: 5bea a63e 5ac8 6e3e 8a85 70be 3853 133e
00000230: ba42 93be e56b 0abc 3bc6 b43d 531f 44be
00000240: d9a1 17be c6d0 bfbe 52fd b7bd a3e6 92be
00000250: bac7 5c3e 9290 9abe e29f 0f3e 407a 6f3e
00000260: cf59 393e 47f7 a8be 2592 0fbe c302 adbe
00000270: 183c b23e f6d8 9d3d a7d3 5dbe f34f 29bc
00000280: 62c7 283e a00d 5dbe c8c8 bd3e 8a2a 87be
00000290: c3ea 283e a11c c43c 9294 ed3b 0f9d 36be
000002a0: f3bd f9bd 2fd0 c53d ae91 a03d 5c68 debd
000002b0: 91cf cebe 146a 60ba 4da5 00be f4fa d03d
000002c0: 916e 2dbe d9a6 dbbd ceb7 903e c670 f8bc
000002d0: b9a0 543e cb56 94be c32c 8ebc a1ba 21be
000002e0: 0e35 4b3e 906f 6dbe e380 b9bd c023 b23e
000002f0: 361f d43d c1d6 b9be eca2 edbd 0d02 adbe
00000300: 929c 84bb 9604 08be f9a5 98be 91ce 5dbe
00000310: 5770 883e a8aa 59be 9370 0bbe 31c9 a03e
00000320: 1df4 87be 7052 143e 8f90 b1be 92aa bc3e
00000330: 7825 bc3c c380 563e 6209 543d 8a42 533e
00000340: 2b16 813e 2c58 a93e cf35 c5bc 7844 b7be
00000350: b4a6 333e a3ab 833e ab01 71bd 4ae0 b2be
00000360: 89f4 7c3e 147b 1f3e 1bb6 533c 3e5b 763d
00000370: 4319 823e 59b7 27be f654 8bbe edde 8c3c
00000380: 562d cebd 83a8 213e c32a 01bd b0bb d1bd
00000390: fcc9 79be 3a95 103e d995 43be 1628 cabc
000003a0: 4304 7e3e f847 ba3e 5057 9a3c 12a7 1e3e
000003b0: df0f fc3d b23a 123e c072 b83e 910d bfbd
000003c0: ee4f bdbe f69a 043e 1cad 073e 6ce8 083e
000003d0: e9c3 55be fad1 97be 1b6c b1be 901b bebe
000003e0: 9d60 1b3e 6f51 67be 78de a7be 4093 b43e
000003f0: e275 ad3e 532e 3f3e a83e cbbe 1a12 fd3d

static_variable_selection.single_variable_grns.encoder_length.gate_norm.glu.fc.bias f4 [32]
0.04319838 -0.04393949 -0.027038256 -0.07638466 0.011870665 0.034143094 0.0014796184 0.1703535
-0.0062359953 0.011646642 -0.08378336 0.011605694 -0.01671629 -0.028193569 -0.027037922 0.0071286545
-0.0035130484 -0.0049423985 -0.008400092 -0.024385627 0.0121703725 -0.03512832 -0.007369135 -0.010557092
-0.03950834 -0.006752505 0.017586362 -0.015542718 -0.030742249 -0.006247708 -0.0047583766 -0.016621524
00000000: c9f0 303d e5f9 33bd 557f ddbc 906f 9cbd
00000010: 2d7d 423c a1d9 0b3d c1ef c13a 2671 2e3e
00000020: 5257 ccbb 8fd1 3e3c 9c96 abbd cf25 3e3c
00000030: 9af0 88bc 33f6 e6bc a27e ddbc 7d97 e93b
00000040: 2c3b 66bb d8f3 a1bb 8aa0 09bc 5ec4 c7bc
00000050: 3e66 473c b7e2 0fbd c978 f1bb a7f7 2cbc
00000060: 7fd3 21bd 1e44 ddbb 4611 903c e2a6 7ebc
00000070: 2bd7 fbbc 93b9 ccbb 28ec 9bbb dd29 88bc

static_variable_selection.single_variable_grns.encoder_length.gate_norm.add_norm.norm.weight f4 [16]
1.0542175 0.9599108 0.9337668 0.90427905 1.0183549 1.0601212 1.003859 1.1586914
0.90889996 0.9363551 1.112269 0.94991696 0.9545219 0.9641284 1.0163356 0.9810454
00000000: 99f0 863f b7bc 753f 570b 6f3f d57e 673f
00000010: 7459 823f 0db2 873f 747e 803f 0050 943f
00000020: abad 683f f8b4 6f3f d55e 8e3f c22d 733f
00000030: 8c5b 743f 1ed1 763f 4917 823f cb25 7b3f

static_variable_selection.single_variable_grns.encoder_length.gate_norm.add_norm.norm.bias f4 [16]
0.08479931 -0.08579924 -0.00855217 -0.11047274 0.024441224 0.08229398 0.023423694 0.25887695
0.035958983 0.031282913 -0.11625534 0.043285016 -0.026224772 -0.0031984865 -0.039779454 -0.0065985736
00000000: 43ab ad3d 83b7 afbd 671e 0cbc 883f e2bd
00000010: f638 c83c bf89 a83d 0ce3 bf3c 858b 843e
00000020: ba49 133d 8322 003d 4817 eebd a14b 313d
00000030: 55d5 d6bc b39d 51bb c8ef 22bd d938 d8bb

static_variable_selection.prescalers.encoder_length.weight f4 [8, 1]
0.039491057 -0.5177455 0.69661665 0.11745286 0.2930243 -0.640828 -0.23172784 -0.6179062
00000000: 60c1 213d f88a 04bf 7855 323f 208b f03d
00000010: 4807 963e 4e0d 24bf 104a 6dbe 1a2f 1ebf

static_variable_selection.prescalers.encoder_length.bias f4 [8]
0.42378208 -0.7107297 0.7639664 0.41284826 -0.928123 -0.68319386 -0.8500158 -0.49785182
00000000: f7f9 d83e 62f2 35bf 4d93 433f d960 d33e
00000010: 7899 6dbf cbe5 2ebf a39a 59bf 6fe6 febe

encoder_variable_selection.flattened_grn.resample_norm.mask f4 [6]
-0.32262734 0.40090865 -0.84783983 0.039577655 -0.3131932 -0.18044885
00000000: 692f a5be e643 cd3e 080c 59bf 2e1c 223d
00000010: dc5a a0be 95c7 38be

encoder_variable_selection.flattened_grn.resample_norm.norm.weight f4 [6]
0.6101707 1.5089833 0.21254899 1.4203144 0.7254542 0.8467111
00000000: 2634 1c3f 5d26 c13f 71a6 593e ddcc b53f
00000010: 5eb7 393f 0fc2 583f

encoder_variable_selection.flattened_grn.resample_norm.norm.bias f4 [6]
0.3988704 -0.21610329 0.31455302 -0.07974858 0.51764274 -0.042870127
00000000: be38 cc3e 2e4a 5dbe 180d a13e 3953 a3bd
00000010: 3c84 043f 9698 2fbd

encoder_variable_selection.flattened_grn.fc1.weight f4 [6, 31]
-0.13864525 0.03315639 0.36602655 0.036508612 0.08617073 0.07127339 -0.55637544 -0.026448486
-0.25877818 -0.13810314 -0.076787196 0.18497856 0.36269507 0.21552184 0.015393684 0.22272238
0.08470882 -0.3921493 0.315217 0.09765907 0.12017293 -0.0074610757 -0.004137448 -0.04606739
-0.19665907 0.6214307 -0.7569099 -0.035670016 0.08466828 0.14936909 -0.0023680292 0.44336268
-0.41260943 -0.010897406 -0.5297581 0.12062306 -0.0687476 -0.2273973 -0.04451434 -0.05395916
0.08551425 -0.069514334 -0.082890004 0.08842427 -0.19951156 0.25702503 -0.5189495 0.02488186
-0.12503377 -0.6628162 -0.086998105 0.056432582 -0.06974704 -0.009164338 -0.23421517 -0.21620755
-0.25642997 -0.1271461 -0.46134606 -0.07804237 0.39681852 0.10305564 0.20438 0.31291518
0.15607516 -0.25405574 -0.30475837 -0.44287962 0.30258533 0.00039828385 -0.59959865 0.15029256
0.0687892 -0.13072172 -0.113917805 0.027223643 0.10832087 -0.244592 0.26144415 0.18166566
-0.2684961 0.2682938 -0.3395249 -0.35714188 0.08530183 -0.29915655 0.20056188 0.36081058
0.21195084 -0.17329408 -0.04886766 0.005078094 -0.035981078 0.37941837 0.28648588 0.022818055
0.002361815 0.019993206 -0.14510281 0.006133243 0.32366812 0.07370576 -0.03305423 0.17677876
-0.32668644 0.3670211 -0.037282236 0.12209444 -0.116478294 0.4208431 0.24677582 0.028379165
-0.111306205 0.1910192 -0.29067853 0.2988909 -0.22920671 0.120697595 0.28253108 -0.13970892
-0.3006936 -0.24782903 0.56178343 0.37941432 -0.019901749 -0.038133055 -0.19960132 -0.36363608
0.40380064 -0.21041667 0.8630151 0.5748811 0.38591105 -0.0786642 -0.01886742 -0.010697637
0.37288716 -0.26068643 0.10813766 -0.20532769 0.18483557 0.29611778 -0.1405121 0.15144913
-0.072341405 -0.20519263 0.16926987 -0.27548116 -0.05584636 0.14217351 0.012451295 -0.070468985
-0.2759622 0.26535654 0.0818471 -0.01446475 0.19655523 0.13663626 -0.1942027 0.15679026
-0.23447843 0.21091327 0.23585261 0.01958559 0.27723375 0.32537255 0.2141448 -0.1721655
0.16765964 0.27523798 -0.080693774 -0.42211223 -0.27535942 -0.15527003 0.049241826 0.43959814
-0.18539985 0.47210786 0.002296817 -0.020058647 -0.16449419 -0.028581234 -0.056311067 0.14055757
0.7863624 0.20514727
00000000: 05f9 0dbe ffce 073d d567 bb3e 0e8a 153d
00000010: 487a b03d c8f7 913d 9f6e 0ebf 7faa d8bc
00000020: 937e 84be e96a 0dbe 9b42 9dbd 056b 3d3e
00000030: 2bb3 b93e c2b1 5c3e ca35 7c3c 5611 643e
00000040: d17b ad3d cbc7 c8be 1f64 a13e 7a01 c83d
00000050: 3a1d f63d 0a7c f4bb 6e93 87bb 29b1 3cbd
00000060: ff60 49be 1516 1f3f d9c4 41bf b91a 12bd
00000070: 9066 ad3d 36f4 183e f030 1bbb 6f00 e33e
00000080: 8b41 d3be 098b 32bc 3a9e 07bf 3909 f73d
00000090: 8bcb 8cbd d6da 68be ab54 36bd 4804 5dbd
000000a0: 1822 af3d 885d 8ebd 3cc2 a9bd c917 b53d
000000b0: c24c 4cbe c998 833e e0d9 04bf 0bd5 cb3c
000000c0: da08 00be 53ae 29bf 102c b2bd da25 673d
000000d0: 89d7 8ebd 0526 16bc 1ad6 6fbe 8365 5dbe
000000e0: ca4a 83be 9632 02be 8d35 ecbe aed4 9fbd
000000f0: cc2b cb3e d60e d33d fe48 513e 6b36 a03e
00000100: 2bd2 1f3e 9813 82be 4a09 9cbe 1ec1 e2be
00000110: 77ec 9a3e c1d0 d039 4c7f 19bf 4be6 193e
00000120: 5ae1 8c3d eadb 05be bd4d e9bd 1e04 df3c
00000130: 55d7 dd3d 5376 7abe 02dc 853e 9006 3a3e
00000140: 5278 89be ce5d 893e 35d6 adbe 4ddb b6be
00000150: bab2 ae3d 0c2b 99be 1860 4d3e 2abc b83e
00000160: a409 593e 0174 31be 7529 48bd 2466 a63b
00000170: e560 13bd 2043 c23e 47ae 923e eeec ba3c
00000180: aec8 1a3b cbc8 a33c d595 14be 5ff9 c83b
00000190: d4b7 a53e 0cf3 963d df63 07bd 7e05 353e
000001a0: 7243 a7be 31ea bb3e 42b5 18bd a60c fa3d
000001b0: 2c8c eebd bf78 d73e cdb2 7c3e 6c7b e83c
000001c0: 82f4 e3bd 8a9a 433e d1d3 94be 3a08 993e
000001d0: 2ab5 6abe 4d30 f73d eaa7 903e db0f 0fbe
000001e0: 83f4 99be e5c6 7dbe 0ad1 0f3f 9842 c23e
000001f0: fe08 a3bc 6831 1cbd 4a64 4cbe 822e babe
00000200: f5be ce3e 7877 57be 8fee 5c3f 682b 133f
00000210: 2296 c53e b21a a1bd d98f 9abc 2445 2fbc
00000220: 11eb be3e b178 85be 4777 dd3d 6c41 52be
00000230: 8945 3d3e c09c 973e 67e2 0fbe 7b15 1b3e
00000240: bb27 94bd 041e 52be 1555 2d3e de0b 8dbe
00000250: 27bf 64bd ef95 113e 8400 4c3c 0b52 90bd
00000260: eb4a 8dbe d0dc 873e 749f a73d 8ffd 6cbc
00000270: c645 493e 60ea 0b3e 13dd 46be a08d 203e
00000280: 1d1b 70be a6f9 573e 5983 713e f671 a03c
00000290: 95f1 8d3e 3b97 a63e c648 5b3e 274c 30be
000002a0: f8ae 2b3e feeb 8c3e c742 a5bd 181f d8be
000002b0: e9fb 8cbe 1bff 1ebe ccb1 493d 0213 e13e
000002c0: 75d9 3dbe 1fb8 f13e 3286 163b 0852 a4bc
000002d0: 2a71 28be 3123 eabc 6fa6 66bd 53ee 0f3e
000002e0: 0c4f 493f 2012 523e

encoder_variable_selection.flattened_grn.fc1.bias f4 [6]
-0.036252834 -0.13800694 -0.15970959 -0.29011035 -0.1709768 -0.10369405
00000000: da7d 14bd b151 0dbe e98a 23be 5889 94be
00000010: 8b14 2fbe 8c5d d4bd

encoder_variable_selection.flattened_grn.context.weight f4 [6, 16]
0.20617084 -0.19881733 -0.15995471 0.0017107251 0.027976487 0.47146457 -0.29737306 0.22649145
-0.30097088 0.2939137 -0.013865653 -0.039911326 0.28229472 0.553861 0.4241804 -0.3371219
0.3790979 -0.37935317 -0.3285288 0.046101585 -0.3414602 0.31140405 0.056852274 0.008345363
0.16884772 -0.27525583 0.20342155 0.29556867 0.37317473 0.47168022 0.20660983 0.1136275
0.37132645 0.34488538 0.20091684 -0.011350381 0.23188826 0.071098104 0.2769856 0.37816605
-0.02735931 -0.45646548 0.17316496 0.2798544 0.6100883 0.21482702 0.22485201 -0.0536664
-0.16680498 -0.36372855 0.2200626 -0.045542844 0.24691413 -0.3317541 0.14432622 -0.1870272
-0.4184584 -0.41797984 0.4140534 0.19904661 0.579456 0.12786028 -0.36362717 0.075390905
-0.3524882 0.6382229 -0.26457804 -0.35056868 0.14766471 -0.48740017 -0.23654354 -0.2631093
0.4544238 -0.12848222 -0.025192693 -0.013455452 -0.06826436 -0.06698401 -0.06897489 0.31951183
-0.29008874 0.09844276 -0.5528633 0.0634584 -0.25486907 0.011648939 -0.14455713 -0.2015126
-0.3084737 -0.38560626 0.11213616 0.2667755 0.26868787 -0.34349716 0.2354824 -0.29269856
00000000: 731e 533e c596 4bbe 2bcb 23be 693a e03a
00000010: f22e e53c ce63 f13e 4841 98be 60ed 673e
00000020: db18 9abe db7b 963e c42c 63bc 0f7a 23bd
00000030: ef88 903e d6c9 0d3f 2c2e d93e 3e9b acbe
00000040: 1f19 c23e 943a c2be ed34 a8be 04d5 3c3d
00000050: dfd3 aebe 5a70 9f3e eedd 683d fdba 083c
00000060: 6be6 2c3e 55ee 8cbe bd4d 503e c754 973e
00000070: c210 bf3e 1280 f13e 8791 533e 89b5 e83d
00000080: 801e be3e d194 b03e 25bd 4d3e f3f6 39bc
00000090: 1e74 6d3e e29b 913d 0ed1 8d3e fb9e c13e
000000a0: a220 e0bc d8b5 e9be 2852 313e 1349 8f3e
000000b0: bf2e 1c3f 9dfb 5b3e 9b3f 663e 4dd1 5bbd
000000c0: edce 2abe a13a babe 1758 613e 228b 3abd
000000d0: 0fd7 7c3e acdb a9be 41ca 133e 0f84 3fbe
000000e0: 2e40 d6be 7401 d6be cffe d33e e0d2 4b3e
000000f0: 3a57 143f ceed 023e 572d babe 8c66 9a3d
00000100: 5579 b4be 9362 233f c676 87be bd7d b3be
00000110: 6b35 173e 848c f9be 7838 72be 43b6 86be
00000120: 3caa e83e d890 03be e860 cebc 4274 5cbc
00000130: 2fce 8bbd ea2e 89bd b542 8dbd 0e97 a33e
00000140: 8386 94be 5c9c c93d 7388 0dbf 7af6 813d
00000150: 337e 82be 31db 3e3c c906 14be 5259 4ebe
00000160: 44f0 9dbe 2f6e c5be a5a7 e53d cc96 883e
00000170: 7591 893e dcde afbe 4c22 713e 96dc 95be

encoder_variable_selection.flattened_grn.fc2.weight f4 [6, 6]
-0.5385336 0.07384064 0.3853612 -0.2566794 -0.5282476 -0.23887429 -0.09422167 -0.19163318
0.33129707 -0.98188263 -0.3387355 0.107786156 0.116498925 -0.2406139 -1.018365 -0.15571938
0.3626187 0.06665442 -0.76701134 -0.49768388 0.7335189 -0.2568026 -0.54506814 -1.2033806
0.25942332 0.32603607 -0.29255095 0.45565885 0.06560909 -0.2663671 -0.20919116 -0.22565748
0.3406354 0.029871767 -0.47573316 -0.63356113
00000000: 57dd 09bf c339 973d 104e c53e 7b6b 83be
00000010: 3c3b 07bf 769b 74be 4af7 c0bd 7d3b 44be
00000020: c59f a93e a95c 7bbf bd6e adbe fdbe dc3d
00000030: fd96 ee3d 7d63 76be c959 82bf e774 1fbe
00000040: 29a9 b93e 1d82 883d db5a 44bf 6cd0 febe
00000050: e5c7 3b3f a17b 83be 9689 0bbf 6008 9abf
00000060: 22d3 843e 33ee a63e 3dc9 95be 1e4c e93e
00000070: 0f5e 863d 4561 88be 3536 56be c112 67be
00000080: c367 ae3e a3b5 f43c 4c93 f3be 1031 22bf

encoder_variable_selection.flattened_grn.fc2.bias f4 [6]
-0.017249605 0.10565279 0.10739559 -0.14422403 0.0074258624 -0.11667578
00000000: 0b4f 8dbc 7d60 d83d 38f2 db3d 77af 13be
00000010: a654 f33b b6f3 eebd

encoder_variable_selection.flattened_grn.gate_norm.glu.fc.weight f4 [12, 6]
0.019883523 0.057538833 0.22658014 0.30509046 0.37381864 -0.18501425 0.014815456 -0.17596303
-0.5403369 0.13316813 -0.12315507 -0.009088966 -0.25904134 -0.13671543 -0.36177382 0.39420912
0.11927593 0.21893437 0.25165218 -0.06581306 0.16023518 0.020475242 0.31689107 0.11414813
-0.39701158 -0.23935062 -0.1055388 -0.19260952 -0.56234163 0.32126066 0.24744624 -0.21865557
0.8649134 0.19619155 0.6564565 0.22113809 -0.13412672 -0.45716587 0.08438742 -0.2274371
-0.21987335 0.41214246 0.14749472 0.5620282 -0.2950104 -0.49616215 0.35340557 0.35681382
0.20606247 0.058331117 0.39675558 0.05846274 0.49085563 0.081542075 0.24224943 2.7386264e-05
-0.6870493 0.04799766 0.025188986 -0.08389599 -0.36267892 0.10550145 -0.64926904 0.30234283
-0.11097146 -0.42432913 -0.46421352 -0.34493038 -0.31636405 0.03830193 -0.14265916 0.22127631
00000000: c5e2 a23c d7ad 6b3d a004 683e d134 9c3e
00000010: 2865 bf3e 6074 3dbe 87bc 723c a72f 34be
00000020: 8553 0abf 3a5d 083e ba38 fcbd e3e9 14bc
00000030: 11a1 84be 21ff 0bbe 6b3a b9be c7d5 c93e
00000040: f046 f43d 5530 603e 8ed8 803e ffc8 86bd
00000050: b114 243e b2bb a73c 8c3f a23e 7fc6 e93d
00000060: 1a45 cbbe 5418 75be ba24 d8bd 6e3b 45be
00000070: 9ff5 0fbf 477c a43e 8c62 7d3e 3fe7 5fbe
00000080: f76a 5d3f 70e6 483e 880d 283f 0672 623e
00000090: 8458 09be a511 eabe 50d3 ac3d 45e5 68be
000000a0: 7b26 61be 5604 d33e db08 173e 15e1 0f3f
000000b0: 9a0b 97be f708 febe 93f1 b43e 4db0 b63e
000000c0: 0a02 533e 9cec 6e3d 8c23 cb3e a076 6f3d
000000d0: 6e51 fb3e 88ff a63d 3c10 783e 8ebb e537
000000e0: 77e2 2fbf 3299 443d 2259 ce3c a9d1 abbd
000000f0: 0db1 b9be 2511 d83d 7f36 26bf aecc 9a3e
00000100: 0145 e3bd ab41 d9be 65ad edbe b79a b0be
00000110: 78fa a1be 7ce2 1c3d 3e15 12be 4296 623e

encoder_variable_selection.flattened_grn.gate_norm.glu.fc.bias f4 [12]
0.24821812 -0.043550078 0.29276988 -0.019765174 0.3490107 -0.036158316 -0.183112 -0.42628545
-0.08370288 -0.4837553 -0.356322 -0.27199045
00000000: e42c 7e3e 9161 32bd efe5 953e 93ea a1bc
00000010: 88b1 b23e be1a 14bd b681 3bbe 1642 dabe
00000020: 6a6c abbd c6ae f7be d66f b6be 5542 8bbe

encoder_variable_selection.flattened_grn.gate_norm.add_norm.norm.weight f4 [6]
0.8874502 1.5737474 0.68673867 1.3089893 0.8443269 0.87825733
00000000: f02f 633f 8e70 c93f 1bce 2f3f f68c a73f
00000010: cf25 583f 79d5 603f

encoder_variable_selection.flattened_grn.gate_norm.add_norm.norm.bias f4 [6]
-0.2561712 0.22200117 -0.12450349 -0.029256027 -0.15552124 -0.21158777
00000000: df28 83be 4654 633e b0fb febd 56aa efbc
00000010: f640 1fbe 77aa 58be

encoder_variable_selection.single_variable_grns.is_home.mask f4 [16]
0.20119786 -0.12323902 0.17049038 -0.20268749 -0.18301365 -0.05371953 0.021894693 -0.061554503
0.052285843 -0.027604278 0.11887521 -0.15354133 -0.09231955 0.2973173 0.022603985 -0.06875406
00000000: d006 4e3e bd64 fcbd 0895 2e3e 4f8d 4fbe
00000010: ee67 3bbe 0309 5cbd 805c b33c 9320 7cbd
00000020: ae29 563d 5e22 e2bc d974 f33d f039 1dbe
00000030: 0812 bdbd f939 983e fe2b b93c eece 8cbd

encoder_variable_selection.single_variable_grns.is_home.norm.weight f4 [16]
1.0246453 0.93618023 1.0339204 1.0087792 0.94990975 0.9413808 0.8871645 0.9363988
0.86356163 0.89174575 0.8895639 1.0140461 0.9200794 1.0199401 0.80112755 0.77483815
00000000: 9427 833f 82a9 6f3f 8157 843f ad1f 813f
00000010: 492d 733f 55fe 703f 361d 633f d5b7 6f3f
00000020: 6012 5d3f 7349 643f 76ba 633f 43cc 813f
00000030: 538a 6b3f 668d 823f b216 4d3f cb5b 463f

encoder_variable_selection.single_variable_grns.is_home.norm.bias f4 [16]
0.15581897 -0.05954488 0.11480942 -0.10059447 -0.12332339 -0.064069636 0.009194213 0.03187699
0.11351431 0.017269865 -0.028660197 -0.1160946 -0.08684569 0.09895024 -0.12501249 -0.070405476
00000000: 028f 1f3e 55e5 73bd 3421 eb3d 7904 cebd
00000010: f990 fcbd f136 83bd 53a3 163c 7291 023d
00000020: 317a e83d 8879 8d3c cac8 eabc 01c3 edbd
00000030: 27dc b1bd 6ca6 ca3d 4603 00be bf30 90bd

encoder_variable_selection.single_variable_grns.day_of_week.mask f4 [16]
0.1295454 0.13591099 -0.44809487 -0.100610115 0.17898184 -0.38518062 -0.35037214 0.19772917
0.102415375 0.28897083 -0.14410758 -0.032941822 0.20750773 -0.16982211 0.3484341 0.23677343
00000000: 8da7 043e 402c 0b3e b16c e5be ad0c cebd
00000010: 0447 373e 6536 c5be fa63 b3be 8479 4a3e
00000020: 27bf d13d fcf3 933e f090 13be 01ee 06bd
00000030: e87c 543e d9e5 2dbe f465 b23e bc74 723e

encoder_variable_selection.single_variable_grns.day_of_week.norm.weight f4 [16]
1.3272682 1.1686854 0.7116496 0.87070084 1.1246759 0.5940847 0.83617723 1.3024017
1.3750237 1.1199058 0.922127 1.1029245 1.1540568 1.3833357 1.3268838 0.8901124
00000000: ede3 a93f 7c97 953f ab2e 363f 40e6 5e3f
00000010: 61f5 8f3f ef15 183f b60f 563f 19b5 a63f
00000020: c700 b03f 1359 8f3f 8410 6c3f a12c 8d3f
00000030: 22b8 933f 2511 b13f 54d7 a93f 68de 633f

encoder_variable_selection.single_variable_grns.day_of_week.norm.bias f4 [16]
-0.7019981 -0.22480887 -0.09379404 -0.037778456 0.12112943 -0.35233712 0.099005386 -0.42518374
-0.485478 -0.044359222 0.05290933 0.47155 0.3256164 0.051980805 0.4031626 0.8425981
00000000: 26b6 33bf 4c34 66be 1717 c0bd 95bd 1abd
00000010: b512 f83d 8865 b4be 56c3 ca3d afb1 d9be
00000020: 9390 f8be 04b2 35bd 74b7 583d 006f f13e
00000030: 31b7 a63e d3e9 543d 546b ce3e 82b4 573f

encoder_variable_selection.single_variable_grns.WL.mask f4 [16]
0.07663225 -0.012281492 0.14271367 -0.17089947 -0.14707845 -0.077258624 0.14509459 -0.089623
0.0057968595 -0.054956507 -0.0383967 -0.027690152 -0.11758855 0.21631147 0.103982925 0.11318321
00000000: 5ef1 9c3d 5038 49bc 8823 123e 4500 2fbe
00000010: bc9b 16be c539 9ebd ad93 143e 438c b7bd
00000020: 95f3 bd3b 131a 61bd dc45 1dbd 75d6 e2bc
00000030: 44d2 f0bd c180 5d3e 00f5 d43d 99cc e73d

encoder_variable_selection.single_variable_grns.WL.norm.weight f4 [16]
0.871545 0.9424335 0.9790214 1.0745391 1.0408416 0.9838324 0.96807325 0.9424642
0.8735518 0.92177516 0.97201043 0.91128033 1.0362396 1.0391574 0.9727031 0.93953604
00000000: 931d 5f3f 5243 713f 25a1 7a3f 7f8a 893f
00000010: 4c3a 853f 71dc 7b3f a6d3 773f 5545 713f
00000020: 17a1 5f3f 75f9 6b3f add5 783f ab49 693f
00000030: 80a3 843f 1c03 853f 1203 793f 6f85 703f

encoder_variable_selection.single_variable_grns.WL.norm.bias f4 [16]
0.09076968 -0.019927254 0.016720545 -0.13182272 -0.10489734 -0.004959051 0.035151225 0.02040067
0.045096695 0.040506817 -0.04822686 -0.10675972 -0.08752571 0.08192628 0.03261136 0.025954083
00000000: 74e5 b93d 7b3e a3bc 86f9 883c 89fc 06be
00000010: 6bd4 d6bd 897f a2bb bbfa 0f3d 4e1f a73c
00000020: 50b7 383d 7aea 253d 8789 45bd d7a4 dabd
00000030: ae40 b3bd f7c8 a73d 7d93 053d a89d d43c

encoder_variable_selection.single_variable_grns.time_idx.resample_norm.mask f4 [16]
-0.15715219 -0.08859674 0.2743174 -0.04296046 -0.025037004 -0.17908812 0.0021321806 -0.023423031
-0.028359605 -0.031661633 0.0021926414 -0.084096305 -0.013287236 -0.16143596 -0.13078573 0.38271073
00000000: 81ec 20be 3572 b5bd 5573 8c3e 4ff7 2fbd
00000010: 671a cdbc e062 37be 0ebc 0b3b a8e1 bfbc
00000020: 6752 e8bc a1af 01bd 6bb2 0f3b af3a acbd
00000030: b5b2 59bc 784f 25be b2ec 05be a9f2 c33e

encoder_variable_selection.single_variable_grns.time_idx.resample_norm.norm.weight f4 [16]
0.8099638 0.8359961 1.3320992 0.8969466 0.98453885 0.79369247 1.0956441 0.9793226
0.9829019 0.8782302 0.968462 0.89292866 0.8859602 0.7786062 0.74413985 1.3177389
00000000: ca59 4f3f d703 563f 3a82 aa3f 4b9e 653f
00000010: bd0a 7c3f 6e2f 4b3f 113e 8c3f e3b4 7a3f
00000020: 759f 7b3f b2d3 603f 20ed 773f f996 643f
00000030: 4ace 623f bc52 473f f37f 3e3f abab a83f

encoder_variable_selection.single_variable_grns.time_idx.resample_norm.norm.bias f4 [16]
0.29955813 -0.12289379 0.30278587 -0.15397848 -0.30450583 0.11303035 0.33268762 0.0049440768
0.19298589 -0.24520536 -0.16107562 -0.03616729 -0.30847314 0.40777582 0.023940159 -0.29336098
00000000: af5f 993e bdaf fbbd c006 9b3e 89ac 1dbe
00000010: 30e8 9bbe 757c e73d 0856 aa3e ec01 a23b
00000020: 189e 453e 1d17 7bbe 02f1 24be 2724 14bd
00000030: 31f0 9dbe fec7 d03e 271e c43c 6933 96be

encoder_variable_selection.single_variable_grns.time_idx.fc1.weight f4 [8, 8]
-0.507002 -0.36098993 -0.18059981 0.44361365 -0.15553147 0.3759819 0.46489307 0.19645074
-0.32734257 -0.3362414 0.33211818 -0.41046128 0.24107005 -0.09431394 0.5133926 -0.25802776
-0.23719472 0.3061644 0.30172497 0.53248715 0.98294055 0.31027323 -0.6214565 -0.7616693
-0.33343995 -0.93525964 0.20081145 0.77268595 0.41990963 0.37687027 0.408194 0.47459772
0.46792725 -0.9677763 0.36300644 -0.5628741 -0.12798773 -0.5916148 1.3209276 -0.11900474
0.13240655 -0.7621322 -0.5847612 0.30007154 0.7180966 0.17857699 -0.36811218 -0.5088994
0.38904873 -0.8456482 0.124563836 0.6526556 0.01640391 0.7672243 0.52715546 0.4080096
-0.089395024 -0.66377926 0.17687216 -0.40337604 -0.3813961 0.14804149 0.4872792 -0.14395724
00000000: e2ca 01bf acd3 b8be 28ef 38be 5421 e33e
00000010: a443 1fbe b380 c03e 7706 ee3e 622a 493e
00000020: 7299 a7be d527 acbe 650b aa3e fb27 d2be
00000030: 11db 763e ab27 c1bd b36d 033f 371c 84be
00000040: 2ce3 72be 95c1 9c3e b27b 9a3e 1451 083f
00000050: fea1 7b3f 22dc 9e3e c617 1fbf c2fc 42bf
00000060: a4b8 aabe 2d6d 6fbf 84a1 4d3e bfce 453f
00000070: 65fe d63e 24f5 c03e cefe d03e 79fe f23e
00000080: 2994 ef3e 30c0 77bf fbdb b93e 8418 10bf
00000090: 370f 03be 1174 17bf 2814 a93f c2b8 f3bd
000000a0: 9595 073e 191b 43bf e9b2 15bf faa2 993e
000000b0: 2ed5 373f e3dc 363e 3379 bcbe 3b47 02bf
000000c0: 6531 c73e 677c 58bf 531b ff3d 7014 273f
000000d0: 7e61 863c d068 443f a9f3 063f a2e6 d03e
000000e0: bd14 b7bd 70ed 29bf fa1d 353e 4e87 cebe
000000f0: 5a46 c3be 3098 173e a97c f93e 8769 13be

encoder_variable_selection.single_variable_grns.time_idx.fc1.bias f4 [8]
0.032568477 -0.039415114 0.11197875 -0.18256693 -0.2161457 0.10871627 -0.28666136 -0.23557924
00000000: 8666 053d be71 21bd 1d55 e53d d3f2 3abe
00000010: 4c55 5dbe a3a6 de3d 47c5 92be af3b 71be
